#loc = loc("/mnt/weka/home/junlin.chen/workspace/autoresearch/autoresearch/.torchinductor-cache/x7/cx7yzvqeih7wv5kk4crxpuxofjr7cdhjtc4ek7uqn4nnxb3y5azv.py":18:0)
#loc21 = loc("in_out_ptr0"(#loc))
#loc22 = loc("in_ptr0"(#loc))
#loc23 = loc("xnumel"(#loc))
module {
  tt.func public @triton_poi_fused_add_mul_9(%in_out_ptr0: !tt.ptr<bf16> {tt.divisibility = 16 : i32} loc("in_out_ptr0"(#loc)), %in_ptr0: !tt.ptr<bf16> {tt.divisibility = 16 : i32} loc("in_ptr0"(#loc)), %xnumel: i32 {tt.divisibility = 16 : i32} loc("xnumel"(#loc))) attributes {noinline = false} {
    %xnumel_0 = arith.constant 64 : i32 loc(#loc24)
    %xoffset = tt.get_program_id x : i32 loc(#loc25)
    %xoffset_1 = arith.constant 64 : i32 loc(#loc26)
    %xoffset_2 = arith.constant 64 : i32 loc(#loc26)
    %xoffset_3 = arith.muli %xoffset, %xoffset_2 : i32 loc(#loc26)
    %xindex = tt.make_range {end = 64 : i32, start = 0 : i32} : tensor<64xi32> loc(#loc27)
    %xindex_4 = tt.splat %xoffset_3 : i32 -> tensor<64xi32> loc(#loc28)
    %xindex_5 = arith.addi %xindex_4, %xindex : tensor<64xi32> loc(#loc28)
    %xmask = arith.constant dense<64> : tensor<64xi32> loc(#loc29)
    %xmask_6 = arith.cmpi slt, %xindex_5, %xmask : tensor<64xi32> loc(#loc29)
    %tmp0 = tt.splat %in_out_ptr0 : !tt.ptr<bf16> -> tensor<64x!tt.ptr<bf16>> loc(#loc30)
    %tmp0_7 = tt.addptr %tmp0, %xindex_5 : tensor<64x!tt.ptr<bf16>>, tensor<64xi32> loc(#loc30)
    %tmp0_8 = tt.load %tmp0_7, %xmask_6 : tensor<64x!tt.ptr<bf16>> loc(#loc31)
    %tmp0_9 = arith.extf %tmp0_8 : tensor<64xbf16> to tensor<64xf32> loc(#loc32)
    %tmp3 = tt.splat %in_ptr0 : !tt.ptr<bf16> -> tensor<64x!tt.ptr<bf16>> loc(#loc33)
    %tmp3_10 = tt.addptr %tmp3, %xindex_5 : tensor<64x!tt.ptr<bf16>>, tensor<64xi32> loc(#loc33)
    %tmp3_11 = tt.load %tmp3_10, %xmask_6 : tensor<64x!tt.ptr<bf16>> loc(#loc34)
    %tmp3_12 = arith.extf %tmp3_11 : tensor<64xbf16> to tensor<64xf32> loc(#loc35)
    %tmp1 = arith.constant -1.70978284 : f32 loc(#loc36)
    %tmp2 = arith.constant dense<-1.70978284> : tensor<64xf32> loc(#loc37)
    %tmp2_13 = arith.mulf %tmp0_9, %tmp2 : tensor<64xf32> loc(#loc37)
    %tmp4 = arith.constant 0.423235506 : f32 loc(#loc38)
    %tmp5 = arith.constant dense<0.423235506> : tensor<64xf32> loc(#loc39)
    %tmp5_14 = arith.mulf %tmp3_12, %tmp5 : tensor<64xf32> loc(#loc39)
    %tmp6 = arith.addf %tmp2_13, %tmp5_14 : tensor<64xf32> loc(#loc40)
    %0 = tt.splat %in_out_ptr0 : !tt.ptr<bf16> -> tensor<64x!tt.ptr<bf16>> loc(#loc18)
    %1 = tt.addptr %0, %xindex_5 : tensor<64x!tt.ptr<bf16>>, tensor<64xi32> loc(#loc18)
    %2 = arith.truncf %tmp6 : tensor<64xf32> to tensor<64xbf16> loc(#loc19)
    tt.store %1, %2, %xmask_6 : tensor<64x!tt.ptr<bf16>> loc(#loc19)
    tt.return loc(#loc20)
  } loc(#loc)
} loc(#loc)
#loc1 = loc("/mnt/weka/home/junlin.chen/workspace/autoresearch/autoresearch/.torchinductor-cache/x7/cx7yzvqeih7wv5kk4crxpuxofjr7cdhjtc4ek7uqn4nnxb3y5azv.py":19:13)
#loc2 = loc("/mnt/weka/home/junlin.chen/workspace/autoresearch/autoresearch/.torchinductor-cache/x7/cx7yzvqeih7wv5kk4crxpuxofjr7cdhjtc4ek7uqn4nnxb3y5azv.py":20:28)
#loc3 = loc("/mnt/weka/home/junlin.chen/workspace/autoresearch/autoresearch/.torchinductor-cache/x7/cx7yzvqeih7wv5kk4crxpuxofjr7cdhjtc4ek7uqn4nnxb3y5azv.py":20:33)
#loc4 = loc("/mnt/weka/home/junlin.chen/workspace/autoresearch/autoresearch/.torchinductor-cache/x7/cx7yzvqeih7wv5kk4crxpuxofjr7cdhjtc4ek7uqn4nnxb3y5azv.py":21:36)
#loc5 = loc("/mnt/weka/home/junlin.chen/workspace/autoresearch/autoresearch/.torchinductor-cache/x7/cx7yzvqeih7wv5kk4crxpuxofjr7cdhjtc4ek7uqn4nnxb3y5azv.py":21:23)
#loc6 = loc("/mnt/weka/home/junlin.chen/workspace/autoresearch/autoresearch/.torchinductor-cache/x7/cx7yzvqeih7wv5kk4crxpuxofjr7cdhjtc4ek7uqn4nnxb3y5azv.py":22:21)
#loc7 = loc("/mnt/weka/home/junlin.chen/workspace/autoresearch/autoresearch/.torchinductor-cache/x7/cx7yzvqeih7wv5kk4crxpuxofjr7cdhjtc4ek7uqn4nnxb3y5azv.py":24:34)
#loc8 = loc("/mnt/weka/home/junlin.chen/workspace/autoresearch/autoresearch/.torchinductor-cache/x7/cx7yzvqeih7wv5kk4crxpuxofjr7cdhjtc4ek7uqn4nnxb3y5azv.py":24:39)
#loc9 = loc("/mnt/weka/home/junlin.chen/workspace/autoresearch/autoresearch/.torchinductor-cache/x7/cx7yzvqeih7wv5kk4crxpuxofjr7cdhjtc4ek7uqn4nnxb3y5azv.py":24:49)
#loc10 = loc("/mnt/weka/home/junlin.chen/workspace/autoresearch/autoresearch/.torchinductor-cache/x7/cx7yzvqeih7wv5kk4crxpuxofjr7cdhjtc4ek7uqn4nnxb3y5azv.py":25:30)
#loc11 = loc("/mnt/weka/home/junlin.chen/workspace/autoresearch/autoresearch/.torchinductor-cache/x7/cx7yzvqeih7wv5kk4crxpuxofjr7cdhjtc4ek7uqn4nnxb3y5azv.py":25:35)
#loc12 = loc("/mnt/weka/home/junlin.chen/workspace/autoresearch/autoresearch/.torchinductor-cache/x7/cx7yzvqeih7wv5kk4crxpuxofjr7cdhjtc4ek7uqn4nnxb3y5azv.py":25:45)
#loc13 = loc("/mnt/weka/home/junlin.chen/workspace/autoresearch/autoresearch/.torchinductor-cache/x7/cx7yzvqeih7wv5kk4crxpuxofjr7cdhjtc4ek7uqn4nnxb3y5azv.py":26:11)
#loc14 = loc("/mnt/weka/home/junlin.chen/workspace/autoresearch/autoresearch/.torchinductor-cache/x7/cx7yzvqeih7wv5kk4crxpuxofjr7cdhjtc4ek7uqn4nnxb3y5azv.py":27:18)
#loc15 = loc("/mnt/weka/home/junlin.chen/workspace/autoresearch/autoresearch/.torchinductor-cache/x7/cx7yzvqeih7wv5kk4crxpuxofjr7cdhjtc4ek7uqn4nnxb3y5azv.py":28:11)
#loc16 = loc("/mnt/weka/home/junlin.chen/workspace/autoresearch/autoresearch/.torchinductor-cache/x7/cx7yzvqeih7wv5kk4crxpuxofjr7cdhjtc4ek7uqn4nnxb3y5azv.py":29:18)
#loc17 = loc("/mnt/weka/home/junlin.chen/workspace/autoresearch/autoresearch/.torchinductor-cache/x7/cx7yzvqeih7wv5kk4crxpuxofjr7cdhjtc4ek7uqn4nnxb3y5azv.py":30:18)
#loc18 = loc("/mnt/weka/home/junlin.chen/workspace/autoresearch/autoresearch/.torchinductor-cache/x7/cx7yzvqeih7wv5kk4crxpuxofjr7cdhjtc4ek7uqn4nnxb3y5azv.py":31:28)
#loc19 = loc("/mnt/weka/home/junlin.chen/workspace/autoresearch/autoresearch/.torchinductor-cache/x7/cx7yzvqeih7wv5kk4crxpuxofjr7cdhjtc4ek7uqn4nnxb3y5azv.py":31:39)
#loc20 = loc("/mnt/weka/home/junlin.chen/workspace/autoresearch/autoresearch/.torchinductor-cache/x7/cx7yzvqeih7wv5kk4crxpuxofjr7cdhjtc4ek7uqn4nnxb3y5azv.py":31:4)
#loc24 = loc("xnumel"(#loc1))
#loc25 = loc("xoffset"(#loc2))
#loc26 = loc("xoffset"(#loc3))
#loc27 = loc("xindex"(#loc4))
#loc28 = loc("xindex"(#loc5))
#loc29 = loc("xmask"(#loc6))
#loc30 = loc("tmp0"(#loc7))
#loc31 = loc("tmp0"(#loc8))
#loc32 = loc("tmp0"(#loc9))
#loc33 = loc("tmp3"(#loc10))
#loc34 = loc("tmp3"(#loc11))
#loc35 = loc("tmp3"(#loc12))
#loc36 = loc("tmp1"(#loc13))
#loc37 = loc("tmp2"(#loc14))
#loc38 = loc("tmp4"(#loc15))
#loc39 = loc("tmp5"(#loc16))
#loc40 = loc("tmp6"(#loc17))
