#loc = loc("/mnt/weka/home/junlin.chen/workspace/autoresearch/autoresearch/.torchinductor-cache/ah/cah7h6bs44ca6adoc6bglu7mu6ch4zj6upeeh6guw5d27sq5toib.py":18:0)
#loc1 = loc(unknown)
#loc12 = loc("/mnt/weka/home/junlin.chen/workspace/autoresearch/autoresearch/.torchinductor-cache/ah/cah7h6bs44ca6adoc6bglu7mu6ch4zj6upeeh6guw5d27sq5toib.py":37:24)
#loc18 = loc("in_ptr0"(#loc))
#loc19 = loc("out_ptr0"(#loc))
#loc20 = loc("xnumel"(#loc))
#loc21 = loc("r0_numel"(#loc))
#loc31 = loc("tmp4"(#loc12))
#loc36 = loc(callsite(#loc1 at #loc31))
module {
  tt.func public @triton_per_fused__to_copy_lerp_linalg_vector_norm_rsub_1(%in_ptr0: !tt.ptr<f32> {tt.divisibility = 16 : i32} loc("in_ptr0"(#loc)), %out_ptr0: !tt.ptr<f32> {tt.divisibility = 16 : i32} loc("out_ptr0"(#loc)), %xnumel: i32 {tt.divisibility = 16 : i32} loc("xnumel"(#loc)), %r0_numel: i32 {tt.divisibility = 16 : i32} loc("r0_numel"(#loc))) attributes {noinline = false} {
    %c32_i32 = arith.constant 32 : i32 loc(#loc1)
    %cst = arith.constant dense<0.000000e+00> : tensor<1x32xf32> loc(#loc1)
    %xoffset = tt.get_program_id x : i32 loc(#loc22)
    %xmask = arith.cmpi slt, %xoffset, %c32_i32 : i32 loc(#loc23)
    %xmask_0 = tt.splat %xmask : i1 -> tensor<1x1xi1> loc(#loc23)
    %r0_index = tt.make_range {end = 32 : i32, start = 0 : i32} : tensor<32xi32> loc(#loc24)
    %r0_index_1 = tt.expand_dims %r0_index {axis = 0 : i32} : tensor<32xi32> -> tensor<1x32xi32> loc(#loc25)
    %tmp0 = arith.muli %xoffset, %c32_i32 : i32 loc(#loc26)
    %tmp0_2 = tt.splat %tmp0 : i32 -> tensor<1x32xi32> loc(#loc33)
    %tmp0_3 = arith.addi %r0_index_1, %tmp0_2 : tensor<1x32xi32> loc(#loc27)
    %tmp0_4 = tt.splat %in_ptr0 : !tt.ptr<f32> -> tensor<1x32x!tt.ptr<f32>> loc(#loc28)
    %tmp0_5 = tt.addptr %tmp0_4, %tmp0_3 : tensor<1x32x!tt.ptr<f32>>, tensor<1x32xi32> loc(#loc28)
    %tmp0_6 = tt.splat %xmask : i1 -> tensor<1x32xi1> loc(#loc34)
    %tmp0_7 = tt.load %tmp0_5, %tmp0_6, %cst : tensor<1x32x!tt.ptr<f32>> loc(#loc29)
    %tmp3 = arith.select %tmp0_6, %tmp0_7, %cst : tensor<1x32xi1>, tensor<1x32xf32> loc(#loc30)
    %tmp4 = "tt.reduce"(%tmp3) <{axis = 1 : i32}> ({
    ^bb0(%tmp4_9: f32 loc(callsite(#loc1 at #loc31)), %tmp4_10: f32 loc(callsite(#loc1 at #loc31))):
      %tmp4_11 = arith.addf %tmp4_9, %tmp4_10 : f32 loc(#loc37)
      tt.reduce.return %tmp4_11 : f32 loc(#loc35)
    }) : (tensor<1x32xf32>) -> tensor<1xf32> loc(#loc35)
    %tmp4_8 = tt.expand_dims %tmp4 {axis = 1 : i32} : tensor<1xf32> -> tensor<1x1xf32> loc(#loc32)
    %0 = tt.addptr %out_ptr0, %xoffset : !tt.ptr<f32>, i32 loc(#loc15)
    %1 = tt.splat %0 : !tt.ptr<f32> -> tensor<1x1x!tt.ptr<f32>> loc(#loc15)
    tt.store %1, %tmp4_8, %xmask_0 : tensor<1x1x!tt.ptr<f32>> loc(#loc16)
    tt.return loc(#loc17)
  } loc(#loc)
} loc(#loc)
#loc2 = loc("/mnt/weka/home/junlin.chen/workspace/autoresearch/autoresearch/.torchinductor-cache/ah/cah7h6bs44ca6adoc6bglu7mu6ch4zj6upeeh6guw5d27sq5toib.py":24:28)
#loc3 = loc("/mnt/weka/home/junlin.chen/workspace/autoresearch/autoresearch/.torchinductor-cache/ah/cah7h6bs44ca6adoc6bglu7mu6ch4zj6upeeh6guw5d27sq5toib.py":26:21)
#loc4 = loc("/mnt/weka/home/junlin.chen/workspace/autoresearch/autoresearch/.torchinductor-cache/ah/cah7h6bs44ca6adoc6bglu7mu6ch4zj6upeeh6guw5d27sq5toib.py":27:28)
#loc5 = loc("/mnt/weka/home/junlin.chen/workspace/autoresearch/autoresearch/.torchinductor-cache/ah/cah7h6bs44ca6adoc6bglu7mu6ch4zj6upeeh6guw5d27sq5toib.py":27:38)
#loc6 = loc("/mnt/weka/home/junlin.chen/workspace/autoresearch/autoresearch/.torchinductor-cache/ah/cah7h6bs44ca6adoc6bglu7mu6ch4zj6upeeh6guw5d27sq5toib.py":34:40)
#loc7 = loc("/mnt/weka/home/junlin.chen/workspace/autoresearch/autoresearch/.torchinductor-cache/ah/cah7h6bs44ca6adoc6bglu7mu6ch4zj6upeeh6guw5d27sq5toib.py":34:37)
#loc8 = loc("/mnt/weka/home/junlin.chen/workspace/autoresearch/autoresearch/.torchinductor-cache/ah/cah7h6bs44ca6adoc6bglu7mu6ch4zj6upeeh6guw5d27sq5toib.py":34:30)
#loc9 = loc("/mnt/weka/home/junlin.chen/workspace/autoresearch/autoresearch/.torchinductor-cache/ah/cah7h6bs44ca6adoc6bglu7mu6ch4zj6upeeh6guw5d27sq5toib.py":34:45)
#loc10 = loc("/mnt/weka/home/junlin.chen/workspace/autoresearch/autoresearch/.torchinductor-cache/ah/cah7h6bs44ca6adoc6bglu7mu6ch4zj6upeeh6guw5d27sq5toib.py":36:33)
#loc11 = loc("/mnt/weka/home/junlin.chen/workspace/autoresearch/autoresearch/.venv/lib/python3.13/site-packages/triton/language/standard.py":291:36)
#loc13 = loc("/mnt/weka/home/junlin.chen/workspace/autoresearch/autoresearch/.venv/lib/python3.13/site-packages/triton/language/standard.py":261:15)
#loc14 = loc("/mnt/weka/home/junlin.chen/workspace/autoresearch/autoresearch/.torchinductor-cache/ah/cah7h6bs44ca6adoc6bglu7mu6ch4zj6upeeh6guw5d27sq5toib.py":37:27)
#loc15 = loc("/mnt/weka/home/junlin.chen/workspace/autoresearch/autoresearch/.torchinductor-cache/ah/cah7h6bs44ca6adoc6bglu7mu6ch4zj6upeeh6guw5d27sq5toib.py":38:25)
#loc16 = loc("/mnt/weka/home/junlin.chen/workspace/autoresearch/autoresearch/.torchinductor-cache/ah/cah7h6bs44ca6adoc6bglu7mu6ch4zj6upeeh6guw5d27sq5toib.py":38:36)
#loc17 = loc("/mnt/weka/home/junlin.chen/workspace/autoresearch/autoresearch/.torchinductor-cache/ah/cah7h6bs44ca6adoc6bglu7mu6ch4zj6upeeh6guw5d27sq5toib.py":38:4)
#loc22 = loc("xoffset"(#loc2))
#loc23 = loc("xmask"(#loc3))
#loc24 = loc("r0_index"(#loc4))
#loc25 = loc("r0_index"(#loc5))
#loc26 = loc("tmp0"(#loc6))
#loc27 = loc("tmp0"(#loc7))
#loc28 = loc("tmp0"(#loc8))
#loc29 = loc("tmp0"(#loc9))
#loc30 = loc("tmp3"(#loc10))
#loc32 = loc("tmp4"(#loc14))
#loc33 = loc(fused[#loc27, #loc26])
#loc34 = loc(fused[#loc29, #loc23])
#loc35 = loc(callsite(#loc11 at #loc31))
#loc37 = loc(callsite(#loc13 at #loc35))
