#loc = loc("/mnt/weka/home/junlin.chen/workspace/autoresearch/autoresearch/.torchinductor-cache/26/c26z7dp7vkol3jgvdiv7m25fkfite7jkbhpqibvbfw6slfte2tq2.py":18:0)
#loc1 = loc(unknown)
#loc17 = loc("/mnt/weka/home/junlin.chen/workspace/autoresearch/autoresearch/.torchinductor-cache/26/c26z7dp7vkol3jgvdiv7m25fkfite7jkbhpqibvbfw6slfte2tq2.py":42:24)
#loc23 = loc("in_ptr0"(#loc))
#loc24 = loc("in_ptr1"(#loc))
#loc25 = loc("out_ptr0"(#loc))
#loc26 = loc("xnumel"(#loc))
#loc27 = loc("r0_numel"(#loc))
#loc42 = loc("tmp9"(#loc17))
#loc46 = loc(callsite(#loc1 at #loc42))
module {
  tt.func public @triton_per_fused__to_copy_add_mean_mul_pow_12(%in_ptr0: !tt.ptr<bf16> {tt.divisibility = 16 : i32} loc("in_ptr0"(#loc)), %in_ptr1: !tt.ptr<bf16> {tt.divisibility = 16 : i32} loc("in_ptr1"(#loc)), %out_ptr0: !tt.ptr<f32> {tt.divisibility = 16 : i32} loc("out_ptr0"(#loc)), %xnumel: i32 {tt.divisibility = 16 : i32} loc("xnumel"(#loc)), %r0_numel: i32 {tt.divisibility = 16 : i32} loc("r0_numel"(#loc))) attributes {noinline = false} {
    %c512_i32 = arith.constant 512 : i32 loc(#loc1)
    %tmp2 = arith.constant dense<2.3465414> : tensor<1x512xf32> loc(#loc28)
    %xoffset = tt.get_program_id x : i32 loc(#loc29)
    %r0_index = tt.make_range {end = 512 : i32, start = 0 : i32} : tensor<512xi32> loc(#loc30)
    %r0_index_0 = tt.expand_dims %r0_index {axis = 0 : i32} : tensor<512xi32> -> tensor<1x512xi32> loc(#loc31)
    %tmp0 = arith.muli %xoffset, %c512_i32 : i32 loc(#loc32)
    %tmp0_1 = tt.splat %tmp0 : i32 -> tensor<1x512xi32> loc(#loc44)
    %tmp0_2 = arith.addi %r0_index_0, %tmp0_1 : tensor<1x512xi32> loc(#loc33)
    %tmp0_3 = tt.splat %in_ptr0 : !tt.ptr<bf16> -> tensor<1x512x!tt.ptr<bf16>> loc(#loc34)
    %tmp0_4 = tt.addptr %tmp0_3, %tmp0_2 : tensor<1x512x!tt.ptr<bf16>>, tensor<1x512xi32> loc(#loc34)
    %tmp0_5 = tt.load %tmp0_4 : tensor<1x512x!tt.ptr<bf16>> loc(#loc35)
    %tmp0_6 = arith.extf %tmp0_5 : tensor<1x512xbf16> to tensor<1x512xf32> loc(#loc36)
    %tmp3 = tt.splat %in_ptr1 : !tt.ptr<bf16> -> tensor<1x512x!tt.ptr<bf16>> loc(#loc37)
    %tmp3_7 = tt.addptr %tmp3, %tmp0_2 : tensor<1x512x!tt.ptr<bf16>>, tensor<1x512xi32> loc(#loc37)
    %tmp3_8 = tt.load %tmp3_7 : tensor<1x512x!tt.ptr<bf16>> loc(#loc38)
    %tmp3_9 = arith.extf %tmp3_8 : tensor<1x512xbf16> to tensor<1x512xf32> loc(#loc39)
    %tmp2_10 = arith.mulf %tmp0_6, %tmp2 : tensor<1x512xf32> loc(#loc28)
    %tmp4 = arith.addf %tmp2_10, %tmp3_9 : tensor<1x512xf32> loc(#loc40)
    %tmp6 = arith.mulf %tmp4, %tmp4 : tensor<1x512xf32> loc(#loc41)
    %tmp9 = "tt.reduce"(%tmp6) <{axis = 1 : i32}> ({
    ^bb0(%tmp9_12: f32 loc(callsite(#loc1 at #loc42)), %tmp9_13: f32 loc(callsite(#loc1 at #loc42))):
      %tmp9_14 = arith.addf %tmp9_12, %tmp9_13 : f32 loc(#loc47)
      tt.reduce.return %tmp9_14 : f32 loc(#loc45)
    }) : (tensor<1x512xf32>) -> tensor<1xf32> loc(#loc45)
    %tmp9_11 = tt.expand_dims %tmp9 {axis = 1 : i32} : tensor<1xf32> -> tensor<1x1xf32> loc(#loc43)
    %0 = tt.addptr %out_ptr0, %xoffset : !tt.ptr<f32>, i32 loc(#loc20)
    %1 = tt.splat %0 : !tt.ptr<f32> -> tensor<1x1x!tt.ptr<f32>> loc(#loc20)
    tt.store %1, %tmp9_11 : tensor<1x1x!tt.ptr<f32>> loc(#loc21)
    tt.return loc(#loc22)
  } loc(#loc)
} loc(#loc)
#loc2 = loc("/mnt/weka/home/junlin.chen/workspace/autoresearch/autoresearch/.torchinductor-cache/26/c26z7dp7vkol3jgvdiv7m25fkfite7jkbhpqibvbfw6slfte2tq2.py":37:18)
#loc3 = loc("/mnt/weka/home/junlin.chen/workspace/autoresearch/autoresearch/.torchinductor-cache/26/c26z7dp7vkol3jgvdiv7m25fkfite7jkbhpqibvbfw6slfte2tq2.py":24:28)
#loc4 = loc("/mnt/weka/home/junlin.chen/workspace/autoresearch/autoresearch/.torchinductor-cache/26/c26z7dp7vkol3jgvdiv7m25fkfite7jkbhpqibvbfw6slfte2tq2.py":27:28)
#loc5 = loc("/mnt/weka/home/junlin.chen/workspace/autoresearch/autoresearch/.torchinductor-cache/26/c26z7dp7vkol3jgvdiv7m25fkfite7jkbhpqibvbfw6slfte2tq2.py":27:38)
#loc6 = loc("/mnt/weka/home/junlin.chen/workspace/autoresearch/autoresearch/.torchinductor-cache/26/c26z7dp7vkol3jgvdiv7m25fkfite7jkbhpqibvbfw6slfte2tq2.py":34:41)
#loc7 = loc("/mnt/weka/home/junlin.chen/workspace/autoresearch/autoresearch/.torchinductor-cache/26/c26z7dp7vkol3jgvdiv7m25fkfite7jkbhpqibvbfw6slfte2tq2.py":34:37)
#loc8 = loc("/mnt/weka/home/junlin.chen/workspace/autoresearch/autoresearch/.torchinductor-cache/26/c26z7dp7vkol3jgvdiv7m25fkfite7jkbhpqibvbfw6slfte2tq2.py":34:30)
#loc9 = loc("/mnt/weka/home/junlin.chen/workspace/autoresearch/autoresearch/.torchinductor-cache/26/c26z7dp7vkol3jgvdiv7m25fkfite7jkbhpqibvbfw6slfte2tq2.py":34:46)
#loc10 = loc("/mnt/weka/home/junlin.chen/workspace/autoresearch/autoresearch/.torchinductor-cache/26/c26z7dp7vkol3jgvdiv7m25fkfite7jkbhpqibvbfw6slfte2tq2.py":34:55)
#loc11 = loc("/mnt/weka/home/junlin.chen/workspace/autoresearch/autoresearch/.torchinductor-cache/26/c26z7dp7vkol3jgvdiv7m25fkfite7jkbhpqibvbfw6slfte2tq2.py":35:30)
#loc12 = loc("/mnt/weka/home/junlin.chen/workspace/autoresearch/autoresearch/.torchinductor-cache/26/c26z7dp7vkol3jgvdiv7m25fkfite7jkbhpqibvbfw6slfte2tq2.py":35:46)
#loc13 = loc("/mnt/weka/home/junlin.chen/workspace/autoresearch/autoresearch/.torchinductor-cache/26/c26z7dp7vkol3jgvdiv7m25fkfite7jkbhpqibvbfw6slfte2tq2.py":35:55)
#loc14 = loc("/mnt/weka/home/junlin.chen/workspace/autoresearch/autoresearch/.torchinductor-cache/26/c26z7dp7vkol3jgvdiv7m25fkfite7jkbhpqibvbfw6slfte2tq2.py":38:18)
#loc15 = loc("/mnt/weka/home/junlin.chen/workspace/autoresearch/autoresearch/.torchinductor-cache/26/c26z7dp7vkol3jgvdiv7m25fkfite7jkbhpqibvbfw6slfte2tq2.py":40:18)
#loc16 = loc("/mnt/weka/home/junlin.chen/workspace/autoresearch/autoresearch/.venv/lib/python3.13/site-packages/triton/language/standard.py":291:36)
#loc18 = loc("/mnt/weka/home/junlin.chen/workspace/autoresearch/autoresearch/.venv/lib/python3.13/site-packages/triton/language/standard.py":261:15)
#loc19 = loc("/mnt/weka/home/junlin.chen/workspace/autoresearch/autoresearch/.torchinductor-cache/26/c26z7dp7vkol3jgvdiv7m25fkfite7jkbhpqibvbfw6slfte2tq2.py":42:27)
#loc20 = loc("/mnt/weka/home/junlin.chen/workspace/autoresearch/autoresearch/.torchinductor-cache/26/c26z7dp7vkol3jgvdiv7m25fkfite7jkbhpqibvbfw6slfte2tq2.py":43:25)
#loc21 = loc("/mnt/weka/home/junlin.chen/workspace/autoresearch/autoresearch/.torchinductor-cache/26/c26z7dp7vkol3jgvdiv7m25fkfite7jkbhpqibvbfw6slfte2tq2.py":43:36)
#loc22 = loc("/mnt/weka/home/junlin.chen/workspace/autoresearch/autoresearch/.torchinductor-cache/26/c26z7dp7vkol3jgvdiv7m25fkfite7jkbhpqibvbfw6slfte2tq2.py":43:4)
#loc28 = loc("tmp2"(#loc2))
#loc29 = loc("xoffset"(#loc3))
#loc30 = loc("r0_index"(#loc4))
#loc31 = loc("r0_index"(#loc5))
#loc32 = loc("tmp0"(#loc6))
#loc33 = loc("tmp0"(#loc7))
#loc34 = loc("tmp0"(#loc8))
#loc35 = loc("tmp0"(#loc9))
#loc36 = loc("tmp0"(#loc10))
#loc37 = loc("tmp3"(#loc11))
#loc38 = loc("tmp3"(#loc12))
#loc39 = loc("tmp3"(#loc13))
#loc40 = loc("tmp4"(#loc14))
#loc41 = loc("tmp6"(#loc15))
#loc43 = loc("tmp9"(#loc19))
#loc44 = loc(fused[#loc33, #loc32])
#loc45 = loc(callsite(#loc16 at #loc42))
#loc47 = loc(callsite(#loc18 at #loc45))
