#loc = loc("/mnt/weka/home/junlin.chen/workspace/autoresearch/autoresearch/.torchinductor-cache/dn/cdnyt7flbeo7mnhhvd42cojk3gx37f3zzmqigq33j6s4nyim4bkl.py":18:0)
#loc18 = loc("in_ptr0"(#loc))
#loc19 = loc("in_ptr1"(#loc))
#loc20 = loc("out_ptr0"(#loc))
#loc21 = loc("xnumel"(#loc))
module {
  tt.func public @triton_poi_fused_add_mul_2(%in_ptr0: !tt.ptr<bf16> {tt.divisibility = 16 : i32} loc("in_ptr0"(#loc)), %in_ptr1: !tt.ptr<bf16> {tt.divisibility = 16 : i32} loc("in_ptr1"(#loc)), %out_ptr0: !tt.ptr<bf16> {tt.divisibility = 16 : i32} loc("out_ptr0"(#loc)), %xnumel: i32 {tt.divisibility = 16 : i32} loc("xnumel"(#loc))) attributes {noinline = false} {
    %tmp2 = arith.constant dense<8.15655422> : tensor<128xf32> loc(#loc22)
    %xmask = arith.constant dense<800> : tensor<128xi32> loc(#loc23)
    %c128_i32 = arith.constant 128 : i32 loc(#loc3)
    %xoffset = tt.get_program_id x : i32 loc(#loc24)
    %xoffset_0 = arith.muli %xoffset, %c128_i32 : i32 loc(#loc25)
    %xindex = tt.make_range {end = 128 : i32, start = 0 : i32} : tensor<128xi32> loc(#loc26)
    %xindex_1 = tt.splat %xoffset_0 : i32 -> tensor<128xi32> loc(#loc27)
    %xindex_2 = arith.addi %xindex_1, %xindex : tensor<128xi32> loc(#loc27)
    %xmask_3 = arith.cmpi slt, %xindex_2, %xmask : tensor<128xi32> loc(#loc23)
    %tmp0 = tt.splat %in_ptr0 : !tt.ptr<bf16> -> tensor<128x!tt.ptr<bf16>> loc(#loc28)
    %tmp0_4 = tt.addptr %tmp0, %xindex_2 : tensor<128x!tt.ptr<bf16>>, tensor<128xi32> loc(#loc28)
    %tmp0_5 = tt.load %tmp0_4, %xmask_3 : tensor<128x!tt.ptr<bf16>> loc(#loc29)
    %tmp0_6 = arith.extf %tmp0_5 : tensor<128xbf16> to tensor<128xf32> loc(#loc30)
    %tmp3 = tt.splat %in_ptr1 : !tt.ptr<bf16> -> tensor<128x!tt.ptr<bf16>> loc(#loc31)
    %tmp3_7 = tt.addptr %tmp3, %xindex_2 : tensor<128x!tt.ptr<bf16>>, tensor<128xi32> loc(#loc31)
    %tmp3_8 = tt.load %tmp3_7, %xmask_3 : tensor<128x!tt.ptr<bf16>> loc(#loc32)
    %tmp3_9 = arith.extf %tmp3_8 : tensor<128xbf16> to tensor<128xf32> loc(#loc33)
    %tmp2_10 = arith.mulf %tmp0_6, %tmp2 : tensor<128xf32> loc(#loc22)
    %tmp4 = arith.addf %tmp2_10, %tmp3_9 : tensor<128xf32> loc(#loc34)
    %0 = tt.splat %out_ptr0 : !tt.ptr<bf16> -> tensor<128x!tt.ptr<bf16>> loc(#loc15)
    %1 = tt.addptr %0, %xindex_2 : tensor<128x!tt.ptr<bf16>>, tensor<128xi32> loc(#loc15)
    %2 = arith.truncf %tmp4 : tensor<128xf32> to tensor<128xbf16> loc(#loc16)
    tt.store %1, %2, %xmask_3 : tensor<128x!tt.ptr<bf16>> loc(#loc16)
    tt.return loc(#loc17)
  } loc(#loc)
} loc(#loc)
#loc1 = loc("/mnt/weka/home/junlin.chen/workspace/autoresearch/autoresearch/.torchinductor-cache/dn/cdnyt7flbeo7mnhhvd42cojk3gx37f3zzmqigq33j6s4nyim4bkl.py":27:18)
#loc2 = loc("/mnt/weka/home/junlin.chen/workspace/autoresearch/autoresearch/.torchinductor-cache/dn/cdnyt7flbeo7mnhhvd42cojk3gx37f3zzmqigq33j6s4nyim4bkl.py":22:21)
#loc3 = loc(unknown)
#loc4 = loc("/mnt/weka/home/junlin.chen/workspace/autoresearch/autoresearch/.torchinductor-cache/dn/cdnyt7flbeo7mnhhvd42cojk3gx37f3zzmqigq33j6s4nyim4bkl.py":20:28)
#loc5 = loc("/mnt/weka/home/junlin.chen/workspace/autoresearch/autoresearch/.torchinductor-cache/dn/cdnyt7flbeo7mnhhvd42cojk3gx37f3zzmqigq33j6s4nyim4bkl.py":20:33)
#loc6 = loc("/mnt/weka/home/junlin.chen/workspace/autoresearch/autoresearch/.torchinductor-cache/dn/cdnyt7flbeo7mnhhvd42cojk3gx37f3zzmqigq33j6s4nyim4bkl.py":21:36)
#loc7 = loc("/mnt/weka/home/junlin.chen/workspace/autoresearch/autoresearch/.torchinductor-cache/dn/cdnyt7flbeo7mnhhvd42cojk3gx37f3zzmqigq33j6s4nyim4bkl.py":21:23)
#loc8 = loc("/mnt/weka/home/junlin.chen/workspace/autoresearch/autoresearch/.torchinductor-cache/dn/cdnyt7flbeo7mnhhvd42cojk3gx37f3zzmqigq33j6s4nyim4bkl.py":24:30)
#loc9 = loc("/mnt/weka/home/junlin.chen/workspace/autoresearch/autoresearch/.torchinductor-cache/dn/cdnyt7flbeo7mnhhvd42cojk3gx37f3zzmqigq33j6s4nyim4bkl.py":24:35)
#loc10 = loc("/mnt/weka/home/junlin.chen/workspace/autoresearch/autoresearch/.torchinductor-cache/dn/cdnyt7flbeo7mnhhvd42cojk3gx37f3zzmqigq33j6s4nyim4bkl.py":24:45)
#loc11 = loc("/mnt/weka/home/junlin.chen/workspace/autoresearch/autoresearch/.torchinductor-cache/dn/cdnyt7flbeo7mnhhvd42cojk3gx37f3zzmqigq33j6s4nyim4bkl.py":25:30)
#loc12 = loc("/mnt/weka/home/junlin.chen/workspace/autoresearch/autoresearch/.torchinductor-cache/dn/cdnyt7flbeo7mnhhvd42cojk3gx37f3zzmqigq33j6s4nyim4bkl.py":25:35)
#loc13 = loc("/mnt/weka/home/junlin.chen/workspace/autoresearch/autoresearch/.torchinductor-cache/dn/cdnyt7flbeo7mnhhvd42cojk3gx37f3zzmqigq33j6s4nyim4bkl.py":25:45)
#loc14 = loc("/mnt/weka/home/junlin.chen/workspace/autoresearch/autoresearch/.torchinductor-cache/dn/cdnyt7flbeo7mnhhvd42cojk3gx37f3zzmqigq33j6s4nyim4bkl.py":28:18)
#loc15 = loc("/mnt/weka/home/junlin.chen/workspace/autoresearch/autoresearch/.torchinductor-cache/dn/cdnyt7flbeo7mnhhvd42cojk3gx37f3zzmqigq33j6s4nyim4bkl.py":29:25)
#loc16 = loc("/mnt/weka/home/junlin.chen/workspace/autoresearch/autoresearch/.torchinductor-cache/dn/cdnyt7flbeo7mnhhvd42cojk3gx37f3zzmqigq33j6s4nyim4bkl.py":29:36)
#loc17 = loc("/mnt/weka/home/junlin.chen/workspace/autoresearch/autoresearch/.torchinductor-cache/dn/cdnyt7flbeo7mnhhvd42cojk3gx37f3zzmqigq33j6s4nyim4bkl.py":29:4)
#loc22 = loc("tmp2"(#loc1))
#loc23 = loc("xmask"(#loc2))
#loc24 = loc("xoffset"(#loc4))
#loc25 = loc("xoffset"(#loc5))
#loc26 = loc("xindex"(#loc6))
#loc27 = loc("xindex"(#loc7))
#loc28 = loc("tmp0"(#loc8))
#loc29 = loc("tmp0"(#loc9))
#loc30 = loc("tmp0"(#loc10))
#loc31 = loc("tmp3"(#loc11))
#loc32 = loc("tmp3"(#loc12))
#loc33 = loc("tmp3"(#loc13))
#loc34 = loc("tmp4"(#loc14))
