#loc = loc("/mnt/weka/home/junlin.chen/workspace/autoresearch/autoresearch/.torchinductor-cache/y3/cy3cpy5e7kj4rz7zifrox7ecimmhlnft3sg7b45bfvsomrz62dcy.py":18:0)
#loc21 = loc("in_out_ptr0"(#loc))
#loc22 = loc("in_ptr0"(#loc))
#loc23 = loc("xnumel"(#loc))
module {
  tt.func public @triton_poi_fused__to_copy__unsafe_view_mul_pow_relu_threshold_backward_view_4(%in_out_ptr0: !tt.ptr<bf16> {tt.divisibility = 16 : i32} loc("in_out_ptr0"(#loc)), %in_ptr0: !tt.ptr<bf16> {tt.divisibility = 16 : i32} loc("in_ptr0"(#loc)), %xnumel: i32 {tt.divisibility = 16 : i32} loc("xnumel"(#loc))) attributes {noinline = false} {
    %tmp9 = arith.constant dense<2.000000e+00> : tensor<512xf32> loc(#loc24)
    %cst = arith.constant dense<0.000000e+00> : tensor<512xf32> loc(#loc2)
    %c512_i32 = arith.constant 512 : i32 loc(#loc2)
    %xoffset = tt.get_program_id x : i32 loc(#loc25)
    %xoffset_0 = arith.muli %xoffset, %c512_i32 : i32 loc(#loc26)
    %xindex = tt.make_range {end = 512 : i32, start = 0 : i32} : tensor<512xi32> loc(#loc27)
    %xindex_1 = tt.splat %xoffset_0 : i32 -> tensor<512xi32> loc(#loc28)
    %xindex_2 = arith.addi %xindex_1, %xindex : tensor<512xi32> loc(#loc28)
    %tmp0 = tt.splat %in_out_ptr0 : !tt.ptr<bf16> -> tensor<512x!tt.ptr<bf16>> loc(#loc29)
    %tmp0_3 = tt.addptr %tmp0, %xindex_2 : tensor<512x!tt.ptr<bf16>>, tensor<512xi32> loc(#loc29)
    %tmp0_4 = tt.load %tmp0_3 : tensor<512x!tt.ptr<bf16>> loc(#loc30)
    %tmp0_5 = arith.extf %tmp0_4 : tensor<512xbf16> to tensor<512xf32> loc(#loc31)
    %tmp5 = tt.splat %in_ptr0 : !tt.ptr<bf16> -> tensor<512x!tt.ptr<bf16>> loc(#loc32)
    %tmp5_6 = tt.addptr %tmp5, %xindex_2 : tensor<512x!tt.ptr<bf16>>, tensor<512xi32> loc(#loc32)
    %tmp5_7 = tt.load %tmp5_6 : tensor<512x!tt.ptr<bf16>> loc(#loc33)
    %tmp5_8 = arith.extf %tmp5_7 : tensor<512xbf16> to tensor<512xf32> loc(#loc34)
    %mask = arith.cmpf ogt, %cst, %tmp0_5 : tensor<512xf32> loc(#loc42)
    %tmp2 = arith.select %mask, %cst, %tmp0_5 : tensor<512xi1>, tensor<512xf32> loc(#loc41)
    %tmp4 = arith.cmpf ole, %tmp2, %cst : tensor<512xf32> loc(#loc37)
    %tmp9_9 = arith.mulf %tmp2, %tmp9 : tensor<512xf32> loc(#loc24)
    %tmp10 = arith.mulf %tmp5_8, %tmp9_9 : tensor<512xf32> loc(#loc38)
    %tmp12 = arith.select %tmp4, %cst, %tmp10 : tensor<512xi1>, tensor<512xf32> loc(#loc39)
    %0 = arith.truncf %tmp12 : tensor<512xf32> to tensor<512xbf16> loc(#loc19)
    tt.store %tmp0_3, %0 : tensor<512x!tt.ptr<bf16>> loc(#loc19)
    tt.return loc(#loc20)
  } loc(#loc)
} loc(#loc)
#loc1 = loc("/mnt/weka/home/junlin.chen/workspace/autoresearch/autoresearch/.torchinductor-cache/y3/cy3cpy5e7kj4rz7zifrox7ecimmhlnft3sg7b45bfvsomrz62dcy.py":33:18)
#loc2 = loc(unknown)
#loc3 = loc("/mnt/weka/home/junlin.chen/workspace/autoresearch/autoresearch/.torchinductor-cache/y3/cy3cpy5e7kj4rz7zifrox7ecimmhlnft3sg7b45bfvsomrz62dcy.py":20:28)
#loc4 = loc("/mnt/weka/home/junlin.chen/workspace/autoresearch/autoresearch/.torchinductor-cache/y3/cy3cpy5e7kj4rz7zifrox7ecimmhlnft3sg7b45bfvsomrz62dcy.py":20:33)
#loc5 = loc("/mnt/weka/home/junlin.chen/workspace/autoresearch/autoresearch/.torchinductor-cache/y3/cy3cpy5e7kj4rz7zifrox7ecimmhlnft3sg7b45bfvsomrz62dcy.py":21:36)
#loc6 = loc("/mnt/weka/home/junlin.chen/workspace/autoresearch/autoresearch/.torchinductor-cache/y3/cy3cpy5e7kj4rz7zifrox7ecimmhlnft3sg7b45bfvsomrz62dcy.py":21:23)
#loc7 = loc("/mnt/weka/home/junlin.chen/workspace/autoresearch/autoresearch/.torchinductor-cache/y3/cy3cpy5e7kj4rz7zifrox7ecimmhlnft3sg7b45bfvsomrz62dcy.py":24:34)
#loc8 = loc("/mnt/weka/home/junlin.chen/workspace/autoresearch/autoresearch/.torchinductor-cache/y3/cy3cpy5e7kj4rz7zifrox7ecimmhlnft3sg7b45bfvsomrz62dcy.py":24:39)
#loc9 = loc("/mnt/weka/home/junlin.chen/workspace/autoresearch/autoresearch/.torchinductor-cache/y3/cy3cpy5e7kj4rz7zifrox7ecimmhlnft3sg7b45bfvsomrz62dcy.py":24:48)
#loc10 = loc("/mnt/weka/home/junlin.chen/workspace/autoresearch/autoresearch/.torchinductor-cache/y3/cy3cpy5e7kj4rz7zifrox7ecimmhlnft3sg7b45bfvsomrz62dcy.py":25:30)
#loc11 = loc("/mnt/weka/home/junlin.chen/workspace/autoresearch/autoresearch/.torchinductor-cache/y3/cy3cpy5e7kj4rz7zifrox7ecimmhlnft3sg7b45bfvsomrz62dcy.py":25:35)
#loc12 = loc("/mnt/weka/home/junlin.chen/workspace/autoresearch/autoresearch/.torchinductor-cache/y3/cy3cpy5e7kj4rz7zifrox7ecimmhlnft3sg7b45bfvsomrz62dcy.py":25:44)
#loc13 = loc("/mnt/weka/home/junlin.chen/workspace/autoresearch/autoresearch/.venv/lib/python3.13/site-packages/torch/_inductor/runtime/triton_helpers.py":110:15)
#loc14 = loc("/mnt/weka/home/junlin.chen/workspace/autoresearch/autoresearch/.torchinductor-cache/y3/cy3cpy5e7kj4rz7zifrox7ecimmhlnft3sg7b45bfvsomrz62dcy.py":27:40)
#loc15 = loc("/mnt/weka/home/junlin.chen/workspace/autoresearch/autoresearch/.venv/lib/python3.13/site-packages/torch/_inductor/runtime/triton_helpers.py":113:29)
#loc16 = loc("/mnt/weka/home/junlin.chen/workspace/autoresearch/autoresearch/.torchinductor-cache/y3/cy3cpy5e7kj4rz7zifrox7ecimmhlnft3sg7b45bfvsomrz62dcy.py":29:19)
#loc17 = loc("/mnt/weka/home/junlin.chen/workspace/autoresearch/autoresearch/.torchinductor-cache/y3/cy3cpy5e7kj4rz7zifrox7ecimmhlnft3sg7b45bfvsomrz62dcy.py":34:19)
#loc18 = loc("/mnt/weka/home/junlin.chen/workspace/autoresearch/autoresearch/.torchinductor-cache/y3/cy3cpy5e7kj4rz7zifrox7ecimmhlnft3sg7b45bfvsomrz62dcy.py":36:33)
#loc19 = loc("/mnt/weka/home/junlin.chen/workspace/autoresearch/autoresearch/.torchinductor-cache/y3/cy3cpy5e7kj4rz7zifrox7ecimmhlnft3sg7b45bfvsomrz62dcy.py":37:40)
#loc20 = loc("/mnt/weka/home/junlin.chen/workspace/autoresearch/autoresearch/.torchinductor-cache/y3/cy3cpy5e7kj4rz7zifrox7ecimmhlnft3sg7b45bfvsomrz62dcy.py":37:4)
#loc24 = loc("tmp9"(#loc1))
#loc25 = loc("xoffset"(#loc3))
#loc26 = loc("xoffset"(#loc4))
#loc27 = loc("xindex"(#loc5))
#loc28 = loc("xindex"(#loc6))
#loc29 = loc("tmp0"(#loc7))
#loc30 = loc("tmp0"(#loc8))
#loc31 = loc("tmp0"(#loc9))
#loc32 = loc("tmp5"(#loc10))
#loc33 = loc("tmp5"(#loc11))
#loc34 = loc("tmp5"(#loc12))
#loc35 = loc("mask"(#loc13))
#loc36 = loc("tmp2"(#loc14))
#loc37 = loc("tmp4"(#loc16))
#loc38 = loc("tmp10"(#loc17))
#loc39 = loc("tmp12"(#loc18))
#loc40 = loc("mask"(#loc35))
#loc41 = loc(callsite(#loc15 at #loc36))
#loc42 = loc(callsite(#loc40 at #loc36))
