#loc = loc("/mnt/weka/home/junlin.chen/workspace/autoresearch/autoresearch/.torchinductor-cache/wp/cwp5cltwapieafsnrdn733buzqnox75sztdvlrjzhptms6roxcq7.py":18:0)
#loc251 = loc("/mnt/weka/home/junlin.chen/workspace/autoresearch/autoresearch/.venv/lib/python3.13/site-packages/triton/language/standard.py":285:0)
#loc253 = loc(unknown)
#loc256 = loc("/mnt/weka/home/junlin.chen/workspace/autoresearch/autoresearch/.venv/lib/python3.13/site-packages/triton/language/standard.py":260:0)
#loc260 = loc("in_out_ptr0"(#loc))
#loc261 = loc("in_out_ptr1"(#loc))
#loc262 = loc("in_ptr0"(#loc))
#loc263 = loc("in_ptr1"(#loc))
#loc264 = loc("in_ptr2"(#loc))
#loc265 = loc("in_ptr3"(#loc))
#loc266 = loc("in_ptr4"(#loc))
#loc267 = loc("in_ptr5"(#loc))
#loc268 = loc("in_ptr6"(#loc))
#loc269 = loc("in_ptr7"(#loc))
#loc270 = loc("xnumel"(#loc))
#loc271 = loc("r0_numel"(#loc))
#loc513 = loc("input"(#loc251))
#loc514 = loc("a"(#loc256))
#loc515 = loc("b"(#loc256))
module {
  tt.func public @triton_per_fused__fused_rms_norm_backward__to_copy_add_mul_neg_slice_slice_backward_7(%in_out_ptr0: !tt.ptr<bf16> {tt.divisibility = 16 : i32} loc("in_out_ptr0"(#loc)), %in_out_ptr1: !tt.ptr<bf16> {tt.divisibility = 16 : i32} loc("in_out_ptr1"(#loc)), %in_ptr0: !tt.ptr<bf16> {tt.divisibility = 16 : i32} loc("in_ptr0"(#loc)), %in_ptr1: !tt.ptr<f32> {tt.divisibility = 16 : i32} loc("in_ptr1"(#loc)), %in_ptr2: !tt.ptr<bf16> {tt.divisibility = 16 : i32} loc("in_ptr2"(#loc)), %in_ptr3: !tt.ptr<bf16> {tt.divisibility = 16 : i32} loc("in_ptr3"(#loc)), %in_ptr4: !tt.ptr<f32> {tt.divisibility = 16 : i32} loc("in_ptr4"(#loc)), %in_ptr5: !tt.ptr<bf16> {tt.divisibility = 16 : i32} loc("in_ptr5"(#loc)), %in_ptr6: !tt.ptr<bf16> {tt.divisibility = 16 : i32} loc("in_ptr6"(#loc)), %in_ptr7: !tt.ptr<bf16> {tt.divisibility = 16 : i32} loc("in_ptr7"(#loc)), %xnumel: i32 {tt.divisibility = 16 : i32} loc("xnumel"(#loc)), %r0_numel: i32 {tt.divisibility = 16 : i32} loc("r0_numel"(#loc))) attributes {noinline = false} {
    %xnumel_0 = arith.constant 1048576 : i32 loc(#loc272)
    %r0_numel_1 = arith.constant 128 : i32 loc(#loc273)
    %xoffset = tt.get_program_id x : i32 loc(#loc274)
    %xoffset_2 = arith.constant 8 : i32 loc(#loc275)
    %xoffset_3 = arith.constant 8 : i32 loc(#loc275)
    %xoffset_4 = arith.muli %xoffset, %xoffset_3 : i32 loc(#loc275)
    %xindex = tt.make_range {end = 8 : i32, start = 0 : i32} : tensor<8xi32> loc(#loc276)
    %xindex_5 = tt.expand_dims %xindex {axis = 1 : i32} : tensor<8xi32> -> tensor<8x1xi32> loc(#loc277)
    %xindex_6 = tt.splat %xoffset_4 : i32 -> tensor<8x1xi32> loc(#loc278)
    %xindex_7 = arith.addi %xindex_6, %xindex_5 : tensor<8x1xi32> loc(#loc278)
    %xmask = arith.constant true loc(#loc279)
    %xmask_8 = arith.constant dense<true> : tensor<8x128xi1> loc(#loc279)
    %r0_index = tt.make_range {end = 128 : i32, start = 0 : i32} : tensor<128xi32> loc(#loc280)
    %r0_index_9 = tt.expand_dims %r0_index {axis = 0 : i32} : tensor<128xi32> -> tensor<1x128xi32> loc(#loc281)
    %r0_offset = arith.constant 0 : i32 loc(#loc282)
    %r0_mask = arith.constant true loc(#loc283)
    %r0_mask_10 = arith.constant dense<true> : tensor<8x128xi1> loc(#loc283)
    %x3 = arith.constant 4 : i32 loc(#loc284)
    %x3_11 = arith.constant 4 : i32 loc(#loc284)
    %x3_12 = arith.constant dense<4> : tensor<8x1xi32> loc(#loc284)
    %x3_13 = arith.divsi %xindex_7, %x3_12 : tensor<8x1xi32> loc(#loc284)
    %x3_14 = arith.constant 2048 : i32 loc(#loc285)
    %x3_15 = arith.constant 2048 : i32 loc(#loc285)
    %x3_16 = arith.constant dense<2048> : tensor<8x1xi32> loc(#loc285)
    %x3_17 = arith.remsi %x3_13, %x3_16 : tensor<8x1xi32> loc(#loc285)
    %tmp0 = arith.constant 128 : i32 loc(#loc286)
    %tmp0_18 = arith.constant 128 : i32 loc(#loc286)
    %tmp0_19 = arith.constant dense<128> : tensor<8x1xi32> loc(#loc286)
    %tmp0_20 = arith.muli %tmp0_19, %xindex_7 : tensor<8x1xi32> loc(#loc286)
    %tmp0_21 = tt.broadcast %r0_index_9 : tensor<1x128xi32> -> tensor<8x128xi32> loc(#loc287)
    %tmp0_22 = tt.broadcast %tmp0_20 : tensor<8x1xi32> -> tensor<8x128xi32> loc(#loc287)
    %tmp0_23 = arith.addi %tmp0_21, %tmp0_22 : tensor<8x128xi32> loc(#loc287)
    %tmp0_24 = tt.splat %in_ptr0 : !tt.ptr<bf16> -> tensor<8x128x!tt.ptr<bf16>> loc(#loc288)
    %tmp0_25 = tt.addptr %tmp0_24, %tmp0_23 : tensor<8x128x!tt.ptr<bf16>>, tensor<8x128xi32> loc(#loc288)
    %tmp0_26 = tt.load %tmp0_25 : tensor<8x128x!tt.ptr<bf16>> loc(#loc289)
    %tmp0_27 = arith.extf %tmp0_26 : tensor<8x128xbf16> to tensor<8x128xf32> loc(#loc290)
    %tmp2 = tt.splat %in_ptr1 : !tt.ptr<f32> -> tensor<8x1x!tt.ptr<f32>> loc(#loc291)
    %tmp2_28 = tt.addptr %tmp2, %xindex_7 : tensor<8x1x!tt.ptr<f32>>, tensor<8x1xi32> loc(#loc291)
    %tmp2_29 = tt.load %tmp2_28 evictionPolicy = evict_last : tensor<8x1x!tt.ptr<f32>> loc(#loc292)
    %tmp4 = arith.constant 128 : i32 loc(#loc293)
    %tmp4_30 = arith.constant 128 : i32 loc(#loc293)
    %tmp4_31 = arith.constant dense<128> : tensor<8x1xi32> loc(#loc293)
    %tmp4_32 = arith.muli %tmp4_31, %xindex_7 : tensor<8x1xi32> loc(#loc293)
    %tmp4_33 = tt.broadcast %r0_index_9 : tensor<1x128xi32> -> tensor<8x128xi32> loc(#loc294)
    %tmp4_34 = tt.broadcast %tmp4_32 : tensor<8x1xi32> -> tensor<8x128xi32> loc(#loc294)
    %tmp4_35 = arith.addi %tmp4_33, %tmp4_34 : tensor<8x128xi32> loc(#loc294)
    %tmp4_36 = tt.splat %in_ptr2 : !tt.ptr<bf16> -> tensor<8x128x!tt.ptr<bf16>> loc(#loc295)
    %tmp4_37 = tt.addptr %tmp4_36, %tmp4_35 : tensor<8x128x!tt.ptr<bf16>>, tensor<8x128xi32> loc(#loc295)
    %tmp4_38 = tt.load %tmp4_37 : tensor<8x128x!tt.ptr<bf16>> loc(#loc296)
    %tmp4_39 = arith.extf %tmp4_38 : tensor<8x128xbf16> to tensor<8x128xf32> loc(#loc297)
    %tmp10 = arith.constant 128 : i32 loc(#loc298)
    %tmp10_40 = arith.constant 128 : i32 loc(#loc298)
    %tmp10_41 = arith.constant dense<128> : tensor<8x1xi32> loc(#loc298)
    %tmp10_42 = arith.muli %tmp10_41, %xindex_7 : tensor<8x1xi32> loc(#loc298)
    %tmp10_43 = tt.broadcast %r0_index_9 : tensor<1x128xi32> -> tensor<8x128xi32> loc(#loc299)
    %tmp10_44 = tt.broadcast %tmp10_42 : tensor<8x1xi32> -> tensor<8x128xi32> loc(#loc299)
    %tmp10_45 = arith.addi %tmp10_43, %tmp10_44 : tensor<8x128xi32> loc(#loc299)
    %tmp10_46 = tt.splat %in_ptr3 : !tt.ptr<bf16> -> tensor<8x128x!tt.ptr<bf16>> loc(#loc300)
    %tmp10_47 = tt.addptr %tmp10_46, %tmp10_45 : tensor<8x128x!tt.ptr<bf16>>, tensor<8x128xi32> loc(#loc300)
    %tmp10_48 = tt.load %tmp10_47 : tensor<8x128x!tt.ptr<bf16>> loc(#loc301)
    %tmp10_49 = arith.extf %tmp10_48 : tensor<8x128xbf16> to tensor<8x128xf32> loc(#loc302)
    %tmp12 = tt.splat %in_ptr4 : !tt.ptr<f32> -> tensor<8x1x!tt.ptr<f32>> loc(#loc303)
    %tmp12_50 = tt.addptr %tmp12, %xindex_7 : tensor<8x1x!tt.ptr<f32>>, tensor<8x1xi32> loc(#loc303)
    %tmp12_51 = tt.load %tmp12_50 evictionPolicy = evict_last : tensor<8x1x!tt.ptr<f32>> loc(#loc304)
    %tmp14 = arith.constant 128 : i32 loc(#loc305)
    %tmp14_52 = arith.constant 128 : i32 loc(#loc305)
    %tmp14_53 = arith.constant dense<128> : tensor<8x1xi32> loc(#loc305)
    %tmp14_54 = arith.muli %tmp14_53, %xindex_7 : tensor<8x1xi32> loc(#loc305)
    %tmp14_55 = tt.broadcast %r0_index_9 : tensor<1x128xi32> -> tensor<8x128xi32> loc(#loc306)
    %tmp14_56 = tt.broadcast %tmp14_54 : tensor<8x1xi32> -> tensor<8x128xi32> loc(#loc306)
    %tmp14_57 = arith.addi %tmp14_55, %tmp14_56 : tensor<8x128xi32> loc(#loc306)
    %tmp14_58 = tt.splat %in_ptr5 : !tt.ptr<bf16> -> tensor<8x128x!tt.ptr<bf16>> loc(#loc307)
    %tmp14_59 = tt.addptr %tmp14_58, %tmp14_57 : tensor<8x128x!tt.ptr<bf16>>, tensor<8x128xi32> loc(#loc307)
    %tmp14_60 = tt.load %tmp14_59 : tensor<8x128x!tt.ptr<bf16>> loc(#loc308)
    %tmp14_61 = arith.extf %tmp14_60 : tensor<8x128xbf16> to tensor<8x128xf32> loc(#loc309)
    %tmp3 = tt.broadcast %tmp2_29 : tensor<8x1xf32> -> tensor<8x128xf32> loc(#loc310)
    %tmp3_62 = arith.mulf %tmp0_27, %tmp3 : tensor<8x128xf32> loc(#loc310)
    %tmp6 = arith.mulf %tmp3_62, %tmp4_39 : tensor<8x128xf32> loc(#loc311)
    %tmp9 = tt.call @"triton.language.standard.sum__fp32S8_128S__(1,)cconstexpr_1__(2,)cconstexpr_False__(3,)cNone"(%tmp6) : (tensor<8x128xf32>) -> tensor<8xf32> loc(#loc312)
    %tmp9_63 = tt.expand_dims %tmp9 {axis = 1 : i32} : tensor<8xf32> -> tensor<8x1xf32> loc(#loc313)
    %tmp13 = tt.broadcast %tmp12_51 : tensor<8x1xf32> -> tensor<8x128xf32> loc(#loc314)
    %tmp13_64 = arith.mulf %tmp10_49, %tmp13 : tensor<8x128xf32> loc(#loc314)
    %tmp16 = arith.mulf %tmp13_64, %tmp14_61 : tensor<8x128xf32> loc(#loc315)
    %tmp19 = tt.call @"triton.language.standard.sum__fp32S8_128S__(1,)cconstexpr_1__(2,)cconstexpr_False__(3,)cNone"(%tmp16) : (tensor<8x128xf32>) -> tensor<8xf32> loc(#loc316)
    %tmp19_65 = tt.expand_dims %tmp19 {axis = 1 : i32} : tensor<8xf32> -> tensor<8x1xf32> loc(#loc317)
    %tmp21 = arith.constant 64 : i64 loc(#loc318)
    %tmp21_66 = arith.constant dense<64> : tensor<1x1xi64> loc(#loc318)
    %tmp22 = arith.extsi %r0_index_9 : tensor<1x128xi32> to tensor<1x128xi64> loc(#loc319)
    %tmp22_67 = arith.constant dense<64> : tensor<1x128xi64> loc(#loc319)
    %tmp22_68 = arith.cmpi sge, %tmp22, %tmp22_67 : tensor<1x128xi64> loc(#loc319)
    %tmp23 = arith.constant 128 : i32 loc(#loc320)
    %tmp23_69 = arith.constant 128 : i32 loc(#loc320)
    %tmp23_70 = arith.constant dense<128> : tensor<8x1xi32> loc(#loc320)
    %tmp23_71 = arith.muli %tmp23_70, %xindex_7 : tensor<8x1xi32> loc(#loc320)
    %tmp23_72 = tt.broadcast %r0_index_9 : tensor<1x128xi32> -> tensor<8x128xi32> loc(#loc321)
    %tmp23_73 = tt.broadcast %tmp23_71 : tensor<8x1xi32> -> tensor<8x128xi32> loc(#loc321)
    %tmp23_74 = arith.addi %tmp23_72, %tmp23_73 : tensor<8x128xi32> loc(#loc321)
    %tmp23_75 = tt.splat %in_ptr5 : !tt.ptr<bf16> -> tensor<8x128x!tt.ptr<bf16>> loc(#loc322)
    %tmp23_76 = tt.addptr %tmp23_75, %tmp23_74 : tensor<8x128x!tt.ptr<bf16>>, tensor<8x128xi32> loc(#loc322)
    %tmp23_77 = arith.constant 0.000000e+00 : f32 loc(#loc323)
    %tmp23_78 = tt.broadcast %tmp22_68 : tensor<1x128xi1> -> tensor<8x128xi1> loc(#loc323)
    %tmp23_79 = arith.constant dense<0.000000e+00> : tensor<8x128xf32> loc(#loc323)
    %tmp23_80 = arith.truncf %tmp23_79 : tensor<8x128xf32> to tensor<8x128xbf16> loc(#loc323)
    %tmp23_81 = tt.load %tmp23_76, %tmp23_78, %tmp23_80 : tensor<8x128x!tt.ptr<bf16>> loc(#loc323)
    %tmp23_82 = arith.extf %tmp23_81 : tensor<8x128xbf16> to tensor<8x128xf32> loc(#loc324)
    %tmp25 = arith.constant 128 : i32 loc(#loc325)
    %tmp25_83 = arith.constant 128 : i32 loc(#loc325)
    %tmp25_84 = arith.constant dense<128> : tensor<8x1xi32> loc(#loc325)
    %tmp25_85 = arith.muli %tmp25_84, %xindex_7 : tensor<8x1xi32> loc(#loc325)
    %tmp25_86 = tt.broadcast %r0_index_9 : tensor<1x128xi32> -> tensor<8x128xi32> loc(#loc326)
    %tmp25_87 = tt.broadcast %tmp25_85 : tensor<8x1xi32> -> tensor<8x128xi32> loc(#loc326)
    %tmp25_88 = arith.addi %tmp25_86, %tmp25_87 : tensor<8x128xi32> loc(#loc326)
    %tmp25_89 = tt.splat %in_ptr3 : !tt.ptr<bf16> -> tensor<8x128x!tt.ptr<bf16>> loc(#loc327)
    %tmp25_90 = tt.addptr %tmp25_89, %tmp25_88 : tensor<8x128x!tt.ptr<bf16>>, tensor<8x128xi32> loc(#loc327)
    %tmp25_91 = arith.constant 0.000000e+00 : f32 loc(#loc328)
    %tmp25_92 = tt.broadcast %tmp22_68 : tensor<1x128xi1> -> tensor<8x128xi1> loc(#loc328)
    %tmp25_93 = arith.constant dense<0.000000e+00> : tensor<8x128xf32> loc(#loc328)
    %tmp25_94 = arith.truncf %tmp25_93 : tensor<8x128xf32> to tensor<8x128xbf16> loc(#loc328)
    %tmp25_95 = tt.load %tmp25_90, %tmp25_92, %tmp25_94 : tensor<8x128x!tt.ptr<bf16>> loc(#loc328)
    %tmp25_96 = arith.extf %tmp25_95 : tensor<8x128xbf16> to tensor<8x128xf32> loc(#loc329)
    %tmp27 = tt.broadcast %xindex_7 : tensor<8x1xi32> -> tensor<8x128xi32> loc(#loc330)
    %tmp27_97 = tt.splat %in_ptr4 : !tt.ptr<f32> -> tensor<8x128x!tt.ptr<f32>> loc(#loc331)
    %tmp27_98 = tt.addptr %tmp27_97, %tmp27 : tensor<8x128x!tt.ptr<f32>>, tensor<8x128xi32> loc(#loc331)
    %tmp27_99 = arith.constant 0.000000e+00 : f32 loc(#loc332)
    %tmp27_100 = tt.broadcast %tmp22_68 : tensor<1x128xi1> -> tensor<8x128xi1> loc(#loc332)
    %tmp27_101 = arith.constant dense<0.000000e+00> : tensor<8x128xf32> loc(#loc332)
    %tmp27_102 = tt.load %tmp27_98, %tmp27_100, %tmp27_101 evictionPolicy = evict_last : tensor<8x128x!tt.ptr<f32>> loc(#loc332)
    %tmp28 = arith.mulf %tmp25_96, %tmp27_102 : tensor<8x128xf32> loc(#loc333)
    %tmp29 = arith.constant 7.812500e-03 : f32 loc(#loc334)
    %tmp30 = arith.constant dense<7.812500e-03> : tensor<8x128xf32> loc(#loc335)
    %tmp30_103 = arith.mulf %tmp28, %tmp30 : tensor<8x128xf32> loc(#loc335)
    %tmp31 = tt.broadcast %tmp19_65 : tensor<8x1xf32> -> tensor<8x128xf32> loc(#loc336)
    %tmp31_104 = arith.mulf %tmp30_103, %tmp31 : tensor<8x128xf32> loc(#loc336)
    %tmp32 = arith.subf %tmp23_82, %tmp31_104 : tensor<8x128xf32> loc(#loc337)
    %tmp33 = arith.mulf %tmp32, %tmp27_102 : tensor<8x128xf32> loc(#loc338)
    %tmp35 = arith.constant -64 : i32 loc(#loc339)
    %tmp35_105 = arith.constant -64 : i32 loc(#loc339)
    %tmp35_106 = arith.constant dense<-64> : tensor<1x128xi32> loc(#loc339)
    %tmp35_107 = arith.addi %tmp35_106, %r0_index_9 : tensor<1x128xi32> loc(#loc339)
    %tmp35_108 = arith.constant 64 : i32 loc(#loc340)
    %tmp35_109 = arith.constant 64 : i32 loc(#loc340)
    %tmp35_110 = arith.constant dense<64> : tensor<8x1xi32> loc(#loc340)
    %tmp35_111 = arith.muli %tmp35_110, %x3_17 : tensor<8x1xi32> loc(#loc340)
    %tmp35_112 = tt.broadcast %tmp35_107 : tensor<1x128xi32> -> tensor<8x128xi32> loc(#loc341)
    %tmp35_113 = tt.broadcast %tmp35_111 : tensor<8x1xi32> -> tensor<8x128xi32> loc(#loc341)
    %tmp35_114 = arith.addi %tmp35_112, %tmp35_113 : tensor<8x128xi32> loc(#loc341)
    %tmp35_115 = tt.splat %in_ptr6 : !tt.ptr<bf16> -> tensor<8x128x!tt.ptr<bf16>> loc(#loc342)
    %tmp35_116 = tt.addptr %tmp35_115, %tmp35_114 : tensor<8x128x!tt.ptr<bf16>>, tensor<8x128xi32> loc(#loc342)
    %tmp35_117 = arith.constant 0.000000e+00 : f32 loc(#loc343)
    %tmp35_118 = tt.broadcast %tmp22_68 : tensor<1x128xi1> -> tensor<8x128xi1> loc(#loc343)
    %tmp35_119 = arith.constant dense<0.000000e+00> : tensor<8x128xf32> loc(#loc343)
    %tmp35_120 = arith.truncf %tmp35_119 : tensor<8x128xf32> to tensor<8x128xbf16> loc(#loc343)
    %tmp35_121 = tt.load %tmp35_116, %tmp35_118, %tmp35_120 evictionPolicy = evict_last : tensor<8x128x!tt.ptr<bf16>> loc(#loc343)
    %tmp35_122 = arith.extf %tmp35_121 : tensor<8x128xbf16> to tensor<8x128xf32> loc(#loc344)
    %tmp36 = arith.mulf %tmp33, %tmp35_122 : tensor<8x128xf32> loc(#loc345)
    %tmp37 = arith.constant -64 : i32 loc(#loc346)
    %tmp37_123 = arith.constant -64 : i32 loc(#loc346)
    %tmp37_124 = arith.constant dense<-64> : tensor<1x128xi32> loc(#loc346)
    %tmp37_125 = arith.addi %tmp37_124, %r0_index_9 : tensor<1x128xi32> loc(#loc346)
    %tmp37_126 = arith.constant 128 : i32 loc(#loc347)
    %tmp37_127 = arith.constant 128 : i32 loc(#loc347)
    %tmp37_128 = arith.constant dense<128> : tensor<8x1xi32> loc(#loc347)
    %tmp37_129 = arith.muli %tmp37_128, %xindex_7 : tensor<8x1xi32> loc(#loc347)
    %tmp37_130 = tt.broadcast %tmp37_125 : tensor<1x128xi32> -> tensor<8x128xi32> loc(#loc348)
    %tmp37_131 = tt.broadcast %tmp37_129 : tensor<8x1xi32> -> tensor<8x128xi32> loc(#loc348)
    %tmp37_132 = arith.addi %tmp37_130, %tmp37_131 : tensor<8x128xi32> loc(#loc348)
    %tmp37_133 = tt.splat %in_ptr5 : !tt.ptr<bf16> -> tensor<8x128x!tt.ptr<bf16>> loc(#loc349)
    %tmp37_134 = tt.addptr %tmp37_133, %tmp37_132 : tensor<8x128x!tt.ptr<bf16>>, tensor<8x128xi32> loc(#loc349)
    %tmp37_135 = arith.constant 0.000000e+00 : f32 loc(#loc350)
    %tmp37_136 = tt.broadcast %tmp22_68 : tensor<1x128xi1> -> tensor<8x128xi1> loc(#loc350)
    %tmp37_137 = arith.constant dense<0.000000e+00> : tensor<8x128xf32> loc(#loc350)
    %tmp37_138 = arith.truncf %tmp37_137 : tensor<8x128xf32> to tensor<8x128xbf16> loc(#loc350)
    %tmp37_139 = tt.load %tmp37_134, %tmp37_136, %tmp37_138 : tensor<8x128x!tt.ptr<bf16>> loc(#loc350)
    %tmp37_140 = arith.extf %tmp37_139 : tensor<8x128xbf16> to tensor<8x128xf32> loc(#loc351)
    %tmp39 = arith.constant -64 : i32 loc(#loc352)
    %tmp39_141 = arith.constant -64 : i32 loc(#loc352)
    %tmp39_142 = arith.constant dense<-64> : tensor<1x128xi32> loc(#loc352)
    %tmp39_143 = arith.addi %tmp39_142, %r0_index_9 : tensor<1x128xi32> loc(#loc352)
    %tmp39_144 = arith.constant 128 : i32 loc(#loc353)
    %tmp39_145 = arith.constant 128 : i32 loc(#loc353)
    %tmp39_146 = arith.constant dense<128> : tensor<8x1xi32> loc(#loc353)
    %tmp39_147 = arith.muli %tmp39_146, %xindex_7 : tensor<8x1xi32> loc(#loc353)
    %tmp39_148 = tt.broadcast %tmp39_143 : tensor<1x128xi32> -> tensor<8x128xi32> loc(#loc354)
    %tmp39_149 = tt.broadcast %tmp39_147 : tensor<8x1xi32> -> tensor<8x128xi32> loc(#loc354)
    %tmp39_150 = arith.addi %tmp39_148, %tmp39_149 : tensor<8x128xi32> loc(#loc354)
    %tmp39_151 = tt.splat %in_ptr3 : !tt.ptr<bf16> -> tensor<8x128x!tt.ptr<bf16>> loc(#loc355)
    %tmp39_152 = tt.addptr %tmp39_151, %tmp39_150 : tensor<8x128x!tt.ptr<bf16>>, tensor<8x128xi32> loc(#loc355)
    %tmp39_153 = arith.constant 0.000000e+00 : f32 loc(#loc356)
    %tmp39_154 = tt.broadcast %tmp22_68 : tensor<1x128xi1> -> tensor<8x128xi1> loc(#loc356)
    %tmp39_155 = arith.constant dense<0.000000e+00> : tensor<8x128xf32> loc(#loc356)
    %tmp39_156 = arith.truncf %tmp39_155 : tensor<8x128xf32> to tensor<8x128xbf16> loc(#loc356)
    %tmp39_157 = tt.load %tmp39_152, %tmp39_154, %tmp39_156 : tensor<8x128x!tt.ptr<bf16>> loc(#loc356)
    %tmp39_158 = arith.extf %tmp39_157 : tensor<8x128xbf16> to tensor<8x128xf32> loc(#loc357)
    %tmp41 = arith.mulf %tmp39_158, %tmp27_102 : tensor<8x128xf32> loc(#loc358)
    %tmp42 = arith.constant dense<7.812500e-03> : tensor<8x128xf32> loc(#loc359)
    %tmp42_159 = arith.mulf %tmp41, %tmp42 : tensor<8x128xf32> loc(#loc359)
    %tmp43 = tt.broadcast %tmp19_65 : tensor<8x1xf32> -> tensor<8x128xf32> loc(#loc360)
    %tmp43_160 = arith.mulf %tmp42_159, %tmp43 : tensor<8x128xf32> loc(#loc360)
    %tmp44 = arith.subf %tmp37_140, %tmp43_160 : tensor<8x128xf32> loc(#loc361)
    %tmp45 = arith.mulf %tmp44, %tmp27_102 : tensor<8x128xf32> loc(#loc362)
    %tmp47 = arith.constant -64 : i32 loc(#loc363)
    %tmp47_161 = arith.constant -64 : i32 loc(#loc363)
    %tmp47_162 = arith.constant dense<-64> : tensor<1x128xi32> loc(#loc363)
    %tmp47_163 = arith.addi %tmp47_162, %r0_index_9 : tensor<1x128xi32> loc(#loc363)
    %tmp47_164 = arith.constant 64 : i32 loc(#loc364)
    %tmp47_165 = arith.constant 64 : i32 loc(#loc364)
    %tmp47_166 = arith.constant dense<64> : tensor<8x1xi32> loc(#loc364)
    %tmp47_167 = arith.muli %tmp47_166, %x3_17 : tensor<8x1xi32> loc(#loc364)
    %tmp47_168 = tt.broadcast %tmp47_163 : tensor<1x128xi32> -> tensor<8x128xi32> loc(#loc365)
    %tmp47_169 = tt.broadcast %tmp47_167 : tensor<8x1xi32> -> tensor<8x128xi32> loc(#loc365)
    %tmp47_170 = arith.addi %tmp47_168, %tmp47_169 : tensor<8x128xi32> loc(#loc365)
    %tmp47_171 = tt.splat %in_ptr7 : !tt.ptr<bf16> -> tensor<8x128x!tt.ptr<bf16>> loc(#loc366)
    %tmp47_172 = tt.addptr %tmp47_171, %tmp47_170 : tensor<8x128x!tt.ptr<bf16>>, tensor<8x128xi32> loc(#loc366)
    %tmp47_173 = arith.constant 0.000000e+00 : f32 loc(#loc367)
    %tmp47_174 = tt.broadcast %tmp22_68 : tensor<1x128xi1> -> tensor<8x128xi1> loc(#loc367)
    %tmp47_175 = arith.constant dense<0.000000e+00> : tensor<8x128xf32> loc(#loc367)
    %tmp47_176 = arith.truncf %tmp47_175 : tensor<8x128xf32> to tensor<8x128xbf16> loc(#loc367)
    %tmp47_177 = tt.load %tmp47_172, %tmp47_174, %tmp47_176 evictionPolicy = evict_last : tensor<8x128x!tt.ptr<bf16>> loc(#loc367)
    %tmp47_178 = arith.extf %tmp47_177 : tensor<8x128xbf16> to tensor<8x128xf32> loc(#loc368)
    %tmp48 = arith.mulf %tmp45, %tmp47_178 : tensor<8x128xf32> loc(#loc369)
    %tmp49 = arith.addf %tmp36, %tmp48 : tensor<8x128xf32> loc(#loc370)
    %tmp50 = arith.constant 0.000000e+00 : f32 loc(#loc371)
    %tmp50_179 = arith.constant dense<0.000000e+00> : tensor<8x128xf32> loc(#loc371)
    %tmp51 = tt.broadcast %tmp22_68 : tensor<1x128xi1> -> tensor<8x128xi1> loc(#loc372)
    %tmp51_180 = arith.select %tmp51, %tmp49, %tmp50_179 : tensor<8x128xi1>, tensor<8x128xf32> loc(#loc372)
    %tmp52 = arith.constant 0.000000e+00 : f32 loc(#loc373)
    %tmp53 = arith.constant dense<0.000000e+00> : tensor<8x128xf32> loc(#loc374)
    %tmp53_181 = tt.broadcast %tmp22_68 : tensor<1x128xi1> -> tensor<8x128xi1> loc(#loc374)
    %tmp53_182 = arith.select %tmp53_181, %tmp51_180, %tmp53 : tensor<8x128xi1>, tensor<8x128xf32> loc(#loc374)
    %tmp54 = arith.extsi %r0_index_9 : tensor<1x128xi32> to tensor<1x128xi64> loc(#loc375)
    %tmp54_183 = arith.constant dense<64> : tensor<1x128xi64> loc(#loc375)
    %tmp54_184 = arith.cmpi slt, %tmp54, %tmp54_183 : tensor<1x128xi64> loc(#loc375)
    %tmp55 = arith.constant 64 : i32 loc(#loc376)
    %tmp55_185 = arith.constant 64 : i32 loc(#loc376)
    %tmp55_186 = arith.constant dense<64> : tensor<1x128xi32> loc(#loc376)
    %tmp55_187 = arith.addi %tmp55_186, %r0_index_9 : tensor<1x128xi32> loc(#loc376)
    %tmp55_188 = arith.constant 128 : i32 loc(#loc377)
    %tmp55_189 = arith.constant 128 : i32 loc(#loc377)
    %tmp55_190 = arith.constant dense<128> : tensor<8x1xi32> loc(#loc377)
    %tmp55_191 = arith.muli %tmp55_190, %xindex_7 : tensor<8x1xi32> loc(#loc377)
    %tmp55_192 = tt.broadcast %tmp55_187 : tensor<1x128xi32> -> tensor<8x128xi32> loc(#loc378)
    %tmp55_193 = tt.broadcast %tmp55_191 : tensor<8x1xi32> -> tensor<8x128xi32> loc(#loc378)
    %tmp55_194 = arith.addi %tmp55_192, %tmp55_193 : tensor<8x128xi32> loc(#loc378)
    %tmp55_195 = tt.splat %in_ptr5 : !tt.ptr<bf16> -> tensor<8x128x!tt.ptr<bf16>> loc(#loc379)
    %tmp55_196 = tt.addptr %tmp55_195, %tmp55_194 : tensor<8x128x!tt.ptr<bf16>>, tensor<8x128xi32> loc(#loc379)
    %tmp55_197 = arith.constant 0.000000e+00 : f32 loc(#loc380)
    %tmp55_198 = tt.broadcast %tmp54_184 : tensor<1x128xi1> -> tensor<8x128xi1> loc(#loc380)
    %tmp55_199 = arith.constant dense<0.000000e+00> : tensor<8x128xf32> loc(#loc380)
    %tmp55_200 = arith.truncf %tmp55_199 : tensor<8x128xf32> to tensor<8x128xbf16> loc(#loc380)
    %tmp55_201 = tt.load %tmp55_196, %tmp55_198, %tmp55_200 : tensor<8x128x!tt.ptr<bf16>> loc(#loc380)
    %tmp55_202 = arith.extf %tmp55_201 : tensor<8x128xbf16> to tensor<8x128xf32> loc(#loc381)
    %tmp57 = arith.constant 64 : i32 loc(#loc382)
    %tmp57_203 = arith.constant 64 : i32 loc(#loc382)
    %tmp57_204 = arith.constant dense<64> : tensor<1x128xi32> loc(#loc382)
    %tmp57_205 = arith.addi %tmp57_204, %r0_index_9 : tensor<1x128xi32> loc(#loc382)
    %tmp57_206 = arith.constant 128 : i32 loc(#loc383)
    %tmp57_207 = arith.constant 128 : i32 loc(#loc383)
    %tmp57_208 = arith.constant dense<128> : tensor<8x1xi32> loc(#loc383)
    %tmp57_209 = arith.muli %tmp57_208, %xindex_7 : tensor<8x1xi32> loc(#loc383)
    %tmp57_210 = tt.broadcast %tmp57_205 : tensor<1x128xi32> -> tensor<8x128xi32> loc(#loc384)
    %tmp57_211 = tt.broadcast %tmp57_209 : tensor<8x1xi32> -> tensor<8x128xi32> loc(#loc384)
    %tmp57_212 = arith.addi %tmp57_210, %tmp57_211 : tensor<8x128xi32> loc(#loc384)
    %tmp57_213 = tt.splat %in_ptr3 : !tt.ptr<bf16> -> tensor<8x128x!tt.ptr<bf16>> loc(#loc385)
    %tmp57_214 = tt.addptr %tmp57_213, %tmp57_212 : tensor<8x128x!tt.ptr<bf16>>, tensor<8x128xi32> loc(#loc385)
    %tmp57_215 = arith.constant 0.000000e+00 : f32 loc(#loc386)
    %tmp57_216 = tt.broadcast %tmp54_184 : tensor<1x128xi1> -> tensor<8x128xi1> loc(#loc386)
    %tmp57_217 = arith.constant dense<0.000000e+00> : tensor<8x128xf32> loc(#loc386)
    %tmp57_218 = arith.truncf %tmp57_217 : tensor<8x128xf32> to tensor<8x128xbf16> loc(#loc386)
    %tmp57_219 = tt.load %tmp57_214, %tmp57_216, %tmp57_218 : tensor<8x128x!tt.ptr<bf16>> loc(#loc386)
    %tmp57_220 = arith.extf %tmp57_219 : tensor<8x128xbf16> to tensor<8x128xf32> loc(#loc387)
    %tmp59 = tt.broadcast %xindex_7 : tensor<8x1xi32> -> tensor<8x128xi32> loc(#loc388)
    %tmp59_221 = tt.splat %in_ptr4 : !tt.ptr<f32> -> tensor<8x128x!tt.ptr<f32>> loc(#loc389)
    %tmp59_222 = tt.addptr %tmp59_221, %tmp59 : tensor<8x128x!tt.ptr<f32>>, tensor<8x128xi32> loc(#loc389)
    %tmp59_223 = arith.constant 0.000000e+00 : f32 loc(#loc390)
    %tmp59_224 = tt.broadcast %tmp54_184 : tensor<1x128xi1> -> tensor<8x128xi1> loc(#loc390)
    %tmp59_225 = arith.constant dense<0.000000e+00> : tensor<8x128xf32> loc(#loc390)
    %tmp59_226 = tt.load %tmp59_222, %tmp59_224, %tmp59_225 evictionPolicy = evict_last : tensor<8x128x!tt.ptr<f32>> loc(#loc390)
    %tmp60 = arith.mulf %tmp57_220, %tmp59_226 : tensor<8x128xf32> loc(#loc391)
    %tmp61 = arith.constant 7.812500e-03 : f32 loc(#loc392)
    %tmp62 = arith.constant dense<7.812500e-03> : tensor<8x128xf32> loc(#loc393)
    %tmp62_227 = arith.mulf %tmp60, %tmp62 : tensor<8x128xf32> loc(#loc393)
    %tmp63 = tt.broadcast %tmp19_65 : tensor<8x1xf32> -> tensor<8x128xf32> loc(#loc394)
    %tmp63_228 = arith.mulf %tmp62_227, %tmp63 : tensor<8x128xf32> loc(#loc394)
    %tmp64 = arith.subf %tmp55_202, %tmp63_228 : tensor<8x128xf32> loc(#loc395)
    %tmp65 = arith.mulf %tmp64, %tmp59_226 : tensor<8x128xf32> loc(#loc396)
    %tmp67 = arith.constant 64 : i32 loc(#loc397)
    %tmp67_229 = arith.constant 64 : i32 loc(#loc397)
    %tmp67_230 = arith.constant dense<64> : tensor<8x1xi32> loc(#loc397)
    %tmp67_231 = arith.muli %tmp67_230, %x3_17 : tensor<8x1xi32> loc(#loc397)
    %tmp67_232 = tt.broadcast %r0_index_9 : tensor<1x128xi32> -> tensor<8x128xi32> loc(#loc398)
    %tmp67_233 = tt.broadcast %tmp67_231 : tensor<8x1xi32> -> tensor<8x128xi32> loc(#loc398)
    %tmp67_234 = arith.addi %tmp67_232, %tmp67_233 : tensor<8x128xi32> loc(#loc398)
    %tmp67_235 = tt.splat %in_ptr7 : !tt.ptr<bf16> -> tensor<8x128x!tt.ptr<bf16>> loc(#loc399)
    %tmp67_236 = tt.addptr %tmp67_235, %tmp67_234 : tensor<8x128x!tt.ptr<bf16>>, tensor<8x128xi32> loc(#loc399)
    %tmp67_237 = arith.constant 0.000000e+00 : f32 loc(#loc400)
    %tmp67_238 = tt.broadcast %tmp54_184 : tensor<1x128xi1> -> tensor<8x128xi1> loc(#loc400)
    %tmp67_239 = arith.constant dense<0.000000e+00> : tensor<8x128xf32> loc(#loc400)
    %tmp67_240 = arith.truncf %tmp67_239 : tensor<8x128xf32> to tensor<8x128xbf16> loc(#loc400)
    %tmp67_241 = tt.load %tmp67_236, %tmp67_238, %tmp67_240 evictionPolicy = evict_last : tensor<8x128x!tt.ptr<bf16>> loc(#loc400)
    %tmp67_242 = arith.extf %tmp67_241 : tensor<8x128xbf16> to tensor<8x128xf32> loc(#loc401)
    %tmp68 = arith.constant 0.000000e+00 : f32 loc(#loc402)
    %tmp68_243 = arith.constant dense<0.000000e+00> : tensor<8x128xf32> loc(#loc402)
    %tmp68_244 = arith.subf %tmp68_243, %tmp67_242 : tensor<8x128xf32> loc(#loc402)
    %tmp69 = arith.mulf %tmp65, %tmp68_244 : tensor<8x128xf32> loc(#loc403)
    %tmp70 = arith.constant 128 : i32 loc(#loc404)
    %tmp70_245 = arith.constant 128 : i32 loc(#loc404)
    %tmp70_246 = arith.constant dense<128> : tensor<8x1xi32> loc(#loc404)
    %tmp70_247 = arith.muli %tmp70_246, %xindex_7 : tensor<8x1xi32> loc(#loc404)
    %tmp70_248 = tt.broadcast %r0_index_9 : tensor<1x128xi32> -> tensor<8x128xi32> loc(#loc405)
    %tmp70_249 = tt.broadcast %tmp70_247 : tensor<8x1xi32> -> tensor<8x128xi32> loc(#loc405)
    %tmp70_250 = arith.addi %tmp70_248, %tmp70_249 : tensor<8x128xi32> loc(#loc405)
    %tmp70_251 = tt.splat %in_ptr5 : !tt.ptr<bf16> -> tensor<8x128x!tt.ptr<bf16>> loc(#loc406)
    %tmp70_252 = tt.addptr %tmp70_251, %tmp70_250 : tensor<8x128x!tt.ptr<bf16>>, tensor<8x128xi32> loc(#loc406)
    %tmp70_253 = arith.constant 0.000000e+00 : f32 loc(#loc407)
    %tmp70_254 = tt.broadcast %tmp54_184 : tensor<1x128xi1> -> tensor<8x128xi1> loc(#loc407)
    %tmp70_255 = arith.constant dense<0.000000e+00> : tensor<8x128xf32> loc(#loc407)
    %tmp70_256 = arith.truncf %tmp70_255 : tensor<8x128xf32> to tensor<8x128xbf16> loc(#loc407)
    %tmp70_257 = tt.load %tmp70_252, %tmp70_254, %tmp70_256 : tensor<8x128x!tt.ptr<bf16>> loc(#loc407)
    %tmp70_258 = arith.extf %tmp70_257 : tensor<8x128xbf16> to tensor<8x128xf32> loc(#loc408)
    %tmp72 = arith.constant 128 : i32 loc(#loc409)
    %tmp72_259 = arith.constant 128 : i32 loc(#loc409)
    %tmp72_260 = arith.constant dense<128> : tensor<8x1xi32> loc(#loc409)
    %tmp72_261 = arith.muli %tmp72_260, %xindex_7 : tensor<8x1xi32> loc(#loc409)
    %tmp72_262 = tt.broadcast %r0_index_9 : tensor<1x128xi32> -> tensor<8x128xi32> loc(#loc410)
    %tmp72_263 = tt.broadcast %tmp72_261 : tensor<8x1xi32> -> tensor<8x128xi32> loc(#loc410)
    %tmp72_264 = arith.addi %tmp72_262, %tmp72_263 : tensor<8x128xi32> loc(#loc410)
    %tmp72_265 = tt.splat %in_ptr3 : !tt.ptr<bf16> -> tensor<8x128x!tt.ptr<bf16>> loc(#loc411)
    %tmp72_266 = tt.addptr %tmp72_265, %tmp72_264 : tensor<8x128x!tt.ptr<bf16>>, tensor<8x128xi32> loc(#loc411)
    %tmp72_267 = arith.constant 0.000000e+00 : f32 loc(#loc412)
    %tmp72_268 = tt.broadcast %tmp54_184 : tensor<1x128xi1> -> tensor<8x128xi1> loc(#loc412)
    %tmp72_269 = arith.constant dense<0.000000e+00> : tensor<8x128xf32> loc(#loc412)
    %tmp72_270 = arith.truncf %tmp72_269 : tensor<8x128xf32> to tensor<8x128xbf16> loc(#loc412)
    %tmp72_271 = tt.load %tmp72_266, %tmp72_268, %tmp72_270 : tensor<8x128x!tt.ptr<bf16>> loc(#loc412)
    %tmp72_272 = arith.extf %tmp72_271 : tensor<8x128xbf16> to tensor<8x128xf32> loc(#loc413)
    %tmp74 = arith.mulf %tmp72_272, %tmp59_226 : tensor<8x128xf32> loc(#loc414)
    %tmp75 = arith.constant dense<7.812500e-03> : tensor<8x128xf32> loc(#loc415)
    %tmp75_273 = arith.mulf %tmp74, %tmp75 : tensor<8x128xf32> loc(#loc415)
    %tmp76 = tt.broadcast %tmp19_65 : tensor<8x1xf32> -> tensor<8x128xf32> loc(#loc416)
    %tmp76_274 = arith.mulf %tmp75_273, %tmp76 : tensor<8x128xf32> loc(#loc416)
    %tmp77 = arith.subf %tmp70_258, %tmp76_274 : tensor<8x128xf32> loc(#loc417)
    %tmp78 = arith.mulf %tmp77, %tmp59_226 : tensor<8x128xf32> loc(#loc418)
    %tmp80 = arith.constant 64 : i32 loc(#loc419)
    %tmp80_275 = arith.constant 64 : i32 loc(#loc419)
    %tmp80_276 = arith.constant dense<64> : tensor<8x1xi32> loc(#loc419)
    %tmp80_277 = arith.muli %tmp80_276, %x3_17 : tensor<8x1xi32> loc(#loc419)
    %tmp80_278 = tt.broadcast %r0_index_9 : tensor<1x128xi32> -> tensor<8x128xi32> loc(#loc420)
    %tmp80_279 = tt.broadcast %tmp80_277 : tensor<8x1xi32> -> tensor<8x128xi32> loc(#loc420)
    %tmp80_280 = arith.addi %tmp80_278, %tmp80_279 : tensor<8x128xi32> loc(#loc420)
    %tmp80_281 = tt.splat %in_ptr6 : !tt.ptr<bf16> -> tensor<8x128x!tt.ptr<bf16>> loc(#loc421)
    %tmp80_282 = tt.addptr %tmp80_281, %tmp80_280 : tensor<8x128x!tt.ptr<bf16>>, tensor<8x128xi32> loc(#loc421)
    %tmp80_283 = arith.constant 0.000000e+00 : f32 loc(#loc422)
    %tmp80_284 = tt.broadcast %tmp54_184 : tensor<1x128xi1> -> tensor<8x128xi1> loc(#loc422)
    %tmp80_285 = arith.constant dense<0.000000e+00> : tensor<8x128xf32> loc(#loc422)
    %tmp80_286 = arith.truncf %tmp80_285 : tensor<8x128xf32> to tensor<8x128xbf16> loc(#loc422)
    %tmp80_287 = tt.load %tmp80_282, %tmp80_284, %tmp80_286 evictionPolicy = evict_last : tensor<8x128x!tt.ptr<bf16>> loc(#loc422)
    %tmp80_288 = arith.extf %tmp80_287 : tensor<8x128xbf16> to tensor<8x128xf32> loc(#loc423)
    %tmp81 = arith.mulf %tmp78, %tmp80_288 : tensor<8x128xf32> loc(#loc424)
    %tmp82 = arith.addf %tmp69, %tmp81 : tensor<8x128xf32> loc(#loc425)
    %tmp83 = arith.constant 0.000000e+00 : f32 loc(#loc426)
    %tmp83_289 = arith.constant dense<0.000000e+00> : tensor<8x128xf32> loc(#loc426)
    %tmp84 = tt.broadcast %tmp54_184 : tensor<1x128xi1> -> tensor<8x128xi1> loc(#loc427)
    %tmp84_290 = arith.select %tmp84, %tmp82, %tmp83_289 : tensor<8x128xi1>, tensor<8x128xf32> loc(#loc427)
    %tmp85 = arith.constant dense<0.000000e+00> : tensor<8x128xf32> loc(#loc428)
    %tmp85_291 = tt.broadcast %tmp54_184 : tensor<1x128xi1> -> tensor<8x128xi1> loc(#loc428)
    %tmp85_292 = arith.select %tmp85_291, %tmp84_290, %tmp85 : tensor<8x128xi1>, tensor<8x128xf32> loc(#loc428)
    %tmp86 = arith.addf %tmp53_182, %tmp85_292 : tensor<8x128xf32> loc(#loc429)
    %tmp87 = arith.constant 128 : i32 loc(#loc430)
    %tmp87_293 = arith.constant 128 : i32 loc(#loc430)
    %tmp87_294 = arith.constant dense<128> : tensor<8x1xi32> loc(#loc430)
    %tmp87_295 = arith.muli %tmp87_294, %xindex_7 : tensor<8x1xi32> loc(#loc430)
    %tmp87_296 = tt.broadcast %r0_index_9 : tensor<1x128xi32> -> tensor<8x128xi32> loc(#loc431)
    %tmp87_297 = tt.broadcast %tmp87_295 : tensor<8x1xi32> -> tensor<8x128xi32> loc(#loc431)
    %tmp87_298 = arith.addi %tmp87_296, %tmp87_297 : tensor<8x128xi32> loc(#loc431)
    %tmp87_299 = tt.splat %in_ptr2 : !tt.ptr<bf16> -> tensor<8x128x!tt.ptr<bf16>> loc(#loc432)
    %tmp87_300 = tt.addptr %tmp87_299, %tmp87_298 : tensor<8x128x!tt.ptr<bf16>>, tensor<8x128xi32> loc(#loc432)
    %tmp87_301 = arith.constant 0.000000e+00 : f32 loc(#loc433)
    %tmp87_302 = tt.broadcast %tmp22_68 : tensor<1x128xi1> -> tensor<8x128xi1> loc(#loc433)
    %tmp87_303 = arith.constant dense<0.000000e+00> : tensor<8x128xf32> loc(#loc433)
    %tmp87_304 = arith.truncf %tmp87_303 : tensor<8x128xf32> to tensor<8x128xbf16> loc(#loc433)
    %tmp87_305 = tt.load %tmp87_300, %tmp87_302, %tmp87_304 : tensor<8x128x!tt.ptr<bf16>> loc(#loc433)
    %tmp87_306 = arith.extf %tmp87_305 : tensor<8x128xbf16> to tensor<8x128xf32> loc(#loc434)
    %tmp89 = arith.constant 128 : i32 loc(#loc435)
    %tmp89_307 = arith.constant 128 : i32 loc(#loc435)
    %tmp89_308 = arith.constant dense<128> : tensor<8x1xi32> loc(#loc435)
    %tmp89_309 = arith.muli %tmp89_308, %xindex_7 : tensor<8x1xi32> loc(#loc435)
    %tmp89_310 = tt.broadcast %r0_index_9 : tensor<1x128xi32> -> tensor<8x128xi32> loc(#loc436)
    %tmp89_311 = tt.broadcast %tmp89_309 : tensor<8x1xi32> -> tensor<8x128xi32> loc(#loc436)
    %tmp89_312 = arith.addi %tmp89_310, %tmp89_311 : tensor<8x128xi32> loc(#loc436)
    %tmp89_313 = tt.splat %in_ptr0 : !tt.ptr<bf16> -> tensor<8x128x!tt.ptr<bf16>> loc(#loc437)
    %tmp89_314 = tt.addptr %tmp89_313, %tmp89_312 : tensor<8x128x!tt.ptr<bf16>>, tensor<8x128xi32> loc(#loc437)
    %tmp89_315 = arith.constant 0.000000e+00 : f32 loc(#loc438)
    %tmp89_316 = tt.broadcast %tmp22_68 : tensor<1x128xi1> -> tensor<8x128xi1> loc(#loc438)
    %tmp89_317 = arith.constant dense<0.000000e+00> : tensor<8x128xf32> loc(#loc438)
    %tmp89_318 = arith.truncf %tmp89_317 : tensor<8x128xf32> to tensor<8x128xbf16> loc(#loc438)
    %tmp89_319 = tt.load %tmp89_314, %tmp89_316, %tmp89_318 : tensor<8x128x!tt.ptr<bf16>> loc(#loc438)
    %tmp89_320 = arith.extf %tmp89_319 : tensor<8x128xbf16> to tensor<8x128xf32> loc(#loc439)
    %tmp91 = tt.broadcast %xindex_7 : tensor<8x1xi32> -> tensor<8x128xi32> loc(#loc440)
    %tmp91_321 = tt.splat %in_ptr1 : !tt.ptr<f32> -> tensor<8x128x!tt.ptr<f32>> loc(#loc441)
    %tmp91_322 = tt.addptr %tmp91_321, %tmp91 : tensor<8x128x!tt.ptr<f32>>, tensor<8x128xi32> loc(#loc441)
    %tmp91_323 = arith.constant 0.000000e+00 : f32 loc(#loc442)
    %tmp91_324 = tt.broadcast %tmp22_68 : tensor<1x128xi1> -> tensor<8x128xi1> loc(#loc442)
    %tmp91_325 = arith.constant dense<0.000000e+00> : tensor<8x128xf32> loc(#loc442)
    %tmp91_326 = tt.load %tmp91_322, %tmp91_324, %tmp91_325 evictionPolicy = evict_last : tensor<8x128x!tt.ptr<f32>> loc(#loc442)
    %tmp92 = arith.mulf %tmp89_320, %tmp91_326 : tensor<8x128xf32> loc(#loc443)
    %tmp93 = arith.constant dense<7.812500e-03> : tensor<8x128xf32> loc(#loc444)
    %tmp93_327 = arith.mulf %tmp92, %tmp93 : tensor<8x128xf32> loc(#loc444)
    %tmp94 = tt.broadcast %tmp9_63 : tensor<8x1xf32> -> tensor<8x128xf32> loc(#loc445)
    %tmp94_328 = arith.mulf %tmp93_327, %tmp94 : tensor<8x128xf32> loc(#loc445)
    %tmp95 = arith.subf %tmp87_306, %tmp94_328 : tensor<8x128xf32> loc(#loc446)
    %tmp96 = arith.mulf %tmp95, %tmp91_326 : tensor<8x128xf32> loc(#loc447)
    %tmp98 = arith.mulf %tmp96, %tmp35_122 : tensor<8x128xf32> loc(#loc448)
    %tmp99 = arith.constant -64 : i32 loc(#loc449)
    %tmp99_329 = arith.constant -64 : i32 loc(#loc449)
    %tmp99_330 = arith.constant dense<-64> : tensor<1x128xi32> loc(#loc449)
    %tmp99_331 = arith.addi %tmp99_330, %r0_index_9 : tensor<1x128xi32> loc(#loc449)
    %tmp99_332 = arith.constant 128 : i32 loc(#loc450)
    %tmp99_333 = arith.constant 128 : i32 loc(#loc450)
    %tmp99_334 = arith.constant dense<128> : tensor<8x1xi32> loc(#loc450)
    %tmp99_335 = arith.muli %tmp99_334, %xindex_7 : tensor<8x1xi32> loc(#loc450)
    %tmp99_336 = tt.broadcast %tmp99_331 : tensor<1x128xi32> -> tensor<8x128xi32> loc(#loc451)
    %tmp99_337 = tt.broadcast %tmp99_335 : tensor<8x1xi32> -> tensor<8x128xi32> loc(#loc451)
    %tmp99_338 = arith.addi %tmp99_336, %tmp99_337 : tensor<8x128xi32> loc(#loc451)
    %tmp99_339 = tt.splat %in_ptr2 : !tt.ptr<bf16> -> tensor<8x128x!tt.ptr<bf16>> loc(#loc452)
    %tmp99_340 = tt.addptr %tmp99_339, %tmp99_338 : tensor<8x128x!tt.ptr<bf16>>, tensor<8x128xi32> loc(#loc452)
    %tmp99_341 = arith.constant 0.000000e+00 : f32 loc(#loc453)
    %tmp99_342 = tt.broadcast %tmp22_68 : tensor<1x128xi1> -> tensor<8x128xi1> loc(#loc453)
    %tmp99_343 = arith.constant dense<0.000000e+00> : tensor<8x128xf32> loc(#loc453)
    %tmp99_344 = arith.truncf %tmp99_343 : tensor<8x128xf32> to tensor<8x128xbf16> loc(#loc453)
    %tmp99_345 = tt.load %tmp99_340, %tmp99_342, %tmp99_344 : tensor<8x128x!tt.ptr<bf16>> loc(#loc453)
    %tmp99_346 = arith.extf %tmp99_345 : tensor<8x128xbf16> to tensor<8x128xf32> loc(#loc454)
    %tmp101 = arith.constant -64 : i32 loc(#loc455)
    %tmp101_347 = arith.constant -64 : i32 loc(#loc455)
    %tmp101_348 = arith.constant dense<-64> : tensor<1x128xi32> loc(#loc455)
    %tmp101_349 = arith.addi %tmp101_348, %r0_index_9 : tensor<1x128xi32> loc(#loc455)
    %tmp101_350 = arith.constant 128 : i32 loc(#loc456)
    %tmp101_351 = arith.constant 128 : i32 loc(#loc456)
    %tmp101_352 = arith.constant dense<128> : tensor<8x1xi32> loc(#loc456)
    %tmp101_353 = arith.muli %tmp101_352, %xindex_7 : tensor<8x1xi32> loc(#loc456)
    %tmp101_354 = tt.broadcast %tmp101_349 : tensor<1x128xi32> -> tensor<8x128xi32> loc(#loc457)
    %tmp101_355 = tt.broadcast %tmp101_353 : tensor<8x1xi32> -> tensor<8x128xi32> loc(#loc457)
    %tmp101_356 = arith.addi %tmp101_354, %tmp101_355 : tensor<8x128xi32> loc(#loc457)
    %tmp101_357 = tt.splat %in_ptr0 : !tt.ptr<bf16> -> tensor<8x128x!tt.ptr<bf16>> loc(#loc458)
    %tmp101_358 = tt.addptr %tmp101_357, %tmp101_356 : tensor<8x128x!tt.ptr<bf16>>, tensor<8x128xi32> loc(#loc458)
    %tmp101_359 = arith.constant 0.000000e+00 : f32 loc(#loc459)
    %tmp101_360 = tt.broadcast %tmp22_68 : tensor<1x128xi1> -> tensor<8x128xi1> loc(#loc459)
    %tmp101_361 = arith.constant dense<0.000000e+00> : tensor<8x128xf32> loc(#loc459)
    %tmp101_362 = arith.truncf %tmp101_361 : tensor<8x128xf32> to tensor<8x128xbf16> loc(#loc459)
    %tmp101_363 = tt.load %tmp101_358, %tmp101_360, %tmp101_362 : tensor<8x128x!tt.ptr<bf16>> loc(#loc459)
    %tmp101_364 = arith.extf %tmp101_363 : tensor<8x128xbf16> to tensor<8x128xf32> loc(#loc460)
    %tmp103 = arith.mulf %tmp101_364, %tmp91_326 : tensor<8x128xf32> loc(#loc461)
    %tmp104 = arith.constant dense<7.812500e-03> : tensor<8x128xf32> loc(#loc462)
    %tmp104_365 = arith.mulf %tmp103, %tmp104 : tensor<8x128xf32> loc(#loc462)
    %tmp105 = tt.broadcast %tmp9_63 : tensor<8x1xf32> -> tensor<8x128xf32> loc(#loc463)
    %tmp105_366 = arith.mulf %tmp104_365, %tmp105 : tensor<8x128xf32> loc(#loc463)
    %tmp106 = arith.subf %tmp99_346, %tmp105_366 : tensor<8x128xf32> loc(#loc464)
    %tmp107 = arith.mulf %tmp106, %tmp91_326 : tensor<8x128xf32> loc(#loc465)
    %tmp109 = arith.mulf %tmp107, %tmp47_178 : tensor<8x128xf32> loc(#loc466)
    %tmp110 = arith.addf %tmp98, %tmp109 : tensor<8x128xf32> loc(#loc467)
    %tmp111 = arith.constant 0.000000e+00 : f32 loc(#loc468)
    %tmp111_367 = arith.constant dense<0.000000e+00> : tensor<8x128xf32> loc(#loc468)
    %tmp112 = tt.broadcast %tmp22_68 : tensor<1x128xi1> -> tensor<8x128xi1> loc(#loc469)
    %tmp112_368 = arith.select %tmp112, %tmp110, %tmp111_367 : tensor<8x128xi1>, tensor<8x128xf32> loc(#loc469)
    %tmp113 = arith.constant dense<0.000000e+00> : tensor<8x128xf32> loc(#loc470)
    %tmp113_369 = tt.broadcast %tmp22_68 : tensor<1x128xi1> -> tensor<8x128xi1> loc(#loc470)
    %tmp113_370 = arith.select %tmp113_369, %tmp112_368, %tmp113 : tensor<8x128xi1>, tensor<8x128xf32> loc(#loc470)
    %tmp114 = arith.constant 64 : i32 loc(#loc471)
    %tmp114_371 = arith.constant 64 : i32 loc(#loc471)
    %tmp114_372 = arith.constant dense<64> : tensor<1x128xi32> loc(#loc471)
    %tmp114_373 = arith.addi %tmp114_372, %r0_index_9 : tensor<1x128xi32> loc(#loc471)
    %tmp114_374 = arith.constant 128 : i32 loc(#loc472)
    %tmp114_375 = arith.constant 128 : i32 loc(#loc472)
    %tmp114_376 = arith.constant dense<128> : tensor<8x1xi32> loc(#loc472)
    %tmp114_377 = arith.muli %tmp114_376, %xindex_7 : tensor<8x1xi32> loc(#loc472)
    %tmp114_378 = tt.broadcast %tmp114_373 : tensor<1x128xi32> -> tensor<8x128xi32> loc(#loc473)
    %tmp114_379 = tt.broadcast %tmp114_377 : tensor<8x1xi32> -> tensor<8x128xi32> loc(#loc473)
    %tmp114_380 = arith.addi %tmp114_378, %tmp114_379 : tensor<8x128xi32> loc(#loc473)
    %tmp114_381 = tt.splat %in_ptr2 : !tt.ptr<bf16> -> tensor<8x128x!tt.ptr<bf16>> loc(#loc474)
    %tmp114_382 = tt.addptr %tmp114_381, %tmp114_380 : tensor<8x128x!tt.ptr<bf16>>, tensor<8x128xi32> loc(#loc474)
    %tmp114_383 = arith.constant 0.000000e+00 : f32 loc(#loc475)
    %tmp114_384 = tt.broadcast %tmp54_184 : tensor<1x128xi1> -> tensor<8x128xi1> loc(#loc475)
    %tmp114_385 = arith.constant dense<0.000000e+00> : tensor<8x128xf32> loc(#loc475)
    %tmp114_386 = arith.truncf %tmp114_385 : tensor<8x128xf32> to tensor<8x128xbf16> loc(#loc475)
    %tmp114_387 = tt.load %tmp114_382, %tmp114_384, %tmp114_386 : tensor<8x128x!tt.ptr<bf16>> loc(#loc475)
    %tmp114_388 = arith.extf %tmp114_387 : tensor<8x128xbf16> to tensor<8x128xf32> loc(#loc476)
    %tmp116 = arith.constant 64 : i32 loc(#loc477)
    %tmp116_389 = arith.constant 64 : i32 loc(#loc477)
    %tmp116_390 = arith.constant dense<64> : tensor<1x128xi32> loc(#loc477)
    %tmp116_391 = arith.addi %tmp116_390, %r0_index_9 : tensor<1x128xi32> loc(#loc477)
    %tmp116_392 = arith.constant 128 : i32 loc(#loc478)
    %tmp116_393 = arith.constant 128 : i32 loc(#loc478)
    %tmp116_394 = arith.constant dense<128> : tensor<8x1xi32> loc(#loc478)
    %tmp116_395 = arith.muli %tmp116_394, %xindex_7 : tensor<8x1xi32> loc(#loc478)
    %tmp116_396 = tt.broadcast %tmp116_391 : tensor<1x128xi32> -> tensor<8x128xi32> loc(#loc479)
    %tmp116_397 = tt.broadcast %tmp116_395 : tensor<8x1xi32> -> tensor<8x128xi32> loc(#loc479)
    %tmp116_398 = arith.addi %tmp116_396, %tmp116_397 : tensor<8x128xi32> loc(#loc479)
    %tmp116_399 = tt.splat %in_ptr0 : !tt.ptr<bf16> -> tensor<8x128x!tt.ptr<bf16>> loc(#loc480)
    %tmp116_400 = tt.addptr %tmp116_399, %tmp116_398 : tensor<8x128x!tt.ptr<bf16>>, tensor<8x128xi32> loc(#loc480)
    %tmp116_401 = arith.constant 0.000000e+00 : f32 loc(#loc481)
    %tmp116_402 = tt.broadcast %tmp54_184 : tensor<1x128xi1> -> tensor<8x128xi1> loc(#loc481)
    %tmp116_403 = arith.constant dense<0.000000e+00> : tensor<8x128xf32> loc(#loc481)
    %tmp116_404 = arith.truncf %tmp116_403 : tensor<8x128xf32> to tensor<8x128xbf16> loc(#loc481)
    %tmp116_405 = tt.load %tmp116_400, %tmp116_402, %tmp116_404 : tensor<8x128x!tt.ptr<bf16>> loc(#loc481)
    %tmp116_406 = arith.extf %tmp116_405 : tensor<8x128xbf16> to tensor<8x128xf32> loc(#loc482)
    %tmp118 = tt.broadcast %xindex_7 : tensor<8x1xi32> -> tensor<8x128xi32> loc(#loc483)
    %tmp118_407 = tt.splat %in_ptr1 : !tt.ptr<f32> -> tensor<8x128x!tt.ptr<f32>> loc(#loc484)
    %tmp118_408 = tt.addptr %tmp118_407, %tmp118 : tensor<8x128x!tt.ptr<f32>>, tensor<8x128xi32> loc(#loc484)
    %tmp118_409 = arith.constant 0.000000e+00 : f32 loc(#loc485)
    %tmp118_410 = tt.broadcast %tmp54_184 : tensor<1x128xi1> -> tensor<8x128xi1> loc(#loc485)
    %tmp118_411 = arith.constant dense<0.000000e+00> : tensor<8x128xf32> loc(#loc485)
    %tmp118_412 = tt.load %tmp118_408, %tmp118_410, %tmp118_411 evictionPolicy = evict_last : tensor<8x128x!tt.ptr<f32>> loc(#loc485)
    %tmp119 = arith.mulf %tmp116_406, %tmp118_412 : tensor<8x128xf32> loc(#loc486)
    %tmp120 = arith.constant dense<7.812500e-03> : tensor<8x128xf32> loc(#loc487)
    %tmp120_413 = arith.mulf %tmp119, %tmp120 : tensor<8x128xf32> loc(#loc487)
    %tmp121 = tt.broadcast %tmp9_63 : tensor<8x1xf32> -> tensor<8x128xf32> loc(#loc488)
    %tmp121_414 = arith.mulf %tmp120_413, %tmp121 : tensor<8x128xf32> loc(#loc488)
    %tmp122 = arith.subf %tmp114_388, %tmp121_414 : tensor<8x128xf32> loc(#loc489)
    %tmp123 = arith.mulf %tmp122, %tmp118_412 : tensor<8x128xf32> loc(#loc490)
    %tmp125 = arith.mulf %tmp123, %tmp68_244 : tensor<8x128xf32> loc(#loc491)
    %tmp126 = arith.constant 128 : i32 loc(#loc492)
    %tmp126_415 = arith.constant 128 : i32 loc(#loc492)
    %tmp126_416 = arith.constant dense<128> : tensor<8x1xi32> loc(#loc492)
    %tmp126_417 = arith.muli %tmp126_416, %xindex_7 : tensor<8x1xi32> loc(#loc492)
    %tmp126_418 = tt.broadcast %r0_index_9 : tensor<1x128xi32> -> tensor<8x128xi32> loc(#loc493)
    %tmp126_419 = tt.broadcast %tmp126_417 : tensor<8x1xi32> -> tensor<8x128xi32> loc(#loc493)
    %tmp126_420 = arith.addi %tmp126_418, %tmp126_419 : tensor<8x128xi32> loc(#loc493)
    %tmp126_421 = tt.splat %in_ptr2 : !tt.ptr<bf16> -> tensor<8x128x!tt.ptr<bf16>> loc(#loc494)
    %tmp126_422 = tt.addptr %tmp126_421, %tmp126_420 : tensor<8x128x!tt.ptr<bf16>>, tensor<8x128xi32> loc(#loc494)
    %tmp126_423 = arith.constant 0.000000e+00 : f32 loc(#loc495)
    %tmp126_424 = tt.broadcast %tmp54_184 : tensor<1x128xi1> -> tensor<8x128xi1> loc(#loc495)
    %tmp126_425 = arith.constant dense<0.000000e+00> : tensor<8x128xf32> loc(#loc495)
    %tmp126_426 = arith.truncf %tmp126_425 : tensor<8x128xf32> to tensor<8x128xbf16> loc(#loc495)
    %tmp126_427 = tt.load %tmp126_422, %tmp126_424, %tmp126_426 : tensor<8x128x!tt.ptr<bf16>> loc(#loc495)
    %tmp126_428 = arith.extf %tmp126_427 : tensor<8x128xbf16> to tensor<8x128xf32> loc(#loc496)
    %tmp128 = arith.constant 128 : i32 loc(#loc497)
    %tmp128_429 = arith.constant 128 : i32 loc(#loc497)
    %tmp128_430 = arith.constant dense<128> : tensor<8x1xi32> loc(#loc497)
    %tmp128_431 = arith.muli %tmp128_430, %xindex_7 : tensor<8x1xi32> loc(#loc497)
    %tmp128_432 = tt.broadcast %r0_index_9 : tensor<1x128xi32> -> tensor<8x128xi32> loc(#loc498)
    %tmp128_433 = tt.broadcast %tmp128_431 : tensor<8x1xi32> -> tensor<8x128xi32> loc(#loc498)
    %tmp128_434 = arith.addi %tmp128_432, %tmp128_433 : tensor<8x128xi32> loc(#loc498)
    %tmp128_435 = tt.splat %in_ptr0 : !tt.ptr<bf16> -> tensor<8x128x!tt.ptr<bf16>> loc(#loc499)
    %tmp128_436 = tt.addptr %tmp128_435, %tmp128_434 : tensor<8x128x!tt.ptr<bf16>>, tensor<8x128xi32> loc(#loc499)
    %tmp128_437 = arith.constant 0.000000e+00 : f32 loc(#loc500)
    %tmp128_438 = tt.broadcast %tmp54_184 : tensor<1x128xi1> -> tensor<8x128xi1> loc(#loc500)
    %tmp128_439 = arith.constant dense<0.000000e+00> : tensor<8x128xf32> loc(#loc500)
    %tmp128_440 = arith.truncf %tmp128_439 : tensor<8x128xf32> to tensor<8x128xbf16> loc(#loc500)
    %tmp128_441 = tt.load %tmp128_436, %tmp128_438, %tmp128_440 : tensor<8x128x!tt.ptr<bf16>> loc(#loc500)
    %tmp128_442 = arith.extf %tmp128_441 : tensor<8x128xbf16> to tensor<8x128xf32> loc(#loc501)
    %tmp130 = arith.mulf %tmp128_442, %tmp118_412 : tensor<8x128xf32> loc(#loc502)
    %tmp131 = arith.constant dense<7.812500e-03> : tensor<8x128xf32> loc(#loc503)
    %tmp131_443 = arith.mulf %tmp130, %tmp131 : tensor<8x128xf32> loc(#loc503)
    %tmp132 = tt.broadcast %tmp9_63 : tensor<8x1xf32> -> tensor<8x128xf32> loc(#loc504)
    %tmp132_444 = arith.mulf %tmp131_443, %tmp132 : tensor<8x128xf32> loc(#loc504)
    %tmp133 = arith.subf %tmp126_428, %tmp132_444 : tensor<8x128xf32> loc(#loc505)
    %tmp134 = arith.mulf %tmp133, %tmp118_412 : tensor<8x128xf32> loc(#loc506)
    %tmp136 = arith.mulf %tmp134, %tmp80_288 : tensor<8x128xf32> loc(#loc507)
    %tmp137 = arith.addf %tmp125, %tmp136 : tensor<8x128xf32> loc(#loc508)
    %tmp138 = arith.constant 0.000000e+00 : f32 loc(#loc509)
    %tmp138_445 = arith.constant dense<0.000000e+00> : tensor<8x128xf32> loc(#loc509)
    %tmp139 = tt.broadcast %tmp54_184 : tensor<1x128xi1> -> tensor<8x128xi1> loc(#loc510)
    %tmp139_446 = arith.select %tmp139, %tmp137, %tmp138_445 : tensor<8x128xi1>, tensor<8x128xf32> loc(#loc510)
    %tmp140 = arith.constant dense<0.000000e+00> : tensor<8x128xf32> loc(#loc511)
    %tmp140_447 = tt.broadcast %tmp54_184 : tensor<1x128xi1> -> tensor<8x128xi1> loc(#loc511)
    %tmp140_448 = arith.select %tmp140_447, %tmp139_446, %tmp140 : tensor<8x128xi1>, tensor<8x128xf32> loc(#loc511)
    %tmp141 = arith.addf %tmp113_370, %tmp140_448 : tensor<8x128xf32> loc(#loc512)
    %c128_i32 = arith.constant 128 : i32 loc(#loc242)
    %c128_i32_449 = arith.constant 128 : i32 loc(#loc242)
    %cst = arith.constant dense<128> : tensor<8x1xi32> loc(#loc242)
    %0 = arith.muli %cst, %xindex_7 : tensor<8x1xi32> loc(#loc242)
    %1 = tt.broadcast %r0_index_9 : tensor<1x128xi32> -> tensor<8x128xi32> loc(#loc243)
    %2 = tt.broadcast %0 : tensor<8x1xi32> -> tensor<8x128xi32> loc(#loc243)
    %3 = arith.addi %1, %2 : tensor<8x128xi32> loc(#loc243)
    %4 = tt.splat %in_out_ptr0 : !tt.ptr<bf16> -> tensor<8x128x!tt.ptr<bf16>> loc(#loc244)
    %5 = tt.addptr %4, %3 : tensor<8x128x!tt.ptr<bf16>>, tensor<8x128xi32> loc(#loc244)
    %6 = arith.truncf %tmp86 : tensor<8x128xf32> to tensor<8x128xbf16> loc(#loc245)
    tt.store %5, %6 : tensor<8x128x!tt.ptr<bf16>> loc(#loc245)
    %c128_i32_450 = arith.constant 128 : i32 loc(#loc246)
    %c128_i32_451 = arith.constant 128 : i32 loc(#loc246)
    %cst_452 = arith.constant dense<128> : tensor<8x1xi32> loc(#loc246)
    %7 = arith.muli %cst_452, %xindex_7 : tensor<8x1xi32> loc(#loc246)
    %8 = tt.broadcast %r0_index_9 : tensor<1x128xi32> -> tensor<8x128xi32> loc(#loc247)
    %9 = tt.broadcast %7 : tensor<8x1xi32> -> tensor<8x128xi32> loc(#loc247)
    %10 = arith.addi %8, %9 : tensor<8x128xi32> loc(#loc247)
    %11 = tt.splat %in_out_ptr1 : !tt.ptr<bf16> -> tensor<8x128x!tt.ptr<bf16>> loc(#loc248)
    %12 = tt.addptr %11, %10 : tensor<8x128x!tt.ptr<bf16>>, tensor<8x128xi32> loc(#loc248)
    %13 = arith.truncf %tmp141 : tensor<8x128xf32> to tensor<8x128xbf16> loc(#loc249)
    tt.store %12, %13 : tensor<8x128x!tt.ptr<bf16>> loc(#loc249)
    tt.return loc(#loc250)
  } loc(#loc)
  tt.func private @"triton.language.standard.sum__fp32S8_128S__(1,)cconstexpr_1__(2,)cconstexpr_False__(3,)cNone"(%input: tensor<8x128xf32> loc("input"(#loc251))) -> tensor<8xf32> attributes {noinline = false} {
    %0 = "tt.reduce"(%input) <{axis = 1 : i32}> ({
    ^bb0(%arg1: f32 loc(unknown), %arg2: f32 loc(unknown)):
      %2 = tt.call @triton.language.standard._sum_combine__fp32_fp32__(%arg1, %arg2) : (f32, f32) -> f32 loc(#loc252)
      tt.reduce.return %2 : f32 loc(#loc252)
    }) : (tensor<8x128xf32>) -> tensor<8xf32> loc(#loc252)
    tt.return %0 : tensor<8xf32> loc(#loc254)
  ^bb1:  // no predecessors
    %1 = ub.poison : tensor<8xf32> loc(#loc255)
    tt.return %1 : tensor<8xf32> loc(#loc255)
  } loc(#loc251)
  tt.func private @triton.language.standard._sum_combine__fp32_fp32__(%a: f32 loc("a"(#loc256)), %b: f32 loc("b"(#loc256))) -> f32 attributes {noinline = false} {
    %0 = arith.addf %a, %b : f32 loc(#loc257)
    tt.return %0 : f32 loc(#loc258)
  ^bb1:  // no predecessors
    %1 = ub.poison : f32 loc(#loc259)
    tt.return %1 : f32 loc(#loc259)
  } loc(#loc256)
} loc(#loc)
#loc1 = loc("/mnt/weka/home/junlin.chen/workspace/autoresearch/autoresearch/.torchinductor-cache/wp/cwp5cltwapieafsnrdn733buzqnox75sztdvlrjzhptms6roxcq7.py":19:13)
#loc2 = loc("/mnt/weka/home/junlin.chen/workspace/autoresearch/autoresearch/.torchinductor-cache/wp/cwp5cltwapieafsnrdn733buzqnox75sztdvlrjzhptms6roxcq7.py":20:15)
#loc3 = loc("/mnt/weka/home/junlin.chen/workspace/autoresearch/autoresearch/.torchinductor-cache/wp/cwp5cltwapieafsnrdn733buzqnox75sztdvlrjzhptms6roxcq7.py":24:28)
#loc4 = loc("/mnt/weka/home/junlin.chen/workspace/autoresearch/autoresearch/.torchinductor-cache/wp/cwp5cltwapieafsnrdn733buzqnox75sztdvlrjzhptms6roxcq7.py":24:33)
#loc5 = loc("/mnt/weka/home/junlin.chen/workspace/autoresearch/autoresearch/.torchinductor-cache/wp/cwp5cltwapieafsnrdn733buzqnox75sztdvlrjzhptms6roxcq7.py":25:36)
#loc6 = loc("/mnt/weka/home/junlin.chen/workspace/autoresearch/autoresearch/.torchinductor-cache/wp/cwp5cltwapieafsnrdn733buzqnox75sztdvlrjzhptms6roxcq7.py":25:44)
#loc7 = loc("/mnt/weka/home/junlin.chen/workspace/autoresearch/autoresearch/.torchinductor-cache/wp/cwp5cltwapieafsnrdn733buzqnox75sztdvlrjzhptms6roxcq7.py":25:23)
#loc8 = loc("/mnt/weka/home/junlin.chen/workspace/autoresearch/autoresearch/.torchinductor-cache/wp/cwp5cltwapieafsnrdn733buzqnox75sztdvlrjzhptms6roxcq7.py":26:46)
#loc9 = loc("/mnt/weka/home/junlin.chen/workspace/autoresearch/autoresearch/.torchinductor-cache/wp/cwp5cltwapieafsnrdn733buzqnox75sztdvlrjzhptms6roxcq7.py":27:28)
#loc10 = loc("/mnt/weka/home/junlin.chen/workspace/autoresearch/autoresearch/.torchinductor-cache/wp/cwp5cltwapieafsnrdn733buzqnox75sztdvlrjzhptms6roxcq7.py":27:38)
#loc11 = loc("/mnt/weka/home/junlin.chen/workspace/autoresearch/autoresearch/.torchinductor-cache/wp/cwp5cltwapieafsnrdn733buzqnox75sztdvlrjzhptms6roxcq7.py":28:16)
#loc12 = loc("/mnt/weka/home/junlin.chen/workspace/autoresearch/autoresearch/.torchinductor-cache/wp/cwp5cltwapieafsnrdn733buzqnox75sztdvlrjzhptms6roxcq7.py":29:48)
#loc13 = loc("/mnt/weka/home/junlin.chen/workspace/autoresearch/autoresearch/.torchinductor-cache/wp/cwp5cltwapieafsnrdn733buzqnox75sztdvlrjzhptms6roxcq7.py":34:21)
#loc14 = loc("/mnt/weka/home/junlin.chen/workspace/autoresearch/autoresearch/.torchinductor-cache/wp/cwp5cltwapieafsnrdn733buzqnox75sztdvlrjzhptms6roxcq7.py":34:26)
#loc15 = loc("/mnt/weka/home/junlin.chen/workspace/autoresearch/autoresearch/.torchinductor-cache/wp/cwp5cltwapieafsnrdn733buzqnox75sztdvlrjzhptms6roxcq7.py":35:41)
#loc16 = loc("/mnt/weka/home/junlin.chen/workspace/autoresearch/autoresearch/.torchinductor-cache/wp/cwp5cltwapieafsnrdn733buzqnox75sztdvlrjzhptms6roxcq7.py":35:37)
#loc17 = loc("/mnt/weka/home/junlin.chen/workspace/autoresearch/autoresearch/.torchinductor-cache/wp/cwp5cltwapieafsnrdn733buzqnox75sztdvlrjzhptms6roxcq7.py":35:30)
#loc18 = loc("/mnt/weka/home/junlin.chen/workspace/autoresearch/autoresearch/.torchinductor-cache/wp/cwp5cltwapieafsnrdn733buzqnox75sztdvlrjzhptms6roxcq7.py":35:46)
#loc19 = loc("/mnt/weka/home/junlin.chen/workspace/autoresearch/autoresearch/.torchinductor-cache/wp/cwp5cltwapieafsnrdn733buzqnox75sztdvlrjzhptms6roxcq7.py":35:55)
#loc20 = loc("/mnt/weka/home/junlin.chen/workspace/autoresearch/autoresearch/.torchinductor-cache/wp/cwp5cltwapieafsnrdn733buzqnox75sztdvlrjzhptms6roxcq7.py":36:30)
#loc21 = loc("/mnt/weka/home/junlin.chen/workspace/autoresearch/autoresearch/.torchinductor-cache/wp/cwp5cltwapieafsnrdn733buzqnox75sztdvlrjzhptms6roxcq7.py":36:35)
#loc22 = loc("/mnt/weka/home/junlin.chen/workspace/autoresearch/autoresearch/.torchinductor-cache/wp/cwp5cltwapieafsnrdn733buzqnox75sztdvlrjzhptms6roxcq7.py":37:41)
#loc23 = loc("/mnt/weka/home/junlin.chen/workspace/autoresearch/autoresearch/.torchinductor-cache/wp/cwp5cltwapieafsnrdn733buzqnox75sztdvlrjzhptms6roxcq7.py":37:37)
#loc24 = loc("/mnt/weka/home/junlin.chen/workspace/autoresearch/autoresearch/.torchinductor-cache/wp/cwp5cltwapieafsnrdn733buzqnox75sztdvlrjzhptms6roxcq7.py":37:30)
#loc25 = loc("/mnt/weka/home/junlin.chen/workspace/autoresearch/autoresearch/.torchinductor-cache/wp/cwp5cltwapieafsnrdn733buzqnox75sztdvlrjzhptms6roxcq7.py":37:46)
#loc26 = loc("/mnt/weka/home/junlin.chen/workspace/autoresearch/autoresearch/.torchinductor-cache/wp/cwp5cltwapieafsnrdn733buzqnox75sztdvlrjzhptms6roxcq7.py":37:55)
#loc27 = loc("/mnt/weka/home/junlin.chen/workspace/autoresearch/autoresearch/.torchinductor-cache/wp/cwp5cltwapieafsnrdn733buzqnox75sztdvlrjzhptms6roxcq7.py":38:42)
#loc28 = loc("/mnt/weka/home/junlin.chen/workspace/autoresearch/autoresearch/.torchinductor-cache/wp/cwp5cltwapieafsnrdn733buzqnox75sztdvlrjzhptms6roxcq7.py":38:38)
#loc29 = loc("/mnt/weka/home/junlin.chen/workspace/autoresearch/autoresearch/.torchinductor-cache/wp/cwp5cltwapieafsnrdn733buzqnox75sztdvlrjzhptms6roxcq7.py":38:31)
#loc30 = loc("/mnt/weka/home/junlin.chen/workspace/autoresearch/autoresearch/.torchinductor-cache/wp/cwp5cltwapieafsnrdn733buzqnox75sztdvlrjzhptms6roxcq7.py":38:47)
#loc31 = loc("/mnt/weka/home/junlin.chen/workspace/autoresearch/autoresearch/.torchinductor-cache/wp/cwp5cltwapieafsnrdn733buzqnox75sztdvlrjzhptms6roxcq7.py":38:56)
#loc32 = loc("/mnt/weka/home/junlin.chen/workspace/autoresearch/autoresearch/.torchinductor-cache/wp/cwp5cltwapieafsnrdn733buzqnox75sztdvlrjzhptms6roxcq7.py":39:31)
#loc33 = loc("/mnt/weka/home/junlin.chen/workspace/autoresearch/autoresearch/.torchinductor-cache/wp/cwp5cltwapieafsnrdn733buzqnox75sztdvlrjzhptms6roxcq7.py":39:36)
#loc34 = loc("/mnt/weka/home/junlin.chen/workspace/autoresearch/autoresearch/.torchinductor-cache/wp/cwp5cltwapieafsnrdn733buzqnox75sztdvlrjzhptms6roxcq7.py":40:42)
#loc35 = loc("/mnt/weka/home/junlin.chen/workspace/autoresearch/autoresearch/.torchinductor-cache/wp/cwp5cltwapieafsnrdn733buzqnox75sztdvlrjzhptms6roxcq7.py":40:38)
#loc36 = loc("/mnt/weka/home/junlin.chen/workspace/autoresearch/autoresearch/.torchinductor-cache/wp/cwp5cltwapieafsnrdn733buzqnox75sztdvlrjzhptms6roxcq7.py":40:31)
#loc37 = loc("/mnt/weka/home/junlin.chen/workspace/autoresearch/autoresearch/.torchinductor-cache/wp/cwp5cltwapieafsnrdn733buzqnox75sztdvlrjzhptms6roxcq7.py":40:47)
#loc38 = loc("/mnt/weka/home/junlin.chen/workspace/autoresearch/autoresearch/.torchinductor-cache/wp/cwp5cltwapieafsnrdn733buzqnox75sztdvlrjzhptms6roxcq7.py":40:56)
#loc39 = loc("/mnt/weka/home/junlin.chen/workspace/autoresearch/autoresearch/.torchinductor-cache/wp/cwp5cltwapieafsnrdn733buzqnox75sztdvlrjzhptms6roxcq7.py":42:18)
#loc40 = loc("/mnt/weka/home/junlin.chen/workspace/autoresearch/autoresearch/.torchinductor-cache/wp/cwp5cltwapieafsnrdn733buzqnox75sztdvlrjzhptms6roxcq7.py":44:18)
#loc41 = loc("/mnt/weka/home/junlin.chen/workspace/autoresearch/autoresearch/.torchinductor-cache/wp/cwp5cltwapieafsnrdn733buzqnox75sztdvlrjzhptms6roxcq7.py":46:24)
#loc42 = loc("/mnt/weka/home/junlin.chen/workspace/autoresearch/autoresearch/.torchinductor-cache/wp/cwp5cltwapieafsnrdn733buzqnox75sztdvlrjzhptms6roxcq7.py":46:27)
#loc43 = loc("/mnt/weka/home/junlin.chen/workspace/autoresearch/autoresearch/.torchinductor-cache/wp/cwp5cltwapieafsnrdn733buzqnox75sztdvlrjzhptms6roxcq7.py":48:20)
#loc44 = loc("/mnt/weka/home/junlin.chen/workspace/autoresearch/autoresearch/.torchinductor-cache/wp/cwp5cltwapieafsnrdn733buzqnox75sztdvlrjzhptms6roxcq7.py":50:20)
#loc45 = loc("/mnt/weka/home/junlin.chen/workspace/autoresearch/autoresearch/.torchinductor-cache/wp/cwp5cltwapieafsnrdn733buzqnox75sztdvlrjzhptms6roxcq7.py":52:26)
#loc46 = loc("/mnt/weka/home/junlin.chen/workspace/autoresearch/autoresearch/.torchinductor-cache/wp/cwp5cltwapieafsnrdn733buzqnox75sztdvlrjzhptms6roxcq7.py":52:29)
#loc47 = loc("/mnt/weka/home/junlin.chen/workspace/autoresearch/autoresearch/.torchinductor-cache/wp/cwp5cltwapieafsnrdn733buzqnox75sztdvlrjzhptms6roxcq7.py":54:32)
#loc48 = loc("/mnt/weka/home/junlin.chen/workspace/autoresearch/autoresearch/.torchinductor-cache/wp/cwp5cltwapieafsnrdn733buzqnox75sztdvlrjzhptms6roxcq7.py":55:21)
#loc49 = loc("/mnt/weka/home/junlin.chen/workspace/autoresearch/autoresearch/.torchinductor-cache/wp/cwp5cltwapieafsnrdn733buzqnox75sztdvlrjzhptms6roxcq7.py":56:42)
#loc50 = loc("/mnt/weka/home/junlin.chen/workspace/autoresearch/autoresearch/.torchinductor-cache/wp/cwp5cltwapieafsnrdn733buzqnox75sztdvlrjzhptms6roxcq7.py":56:38)
#loc51 = loc("/mnt/weka/home/junlin.chen/workspace/autoresearch/autoresearch/.torchinductor-cache/wp/cwp5cltwapieafsnrdn733buzqnox75sztdvlrjzhptms6roxcq7.py":56:31)
#loc52 = loc("/mnt/weka/home/junlin.chen/workspace/autoresearch/autoresearch/.torchinductor-cache/wp/cwp5cltwapieafsnrdn733buzqnox75sztdvlrjzhptms6roxcq7.py":56:47)
#loc53 = loc("/mnt/weka/home/junlin.chen/workspace/autoresearch/autoresearch/.torchinductor-cache/wp/cwp5cltwapieafsnrdn733buzqnox75sztdvlrjzhptms6roxcq7.py":56:68)
#loc54 = loc("/mnt/weka/home/junlin.chen/workspace/autoresearch/autoresearch/.torchinductor-cache/wp/cwp5cltwapieafsnrdn733buzqnox75sztdvlrjzhptms6roxcq7.py":58:42)
#loc55 = loc("/mnt/weka/home/junlin.chen/workspace/autoresearch/autoresearch/.torchinductor-cache/wp/cwp5cltwapieafsnrdn733buzqnox75sztdvlrjzhptms6roxcq7.py":58:38)
#loc56 = loc("/mnt/weka/home/junlin.chen/workspace/autoresearch/autoresearch/.torchinductor-cache/wp/cwp5cltwapieafsnrdn733buzqnox75sztdvlrjzhptms6roxcq7.py":58:31)
#loc57 = loc("/mnt/weka/home/junlin.chen/workspace/autoresearch/autoresearch/.torchinductor-cache/wp/cwp5cltwapieafsnrdn733buzqnox75sztdvlrjzhptms6roxcq7.py":58:47)
#loc58 = loc("/mnt/weka/home/junlin.chen/workspace/autoresearch/autoresearch/.torchinductor-cache/wp/cwp5cltwapieafsnrdn733buzqnox75sztdvlrjzhptms6roxcq7.py":58:68)
#loc59 = loc("/mnt/weka/home/junlin.chen/workspace/autoresearch/autoresearch/.torchinductor-cache/wp/cwp5cltwapieafsnrdn733buzqnox75sztdvlrjzhptms6roxcq7.py":60:51)
#loc60 = loc("/mnt/weka/home/junlin.chen/workspace/autoresearch/autoresearch/.torchinductor-cache/wp/cwp5cltwapieafsnrdn733buzqnox75sztdvlrjzhptms6roxcq7.py":60:31)
#loc61 = loc("/mnt/weka/home/junlin.chen/workspace/autoresearch/autoresearch/.torchinductor-cache/wp/cwp5cltwapieafsnrdn733buzqnox75sztdvlrjzhptms6roxcq7.py":60:73)
#loc62 = loc("/mnt/weka/home/junlin.chen/workspace/autoresearch/autoresearch/.torchinductor-cache/wp/cwp5cltwapieafsnrdn733buzqnox75sztdvlrjzhptms6roxcq7.py":61:20)
#loc63 = loc("/mnt/weka/home/junlin.chen/workspace/autoresearch/autoresearch/.torchinductor-cache/wp/cwp5cltwapieafsnrdn733buzqnox75sztdvlrjzhptms6roxcq7.py":62:12)
#loc64 = loc("/mnt/weka/home/junlin.chen/workspace/autoresearch/autoresearch/.torchinductor-cache/wp/cwp5cltwapieafsnrdn733buzqnox75sztdvlrjzhptms6roxcq7.py":63:20)
#loc65 = loc("/mnt/weka/home/junlin.chen/workspace/autoresearch/autoresearch/.torchinductor-cache/wp/cwp5cltwapieafsnrdn733buzqnox75sztdvlrjzhptms6roxcq7.py":64:20)
#loc66 = loc("/mnt/weka/home/junlin.chen/workspace/autoresearch/autoresearch/.torchinductor-cache/wp/cwp5cltwapieafsnrdn733buzqnox75sztdvlrjzhptms6roxcq7.py":65:20)
#loc67 = loc("/mnt/weka/home/junlin.chen/workspace/autoresearch/autoresearch/.torchinductor-cache/wp/cwp5cltwapieafsnrdn733buzqnox75sztdvlrjzhptms6roxcq7.py":66:20)
#loc68 = loc("/mnt/weka/home/junlin.chen/workspace/autoresearch/autoresearch/.torchinductor-cache/wp/cwp5cltwapieafsnrdn733buzqnox75sztdvlrjzhptms6roxcq7.py":68:39)
#loc69 = loc("/mnt/weka/home/junlin.chen/workspace/autoresearch/autoresearch/.torchinductor-cache/wp/cwp5cltwapieafsnrdn733buzqnox75sztdvlrjzhptms6roxcq7.py":68:49)
#loc70 = loc("/mnt/weka/home/junlin.chen/workspace/autoresearch/autoresearch/.torchinductor-cache/wp/cwp5cltwapieafsnrdn733buzqnox75sztdvlrjzhptms6roxcq7.py":68:46)
#loc71 = loc("/mnt/weka/home/junlin.chen/workspace/autoresearch/autoresearch/.torchinductor-cache/wp/cwp5cltwapieafsnrdn733buzqnox75sztdvlrjzhptms6roxcq7.py":68:31)
#loc72 = loc("/mnt/weka/home/junlin.chen/workspace/autoresearch/autoresearch/.torchinductor-cache/wp/cwp5cltwapieafsnrdn733buzqnox75sztdvlrjzhptms6roxcq7.py":68:54)
#loc73 = loc("/mnt/weka/home/junlin.chen/workspace/autoresearch/autoresearch/.torchinductor-cache/wp/cwp5cltwapieafsnrdn733buzqnox75sztdvlrjzhptms6roxcq7.py":68:105)
#loc74 = loc("/mnt/weka/home/junlin.chen/workspace/autoresearch/autoresearch/.torchinductor-cache/wp/cwp5cltwapieafsnrdn733buzqnox75sztdvlrjzhptms6roxcq7.py":69:20)
#loc75 = loc("/mnt/weka/home/junlin.chen/workspace/autoresearch/autoresearch/.torchinductor-cache/wp/cwp5cltwapieafsnrdn733buzqnox75sztdvlrjzhptms6roxcq7.py":70:39)
#loc76 = loc("/mnt/weka/home/junlin.chen/workspace/autoresearch/autoresearch/.torchinductor-cache/wp/cwp5cltwapieafsnrdn733buzqnox75sztdvlrjzhptms6roxcq7.py":70:50)
#loc77 = loc("/mnt/weka/home/junlin.chen/workspace/autoresearch/autoresearch/.torchinductor-cache/wp/cwp5cltwapieafsnrdn733buzqnox75sztdvlrjzhptms6roxcq7.py":70:46)
#loc78 = loc("/mnt/weka/home/junlin.chen/workspace/autoresearch/autoresearch/.torchinductor-cache/wp/cwp5cltwapieafsnrdn733buzqnox75sztdvlrjzhptms6roxcq7.py":70:31)
#loc79 = loc("/mnt/weka/home/junlin.chen/workspace/autoresearch/autoresearch/.torchinductor-cache/wp/cwp5cltwapieafsnrdn733buzqnox75sztdvlrjzhptms6roxcq7.py":70:55)
#loc80 = loc("/mnt/weka/home/junlin.chen/workspace/autoresearch/autoresearch/.torchinductor-cache/wp/cwp5cltwapieafsnrdn733buzqnox75sztdvlrjzhptms6roxcq7.py":70:76)
#loc81 = loc("/mnt/weka/home/junlin.chen/workspace/autoresearch/autoresearch/.torchinductor-cache/wp/cwp5cltwapieafsnrdn733buzqnox75sztdvlrjzhptms6roxcq7.py":72:39)
#loc82 = loc("/mnt/weka/home/junlin.chen/workspace/autoresearch/autoresearch/.torchinductor-cache/wp/cwp5cltwapieafsnrdn733buzqnox75sztdvlrjzhptms6roxcq7.py":72:50)
#loc83 = loc("/mnt/weka/home/junlin.chen/workspace/autoresearch/autoresearch/.torchinductor-cache/wp/cwp5cltwapieafsnrdn733buzqnox75sztdvlrjzhptms6roxcq7.py":72:46)
#loc84 = loc("/mnt/weka/home/junlin.chen/workspace/autoresearch/autoresearch/.torchinductor-cache/wp/cwp5cltwapieafsnrdn733buzqnox75sztdvlrjzhptms6roxcq7.py":72:31)
#loc85 = loc("/mnt/weka/home/junlin.chen/workspace/autoresearch/autoresearch/.torchinductor-cache/wp/cwp5cltwapieafsnrdn733buzqnox75sztdvlrjzhptms6roxcq7.py":72:55)
#loc86 = loc("/mnt/weka/home/junlin.chen/workspace/autoresearch/autoresearch/.torchinductor-cache/wp/cwp5cltwapieafsnrdn733buzqnox75sztdvlrjzhptms6roxcq7.py":72:76)
#loc87 = loc("/mnt/weka/home/junlin.chen/workspace/autoresearch/autoresearch/.torchinductor-cache/wp/cwp5cltwapieafsnrdn733buzqnox75sztdvlrjzhptms6roxcq7.py":74:20)
#loc88 = loc("/mnt/weka/home/junlin.chen/workspace/autoresearch/autoresearch/.torchinductor-cache/wp/cwp5cltwapieafsnrdn733buzqnox75sztdvlrjzhptms6roxcq7.py":75:20)
#loc89 = loc("/mnt/weka/home/junlin.chen/workspace/autoresearch/autoresearch/.torchinductor-cache/wp/cwp5cltwapieafsnrdn733buzqnox75sztdvlrjzhptms6roxcq7.py":76:20)
#loc90 = loc("/mnt/weka/home/junlin.chen/workspace/autoresearch/autoresearch/.torchinductor-cache/wp/cwp5cltwapieafsnrdn733buzqnox75sztdvlrjzhptms6roxcq7.py":77:20)
#loc91 = loc("/mnt/weka/home/junlin.chen/workspace/autoresearch/autoresearch/.torchinductor-cache/wp/cwp5cltwapieafsnrdn733buzqnox75sztdvlrjzhptms6roxcq7.py":78:20)
#loc92 = loc("/mnt/weka/home/junlin.chen/workspace/autoresearch/autoresearch/.torchinductor-cache/wp/cwp5cltwapieafsnrdn733buzqnox75sztdvlrjzhptms6roxcq7.py":80:39)
#loc93 = loc("/mnt/weka/home/junlin.chen/workspace/autoresearch/autoresearch/.torchinductor-cache/wp/cwp5cltwapieafsnrdn733buzqnox75sztdvlrjzhptms6roxcq7.py":80:49)
#loc94 = loc("/mnt/weka/home/junlin.chen/workspace/autoresearch/autoresearch/.torchinductor-cache/wp/cwp5cltwapieafsnrdn733buzqnox75sztdvlrjzhptms6roxcq7.py":80:46)
#loc95 = loc("/mnt/weka/home/junlin.chen/workspace/autoresearch/autoresearch/.torchinductor-cache/wp/cwp5cltwapieafsnrdn733buzqnox75sztdvlrjzhptms6roxcq7.py":80:31)
#loc96 = loc("/mnt/weka/home/junlin.chen/workspace/autoresearch/autoresearch/.torchinductor-cache/wp/cwp5cltwapieafsnrdn733buzqnox75sztdvlrjzhptms6roxcq7.py":80:54)
#loc97 = loc("/mnt/weka/home/junlin.chen/workspace/autoresearch/autoresearch/.torchinductor-cache/wp/cwp5cltwapieafsnrdn733buzqnox75sztdvlrjzhptms6roxcq7.py":80:105)
#loc98 = loc("/mnt/weka/home/junlin.chen/workspace/autoresearch/autoresearch/.torchinductor-cache/wp/cwp5cltwapieafsnrdn733buzqnox75sztdvlrjzhptms6roxcq7.py":81:20)
#loc99 = loc("/mnt/weka/home/junlin.chen/workspace/autoresearch/autoresearch/.torchinductor-cache/wp/cwp5cltwapieafsnrdn733buzqnox75sztdvlrjzhptms6roxcq7.py":82:20)
#loc100 = loc("/mnt/weka/home/junlin.chen/workspace/autoresearch/autoresearch/.torchinductor-cache/wp/cwp5cltwapieafsnrdn733buzqnox75sztdvlrjzhptms6roxcq7.py":83:38)
#loc101 = loc("/mnt/weka/home/junlin.chen/workspace/autoresearch/autoresearch/.torchinductor-cache/wp/cwp5cltwapieafsnrdn733buzqnox75sztdvlrjzhptms6roxcq7.py":84:35)
#loc102 = loc("/mnt/weka/home/junlin.chen/workspace/autoresearch/autoresearch/.torchinductor-cache/wp/cwp5cltwapieafsnrdn733buzqnox75sztdvlrjzhptms6roxcq7.py":85:12)
#loc103 = loc("/mnt/weka/home/junlin.chen/workspace/autoresearch/autoresearch/.torchinductor-cache/wp/cwp5cltwapieafsnrdn733buzqnox75sztdvlrjzhptms6roxcq7.py":86:35)
#loc104 = loc("/mnt/weka/home/junlin.chen/workspace/autoresearch/autoresearch/.torchinductor-cache/wp/cwp5cltwapieafsnrdn733buzqnox75sztdvlrjzhptms6roxcq7.py":87:20)
#loc105 = loc("/mnt/weka/home/junlin.chen/workspace/autoresearch/autoresearch/.torchinductor-cache/wp/cwp5cltwapieafsnrdn733buzqnox75sztdvlrjzhptms6roxcq7.py":88:36)
#loc106 = loc("/mnt/weka/home/junlin.chen/workspace/autoresearch/autoresearch/.torchinductor-cache/wp/cwp5cltwapieafsnrdn733buzqnox75sztdvlrjzhptms6roxcq7.py":88:47)
#loc107 = loc("/mnt/weka/home/junlin.chen/workspace/autoresearch/autoresearch/.torchinductor-cache/wp/cwp5cltwapieafsnrdn733buzqnox75sztdvlrjzhptms6roxcq7.py":88:43)
#loc108 = loc("/mnt/weka/home/junlin.chen/workspace/autoresearch/autoresearch/.torchinductor-cache/wp/cwp5cltwapieafsnrdn733buzqnox75sztdvlrjzhptms6roxcq7.py":88:31)
#loc109 = loc("/mnt/weka/home/junlin.chen/workspace/autoresearch/autoresearch/.torchinductor-cache/wp/cwp5cltwapieafsnrdn733buzqnox75sztdvlrjzhptms6roxcq7.py":88:52)
#loc110 = loc("/mnt/weka/home/junlin.chen/workspace/autoresearch/autoresearch/.torchinductor-cache/wp/cwp5cltwapieafsnrdn733buzqnox75sztdvlrjzhptms6roxcq7.py":88:73)
#loc111 = loc("/mnt/weka/home/junlin.chen/workspace/autoresearch/autoresearch/.torchinductor-cache/wp/cwp5cltwapieafsnrdn733buzqnox75sztdvlrjzhptms6roxcq7.py":90:36)
#loc112 = loc("/mnt/weka/home/junlin.chen/workspace/autoresearch/autoresearch/.torchinductor-cache/wp/cwp5cltwapieafsnrdn733buzqnox75sztdvlrjzhptms6roxcq7.py":90:47)
#loc113 = loc("/mnt/weka/home/junlin.chen/workspace/autoresearch/autoresearch/.torchinductor-cache/wp/cwp5cltwapieafsnrdn733buzqnox75sztdvlrjzhptms6roxcq7.py":90:43)
#loc114 = loc("/mnt/weka/home/junlin.chen/workspace/autoresearch/autoresearch/.torchinductor-cache/wp/cwp5cltwapieafsnrdn733buzqnox75sztdvlrjzhptms6roxcq7.py":90:31)
#loc115 = loc("/mnt/weka/home/junlin.chen/workspace/autoresearch/autoresearch/.torchinductor-cache/wp/cwp5cltwapieafsnrdn733buzqnox75sztdvlrjzhptms6roxcq7.py":90:52)
#loc116 = loc("/mnt/weka/home/junlin.chen/workspace/autoresearch/autoresearch/.torchinductor-cache/wp/cwp5cltwapieafsnrdn733buzqnox75sztdvlrjzhptms6roxcq7.py":90:73)
#loc117 = loc("/mnt/weka/home/junlin.chen/workspace/autoresearch/autoresearch/.torchinductor-cache/wp/cwp5cltwapieafsnrdn733buzqnox75sztdvlrjzhptms6roxcq7.py":92:51)
#loc118 = loc("/mnt/weka/home/junlin.chen/workspace/autoresearch/autoresearch/.torchinductor-cache/wp/cwp5cltwapieafsnrdn733buzqnox75sztdvlrjzhptms6roxcq7.py":92:31)
#loc119 = loc("/mnt/weka/home/junlin.chen/workspace/autoresearch/autoresearch/.torchinductor-cache/wp/cwp5cltwapieafsnrdn733buzqnox75sztdvlrjzhptms6roxcq7.py":92:73)
#loc120 = loc("/mnt/weka/home/junlin.chen/workspace/autoresearch/autoresearch/.torchinductor-cache/wp/cwp5cltwapieafsnrdn733buzqnox75sztdvlrjzhptms6roxcq7.py":93:20)
#loc121 = loc("/mnt/weka/home/junlin.chen/workspace/autoresearch/autoresearch/.torchinductor-cache/wp/cwp5cltwapieafsnrdn733buzqnox75sztdvlrjzhptms6roxcq7.py":94:12)
#loc122 = loc("/mnt/weka/home/junlin.chen/workspace/autoresearch/autoresearch/.torchinductor-cache/wp/cwp5cltwapieafsnrdn733buzqnox75sztdvlrjzhptms6roxcq7.py":95:20)
#loc123 = loc("/mnt/weka/home/junlin.chen/workspace/autoresearch/autoresearch/.torchinductor-cache/wp/cwp5cltwapieafsnrdn733buzqnox75sztdvlrjzhptms6roxcq7.py":96:20)
#loc124 = loc("/mnt/weka/home/junlin.chen/workspace/autoresearch/autoresearch/.torchinductor-cache/wp/cwp5cltwapieafsnrdn733buzqnox75sztdvlrjzhptms6roxcq7.py":97:20)
#loc125 = loc("/mnt/weka/home/junlin.chen/workspace/autoresearch/autoresearch/.torchinductor-cache/wp/cwp5cltwapieafsnrdn733buzqnox75sztdvlrjzhptms6roxcq7.py":98:20)
#loc126 = loc("/mnt/weka/home/junlin.chen/workspace/autoresearch/autoresearch/.torchinductor-cache/wp/cwp5cltwapieafsnrdn733buzqnox75sztdvlrjzhptms6roxcq7.py":100:41)
#loc127 = loc("/mnt/weka/home/junlin.chen/workspace/autoresearch/autoresearch/.torchinductor-cache/wp/cwp5cltwapieafsnrdn733buzqnox75sztdvlrjzhptms6roxcq7.py":100:38)
#loc128 = loc("/mnt/weka/home/junlin.chen/workspace/autoresearch/autoresearch/.torchinductor-cache/wp/cwp5cltwapieafsnrdn733buzqnox75sztdvlrjzhptms6roxcq7.py":100:31)
#loc129 = loc("/mnt/weka/home/junlin.chen/workspace/autoresearch/autoresearch/.torchinductor-cache/wp/cwp5cltwapieafsnrdn733buzqnox75sztdvlrjzhptms6roxcq7.py":100:46)
#loc130 = loc("/mnt/weka/home/junlin.chen/workspace/autoresearch/autoresearch/.torchinductor-cache/wp/cwp5cltwapieafsnrdn733buzqnox75sztdvlrjzhptms6roxcq7.py":100:97)
#loc131 = loc("/mnt/weka/home/junlin.chen/workspace/autoresearch/autoresearch/.torchinductor-cache/wp/cwp5cltwapieafsnrdn733buzqnox75sztdvlrjzhptms6roxcq7.py":101:13)
#loc132 = loc("/mnt/weka/home/junlin.chen/workspace/autoresearch/autoresearch/.torchinductor-cache/wp/cwp5cltwapieafsnrdn733buzqnox75sztdvlrjzhptms6roxcq7.py":102:20)
#loc133 = loc("/mnt/weka/home/junlin.chen/workspace/autoresearch/autoresearch/.torchinductor-cache/wp/cwp5cltwapieafsnrdn733buzqnox75sztdvlrjzhptms6roxcq7.py":103:42)
#loc134 = loc("/mnt/weka/home/junlin.chen/workspace/autoresearch/autoresearch/.torchinductor-cache/wp/cwp5cltwapieafsnrdn733buzqnox75sztdvlrjzhptms6roxcq7.py":103:38)
#loc135 = loc("/mnt/weka/home/junlin.chen/workspace/autoresearch/autoresearch/.torchinductor-cache/wp/cwp5cltwapieafsnrdn733buzqnox75sztdvlrjzhptms6roxcq7.py":103:31)
#loc136 = loc("/mnt/weka/home/junlin.chen/workspace/autoresearch/autoresearch/.torchinductor-cache/wp/cwp5cltwapieafsnrdn733buzqnox75sztdvlrjzhptms6roxcq7.py":103:47)
#loc137 = loc("/mnt/weka/home/junlin.chen/workspace/autoresearch/autoresearch/.torchinductor-cache/wp/cwp5cltwapieafsnrdn733buzqnox75sztdvlrjzhptms6roxcq7.py":103:68)
#loc138 = loc("/mnt/weka/home/junlin.chen/workspace/autoresearch/autoresearch/.torchinductor-cache/wp/cwp5cltwapieafsnrdn733buzqnox75sztdvlrjzhptms6roxcq7.py":105:42)
#loc139 = loc("/mnt/weka/home/junlin.chen/workspace/autoresearch/autoresearch/.torchinductor-cache/wp/cwp5cltwapieafsnrdn733buzqnox75sztdvlrjzhptms6roxcq7.py":105:38)
#loc140 = loc("/mnt/weka/home/junlin.chen/workspace/autoresearch/autoresearch/.torchinductor-cache/wp/cwp5cltwapieafsnrdn733buzqnox75sztdvlrjzhptms6roxcq7.py":105:31)
#loc141 = loc("/mnt/weka/home/junlin.chen/workspace/autoresearch/autoresearch/.torchinductor-cache/wp/cwp5cltwapieafsnrdn733buzqnox75sztdvlrjzhptms6roxcq7.py":105:47)
#loc142 = loc("/mnt/weka/home/junlin.chen/workspace/autoresearch/autoresearch/.torchinductor-cache/wp/cwp5cltwapieafsnrdn733buzqnox75sztdvlrjzhptms6roxcq7.py":105:68)
#loc143 = loc("/mnt/weka/home/junlin.chen/workspace/autoresearch/autoresearch/.torchinductor-cache/wp/cwp5cltwapieafsnrdn733buzqnox75sztdvlrjzhptms6roxcq7.py":107:20)
#loc144 = loc("/mnt/weka/home/junlin.chen/workspace/autoresearch/autoresearch/.torchinductor-cache/wp/cwp5cltwapieafsnrdn733buzqnox75sztdvlrjzhptms6roxcq7.py":108:20)
#loc145 = loc("/mnt/weka/home/junlin.chen/workspace/autoresearch/autoresearch/.torchinductor-cache/wp/cwp5cltwapieafsnrdn733buzqnox75sztdvlrjzhptms6roxcq7.py":109:20)
#loc146 = loc("/mnt/weka/home/junlin.chen/workspace/autoresearch/autoresearch/.torchinductor-cache/wp/cwp5cltwapieafsnrdn733buzqnox75sztdvlrjzhptms6roxcq7.py":110:20)
#loc147 = loc("/mnt/weka/home/junlin.chen/workspace/autoresearch/autoresearch/.torchinductor-cache/wp/cwp5cltwapieafsnrdn733buzqnox75sztdvlrjzhptms6roxcq7.py":111:20)
#loc148 = loc("/mnt/weka/home/junlin.chen/workspace/autoresearch/autoresearch/.torchinductor-cache/wp/cwp5cltwapieafsnrdn733buzqnox75sztdvlrjzhptms6roxcq7.py":113:41)
#loc149 = loc("/mnt/weka/home/junlin.chen/workspace/autoresearch/autoresearch/.torchinductor-cache/wp/cwp5cltwapieafsnrdn733buzqnox75sztdvlrjzhptms6roxcq7.py":113:38)
#loc150 = loc("/mnt/weka/home/junlin.chen/workspace/autoresearch/autoresearch/.torchinductor-cache/wp/cwp5cltwapieafsnrdn733buzqnox75sztdvlrjzhptms6roxcq7.py":113:31)
#loc151 = loc("/mnt/weka/home/junlin.chen/workspace/autoresearch/autoresearch/.torchinductor-cache/wp/cwp5cltwapieafsnrdn733buzqnox75sztdvlrjzhptms6roxcq7.py":113:46)
#loc152 = loc("/mnt/weka/home/junlin.chen/workspace/autoresearch/autoresearch/.torchinductor-cache/wp/cwp5cltwapieafsnrdn733buzqnox75sztdvlrjzhptms6roxcq7.py":113:97)
#loc153 = loc("/mnt/weka/home/junlin.chen/workspace/autoresearch/autoresearch/.torchinductor-cache/wp/cwp5cltwapieafsnrdn733buzqnox75sztdvlrjzhptms6roxcq7.py":114:20)
#loc154 = loc("/mnt/weka/home/junlin.chen/workspace/autoresearch/autoresearch/.torchinductor-cache/wp/cwp5cltwapieafsnrdn733buzqnox75sztdvlrjzhptms6roxcq7.py":115:20)
#loc155 = loc("/mnt/weka/home/junlin.chen/workspace/autoresearch/autoresearch/.torchinductor-cache/wp/cwp5cltwapieafsnrdn733buzqnox75sztdvlrjzhptms6roxcq7.py":116:38)
#loc156 = loc("/mnt/weka/home/junlin.chen/workspace/autoresearch/autoresearch/.torchinductor-cache/wp/cwp5cltwapieafsnrdn733buzqnox75sztdvlrjzhptms6roxcq7.py":117:35)
#loc157 = loc("/mnt/weka/home/junlin.chen/workspace/autoresearch/autoresearch/.torchinductor-cache/wp/cwp5cltwapieafsnrdn733buzqnox75sztdvlrjzhptms6roxcq7.py":118:35)
#loc158 = loc("/mnt/weka/home/junlin.chen/workspace/autoresearch/autoresearch/.torchinductor-cache/wp/cwp5cltwapieafsnrdn733buzqnox75sztdvlrjzhptms6roxcq7.py":119:20)
#loc159 = loc("/mnt/weka/home/junlin.chen/workspace/autoresearch/autoresearch/.torchinductor-cache/wp/cwp5cltwapieafsnrdn733buzqnox75sztdvlrjzhptms6roxcq7.py":120:42)
#loc160 = loc("/mnt/weka/home/junlin.chen/workspace/autoresearch/autoresearch/.torchinductor-cache/wp/cwp5cltwapieafsnrdn733buzqnox75sztdvlrjzhptms6roxcq7.py":120:38)
#loc161 = loc("/mnt/weka/home/junlin.chen/workspace/autoresearch/autoresearch/.torchinductor-cache/wp/cwp5cltwapieafsnrdn733buzqnox75sztdvlrjzhptms6roxcq7.py":120:31)
#loc162 = loc("/mnt/weka/home/junlin.chen/workspace/autoresearch/autoresearch/.torchinductor-cache/wp/cwp5cltwapieafsnrdn733buzqnox75sztdvlrjzhptms6roxcq7.py":120:47)
#loc163 = loc("/mnt/weka/home/junlin.chen/workspace/autoresearch/autoresearch/.torchinductor-cache/wp/cwp5cltwapieafsnrdn733buzqnox75sztdvlrjzhptms6roxcq7.py":120:68)
#loc164 = loc("/mnt/weka/home/junlin.chen/workspace/autoresearch/autoresearch/.torchinductor-cache/wp/cwp5cltwapieafsnrdn733buzqnox75sztdvlrjzhptms6roxcq7.py":122:42)
#loc165 = loc("/mnt/weka/home/junlin.chen/workspace/autoresearch/autoresearch/.torchinductor-cache/wp/cwp5cltwapieafsnrdn733buzqnox75sztdvlrjzhptms6roxcq7.py":122:38)
#loc166 = loc("/mnt/weka/home/junlin.chen/workspace/autoresearch/autoresearch/.torchinductor-cache/wp/cwp5cltwapieafsnrdn733buzqnox75sztdvlrjzhptms6roxcq7.py":122:31)
#loc167 = loc("/mnt/weka/home/junlin.chen/workspace/autoresearch/autoresearch/.torchinductor-cache/wp/cwp5cltwapieafsnrdn733buzqnox75sztdvlrjzhptms6roxcq7.py":122:47)
#loc168 = loc("/mnt/weka/home/junlin.chen/workspace/autoresearch/autoresearch/.torchinductor-cache/wp/cwp5cltwapieafsnrdn733buzqnox75sztdvlrjzhptms6roxcq7.py":122:68)
#loc169 = loc("/mnt/weka/home/junlin.chen/workspace/autoresearch/autoresearch/.torchinductor-cache/wp/cwp5cltwapieafsnrdn733buzqnox75sztdvlrjzhptms6roxcq7.py":124:51)
#loc170 = loc("/mnt/weka/home/junlin.chen/workspace/autoresearch/autoresearch/.torchinductor-cache/wp/cwp5cltwapieafsnrdn733buzqnox75sztdvlrjzhptms6roxcq7.py":124:31)
#loc171 = loc("/mnt/weka/home/junlin.chen/workspace/autoresearch/autoresearch/.torchinductor-cache/wp/cwp5cltwapieafsnrdn733buzqnox75sztdvlrjzhptms6roxcq7.py":124:73)
#loc172 = loc("/mnt/weka/home/junlin.chen/workspace/autoresearch/autoresearch/.torchinductor-cache/wp/cwp5cltwapieafsnrdn733buzqnox75sztdvlrjzhptms6roxcq7.py":125:20)
#loc173 = loc("/mnt/weka/home/junlin.chen/workspace/autoresearch/autoresearch/.torchinductor-cache/wp/cwp5cltwapieafsnrdn733buzqnox75sztdvlrjzhptms6roxcq7.py":126:20)
#loc174 = loc("/mnt/weka/home/junlin.chen/workspace/autoresearch/autoresearch/.torchinductor-cache/wp/cwp5cltwapieafsnrdn733buzqnox75sztdvlrjzhptms6roxcq7.py":127:20)
#loc175 = loc("/mnt/weka/home/junlin.chen/workspace/autoresearch/autoresearch/.torchinductor-cache/wp/cwp5cltwapieafsnrdn733buzqnox75sztdvlrjzhptms6roxcq7.py":128:20)
#loc176 = loc("/mnt/weka/home/junlin.chen/workspace/autoresearch/autoresearch/.torchinductor-cache/wp/cwp5cltwapieafsnrdn733buzqnox75sztdvlrjzhptms6roxcq7.py":129:20)
#loc177 = loc("/mnt/weka/home/junlin.chen/workspace/autoresearch/autoresearch/.torchinductor-cache/wp/cwp5cltwapieafsnrdn733buzqnox75sztdvlrjzhptms6roxcq7.py":131:20)
#loc178 = loc("/mnt/weka/home/junlin.chen/workspace/autoresearch/autoresearch/.torchinductor-cache/wp/cwp5cltwapieafsnrdn733buzqnox75sztdvlrjzhptms6roxcq7.py":132:39)
#loc179 = loc("/mnt/weka/home/junlin.chen/workspace/autoresearch/autoresearch/.torchinductor-cache/wp/cwp5cltwapieafsnrdn733buzqnox75sztdvlrjzhptms6roxcq7.py":132:50)
#loc180 = loc("/mnt/weka/home/junlin.chen/workspace/autoresearch/autoresearch/.torchinductor-cache/wp/cwp5cltwapieafsnrdn733buzqnox75sztdvlrjzhptms6roxcq7.py":132:46)
#loc181 = loc("/mnt/weka/home/junlin.chen/workspace/autoresearch/autoresearch/.torchinductor-cache/wp/cwp5cltwapieafsnrdn733buzqnox75sztdvlrjzhptms6roxcq7.py":132:31)
#loc182 = loc("/mnt/weka/home/junlin.chen/workspace/autoresearch/autoresearch/.torchinductor-cache/wp/cwp5cltwapieafsnrdn733buzqnox75sztdvlrjzhptms6roxcq7.py":132:55)
#loc183 = loc("/mnt/weka/home/junlin.chen/workspace/autoresearch/autoresearch/.torchinductor-cache/wp/cwp5cltwapieafsnrdn733buzqnox75sztdvlrjzhptms6roxcq7.py":132:76)
#loc184 = loc("/mnt/weka/home/junlin.chen/workspace/autoresearch/autoresearch/.torchinductor-cache/wp/cwp5cltwapieafsnrdn733buzqnox75sztdvlrjzhptms6roxcq7.py":134:40)
#loc185 = loc("/mnt/weka/home/junlin.chen/workspace/autoresearch/autoresearch/.torchinductor-cache/wp/cwp5cltwapieafsnrdn733buzqnox75sztdvlrjzhptms6roxcq7.py":134:51)
#loc186 = loc("/mnt/weka/home/junlin.chen/workspace/autoresearch/autoresearch/.torchinductor-cache/wp/cwp5cltwapieafsnrdn733buzqnox75sztdvlrjzhptms6roxcq7.py":134:47)
#loc187 = loc("/mnt/weka/home/junlin.chen/workspace/autoresearch/autoresearch/.torchinductor-cache/wp/cwp5cltwapieafsnrdn733buzqnox75sztdvlrjzhptms6roxcq7.py":134:32)
#loc188 = loc("/mnt/weka/home/junlin.chen/workspace/autoresearch/autoresearch/.torchinductor-cache/wp/cwp5cltwapieafsnrdn733buzqnox75sztdvlrjzhptms6roxcq7.py":134:56)
#loc189 = loc("/mnt/weka/home/junlin.chen/workspace/autoresearch/autoresearch/.torchinductor-cache/wp/cwp5cltwapieafsnrdn733buzqnox75sztdvlrjzhptms6roxcq7.py":134:77)
#loc190 = loc("/mnt/weka/home/junlin.chen/workspace/autoresearch/autoresearch/.torchinductor-cache/wp/cwp5cltwapieafsnrdn733buzqnox75sztdvlrjzhptms6roxcq7.py":136:22)
#loc191 = loc("/mnt/weka/home/junlin.chen/workspace/autoresearch/autoresearch/.torchinductor-cache/wp/cwp5cltwapieafsnrdn733buzqnox75sztdvlrjzhptms6roxcq7.py":137:22)
#loc192 = loc("/mnt/weka/home/junlin.chen/workspace/autoresearch/autoresearch/.torchinductor-cache/wp/cwp5cltwapieafsnrdn733buzqnox75sztdvlrjzhptms6roxcq7.py":138:22)
#loc193 = loc("/mnt/weka/home/junlin.chen/workspace/autoresearch/autoresearch/.torchinductor-cache/wp/cwp5cltwapieafsnrdn733buzqnox75sztdvlrjzhptms6roxcq7.py":139:22)
#loc194 = loc("/mnt/weka/home/junlin.chen/workspace/autoresearch/autoresearch/.torchinductor-cache/wp/cwp5cltwapieafsnrdn733buzqnox75sztdvlrjzhptms6roxcq7.py":140:22)
#loc195 = loc("/mnt/weka/home/junlin.chen/workspace/autoresearch/autoresearch/.torchinductor-cache/wp/cwp5cltwapieafsnrdn733buzqnox75sztdvlrjzhptms6roxcq7.py":142:22)
#loc196 = loc("/mnt/weka/home/junlin.chen/workspace/autoresearch/autoresearch/.torchinductor-cache/wp/cwp5cltwapieafsnrdn733buzqnox75sztdvlrjzhptms6roxcq7.py":143:21)
#loc197 = loc("/mnt/weka/home/junlin.chen/workspace/autoresearch/autoresearch/.torchinductor-cache/wp/cwp5cltwapieafsnrdn733buzqnox75sztdvlrjzhptms6roxcq7.py":144:40)
#loc198 = loc("/mnt/weka/home/junlin.chen/workspace/autoresearch/autoresearch/.torchinductor-cache/wp/cwp5cltwapieafsnrdn733buzqnox75sztdvlrjzhptms6roxcq7.py":145:37)
#loc199 = loc("/mnt/weka/home/junlin.chen/workspace/autoresearch/autoresearch/.torchinductor-cache/wp/cwp5cltwapieafsnrdn733buzqnox75sztdvlrjzhptms6roxcq7.py":146:37)
#loc200 = loc("/mnt/weka/home/junlin.chen/workspace/autoresearch/autoresearch/.torchinductor-cache/wp/cwp5cltwapieafsnrdn733buzqnox75sztdvlrjzhptms6roxcq7.py":147:37)
#loc201 = loc("/mnt/weka/home/junlin.chen/workspace/autoresearch/autoresearch/.torchinductor-cache/wp/cwp5cltwapieafsnrdn733buzqnox75sztdvlrjzhptms6roxcq7.py":147:48)
#loc202 = loc("/mnt/weka/home/junlin.chen/workspace/autoresearch/autoresearch/.torchinductor-cache/wp/cwp5cltwapieafsnrdn733buzqnox75sztdvlrjzhptms6roxcq7.py":147:44)
#loc203 = loc("/mnt/weka/home/junlin.chen/workspace/autoresearch/autoresearch/.torchinductor-cache/wp/cwp5cltwapieafsnrdn733buzqnox75sztdvlrjzhptms6roxcq7.py":147:32)
#loc204 = loc("/mnt/weka/home/junlin.chen/workspace/autoresearch/autoresearch/.torchinductor-cache/wp/cwp5cltwapieafsnrdn733buzqnox75sztdvlrjzhptms6roxcq7.py":147:53)
#loc205 = loc("/mnt/weka/home/junlin.chen/workspace/autoresearch/autoresearch/.torchinductor-cache/wp/cwp5cltwapieafsnrdn733buzqnox75sztdvlrjzhptms6roxcq7.py":147:74)
#loc206 = loc("/mnt/weka/home/junlin.chen/workspace/autoresearch/autoresearch/.torchinductor-cache/wp/cwp5cltwapieafsnrdn733buzqnox75sztdvlrjzhptms6roxcq7.py":149:37)
#loc207 = loc("/mnt/weka/home/junlin.chen/workspace/autoresearch/autoresearch/.torchinductor-cache/wp/cwp5cltwapieafsnrdn733buzqnox75sztdvlrjzhptms6roxcq7.py":149:48)
#loc208 = loc("/mnt/weka/home/junlin.chen/workspace/autoresearch/autoresearch/.torchinductor-cache/wp/cwp5cltwapieafsnrdn733buzqnox75sztdvlrjzhptms6roxcq7.py":149:44)
#loc209 = loc("/mnt/weka/home/junlin.chen/workspace/autoresearch/autoresearch/.torchinductor-cache/wp/cwp5cltwapieafsnrdn733buzqnox75sztdvlrjzhptms6roxcq7.py":149:32)
#loc210 = loc("/mnt/weka/home/junlin.chen/workspace/autoresearch/autoresearch/.torchinductor-cache/wp/cwp5cltwapieafsnrdn733buzqnox75sztdvlrjzhptms6roxcq7.py":149:53)
#loc211 = loc("/mnt/weka/home/junlin.chen/workspace/autoresearch/autoresearch/.torchinductor-cache/wp/cwp5cltwapieafsnrdn733buzqnox75sztdvlrjzhptms6roxcq7.py":149:74)
#loc212 = loc("/mnt/weka/home/junlin.chen/workspace/autoresearch/autoresearch/.torchinductor-cache/wp/cwp5cltwapieafsnrdn733buzqnox75sztdvlrjzhptms6roxcq7.py":151:52)
#loc213 = loc("/mnt/weka/home/junlin.chen/workspace/autoresearch/autoresearch/.torchinductor-cache/wp/cwp5cltwapieafsnrdn733buzqnox75sztdvlrjzhptms6roxcq7.py":151:32)
#loc214 = loc("/mnt/weka/home/junlin.chen/workspace/autoresearch/autoresearch/.torchinductor-cache/wp/cwp5cltwapieafsnrdn733buzqnox75sztdvlrjzhptms6roxcq7.py":151:74)
#loc215 = loc("/mnt/weka/home/junlin.chen/workspace/autoresearch/autoresearch/.torchinductor-cache/wp/cwp5cltwapieafsnrdn733buzqnox75sztdvlrjzhptms6roxcq7.py":152:22)
#loc216 = loc("/mnt/weka/home/junlin.chen/workspace/autoresearch/autoresearch/.torchinductor-cache/wp/cwp5cltwapieafsnrdn733buzqnox75sztdvlrjzhptms6roxcq7.py":153:22)
#loc217 = loc("/mnt/weka/home/junlin.chen/workspace/autoresearch/autoresearch/.torchinductor-cache/wp/cwp5cltwapieafsnrdn733buzqnox75sztdvlrjzhptms6roxcq7.py":154:22)
#loc218 = loc("/mnt/weka/home/junlin.chen/workspace/autoresearch/autoresearch/.torchinductor-cache/wp/cwp5cltwapieafsnrdn733buzqnox75sztdvlrjzhptms6roxcq7.py":155:22)
#loc219 = loc("/mnt/weka/home/junlin.chen/workspace/autoresearch/autoresearch/.torchinductor-cache/wp/cwp5cltwapieafsnrdn733buzqnox75sztdvlrjzhptms6roxcq7.py":156:22)
#loc220 = loc("/mnt/weka/home/junlin.chen/workspace/autoresearch/autoresearch/.torchinductor-cache/wp/cwp5cltwapieafsnrdn733buzqnox75sztdvlrjzhptms6roxcq7.py":158:22)
#loc221 = loc("/mnt/weka/home/junlin.chen/workspace/autoresearch/autoresearch/.torchinductor-cache/wp/cwp5cltwapieafsnrdn733buzqnox75sztdvlrjzhptms6roxcq7.py":159:43)
#loc222 = loc("/mnt/weka/home/junlin.chen/workspace/autoresearch/autoresearch/.torchinductor-cache/wp/cwp5cltwapieafsnrdn733buzqnox75sztdvlrjzhptms6roxcq7.py":159:39)
#loc223 = loc("/mnt/weka/home/junlin.chen/workspace/autoresearch/autoresearch/.torchinductor-cache/wp/cwp5cltwapieafsnrdn733buzqnox75sztdvlrjzhptms6roxcq7.py":159:32)
#loc224 = loc("/mnt/weka/home/junlin.chen/workspace/autoresearch/autoresearch/.torchinductor-cache/wp/cwp5cltwapieafsnrdn733buzqnox75sztdvlrjzhptms6roxcq7.py":159:48)
#loc225 = loc("/mnt/weka/home/junlin.chen/workspace/autoresearch/autoresearch/.torchinductor-cache/wp/cwp5cltwapieafsnrdn733buzqnox75sztdvlrjzhptms6roxcq7.py":159:69)
#loc226 = loc("/mnt/weka/home/junlin.chen/workspace/autoresearch/autoresearch/.torchinductor-cache/wp/cwp5cltwapieafsnrdn733buzqnox75sztdvlrjzhptms6roxcq7.py":161:43)
#loc227 = loc("/mnt/weka/home/junlin.chen/workspace/autoresearch/autoresearch/.torchinductor-cache/wp/cwp5cltwapieafsnrdn733buzqnox75sztdvlrjzhptms6roxcq7.py":161:39)
#loc228 = loc("/mnt/weka/home/junlin.chen/workspace/autoresearch/autoresearch/.torchinductor-cache/wp/cwp5cltwapieafsnrdn733buzqnox75sztdvlrjzhptms6roxcq7.py":161:32)
#loc229 = loc("/mnt/weka/home/junlin.chen/workspace/autoresearch/autoresearch/.torchinductor-cache/wp/cwp5cltwapieafsnrdn733buzqnox75sztdvlrjzhptms6roxcq7.py":161:48)
#loc230 = loc("/mnt/weka/home/junlin.chen/workspace/autoresearch/autoresearch/.torchinductor-cache/wp/cwp5cltwapieafsnrdn733buzqnox75sztdvlrjzhptms6roxcq7.py":161:69)
#loc231 = loc("/mnt/weka/home/junlin.chen/workspace/autoresearch/autoresearch/.torchinductor-cache/wp/cwp5cltwapieafsnrdn733buzqnox75sztdvlrjzhptms6roxcq7.py":163:22)
#loc232 = loc("/mnt/weka/home/junlin.chen/workspace/autoresearch/autoresearch/.torchinductor-cache/wp/cwp5cltwapieafsnrdn733buzqnox75sztdvlrjzhptms6roxcq7.py":164:22)
#loc233 = loc("/mnt/weka/home/junlin.chen/workspace/autoresearch/autoresearch/.torchinductor-cache/wp/cwp5cltwapieafsnrdn733buzqnox75sztdvlrjzhptms6roxcq7.py":165:22)
#loc234 = loc("/mnt/weka/home/junlin.chen/workspace/autoresearch/autoresearch/.torchinductor-cache/wp/cwp5cltwapieafsnrdn733buzqnox75sztdvlrjzhptms6roxcq7.py":166:22)
#loc235 = loc("/mnt/weka/home/junlin.chen/workspace/autoresearch/autoresearch/.torchinductor-cache/wp/cwp5cltwapieafsnrdn733buzqnox75sztdvlrjzhptms6roxcq7.py":167:22)
#loc236 = loc("/mnt/weka/home/junlin.chen/workspace/autoresearch/autoresearch/.torchinductor-cache/wp/cwp5cltwapieafsnrdn733buzqnox75sztdvlrjzhptms6roxcq7.py":169:22)
#loc237 = loc("/mnt/weka/home/junlin.chen/workspace/autoresearch/autoresearch/.torchinductor-cache/wp/cwp5cltwapieafsnrdn733buzqnox75sztdvlrjzhptms6roxcq7.py":170:22)
#loc238 = loc("/mnt/weka/home/junlin.chen/workspace/autoresearch/autoresearch/.torchinductor-cache/wp/cwp5cltwapieafsnrdn733buzqnox75sztdvlrjzhptms6roxcq7.py":171:40)
#loc239 = loc("/mnt/weka/home/junlin.chen/workspace/autoresearch/autoresearch/.torchinductor-cache/wp/cwp5cltwapieafsnrdn733buzqnox75sztdvlrjzhptms6roxcq7.py":172:37)
#loc240 = loc("/mnt/weka/home/junlin.chen/workspace/autoresearch/autoresearch/.torchinductor-cache/wp/cwp5cltwapieafsnrdn733buzqnox75sztdvlrjzhptms6roxcq7.py":173:37)
#loc241 = loc("/mnt/weka/home/junlin.chen/workspace/autoresearch/autoresearch/.torchinductor-cache/wp/cwp5cltwapieafsnrdn733buzqnox75sztdvlrjzhptms6roxcq7.py":174:22)
#loc242 = loc("/mnt/weka/home/junlin.chen/workspace/autoresearch/autoresearch/.torchinductor-cache/wp/cwp5cltwapieafsnrdn733buzqnox75sztdvlrjzhptms6roxcq7.py":175:39)
#loc243 = loc("/mnt/weka/home/junlin.chen/workspace/autoresearch/autoresearch/.torchinductor-cache/wp/cwp5cltwapieafsnrdn733buzqnox75sztdvlrjzhptms6roxcq7.py":175:35)
#loc244 = loc("/mnt/weka/home/junlin.chen/workspace/autoresearch/autoresearch/.torchinductor-cache/wp/cwp5cltwapieafsnrdn733buzqnox75sztdvlrjzhptms6roxcq7.py":175:28)
#loc245 = loc("/mnt/weka/home/junlin.chen/workspace/autoresearch/autoresearch/.torchinductor-cache/wp/cwp5cltwapieafsnrdn733buzqnox75sztdvlrjzhptms6roxcq7.py":175:51)
#loc246 = loc("/mnt/weka/home/junlin.chen/workspace/autoresearch/autoresearch/.torchinductor-cache/wp/cwp5cltwapieafsnrdn733buzqnox75sztdvlrjzhptms6roxcq7.py":176:39)
#loc247 = loc("/mnt/weka/home/junlin.chen/workspace/autoresearch/autoresearch/.torchinductor-cache/wp/cwp5cltwapieafsnrdn733buzqnox75sztdvlrjzhptms6roxcq7.py":176:35)
#loc248 = loc("/mnt/weka/home/junlin.chen/workspace/autoresearch/autoresearch/.torchinductor-cache/wp/cwp5cltwapieafsnrdn733buzqnox75sztdvlrjzhptms6roxcq7.py":176:28)
#loc249 = loc("/mnt/weka/home/junlin.chen/workspace/autoresearch/autoresearch/.torchinductor-cache/wp/cwp5cltwapieafsnrdn733buzqnox75sztdvlrjzhptms6roxcq7.py":176:52)
#loc250 = loc("/mnt/weka/home/junlin.chen/workspace/autoresearch/autoresearch/.torchinductor-cache/wp/cwp5cltwapieafsnrdn733buzqnox75sztdvlrjzhptms6roxcq7.py":176:4)
#loc252 = loc("/mnt/weka/home/junlin.chen/workspace/autoresearch/autoresearch/.venv/lib/python3.13/site-packages/triton/language/standard.py":291:36)
#loc254 = loc("/mnt/weka/home/junlin.chen/workspace/autoresearch/autoresearch/.venv/lib/python3.13/site-packages/triton/language/standard.py":291:11)
#loc255 = loc("/mnt/weka/home/junlin.chen/workspace/autoresearch/autoresearch/.venv/lib/python3.13/site-packages/triton/language/standard.py":291:4)
#loc257 = loc("/mnt/weka/home/junlin.chen/workspace/autoresearch/autoresearch/.venv/lib/python3.13/site-packages/triton/language/standard.py":261:15)
#loc258 = loc("/mnt/weka/home/junlin.chen/workspace/autoresearch/autoresearch/.venv/lib/python3.13/site-packages/triton/language/standard.py":261:11)
#loc259 = loc("/mnt/weka/home/junlin.chen/workspace/autoresearch/autoresearch/.venv/lib/python3.13/site-packages/triton/language/standard.py":261:4)
#loc272 = loc("xnumel"(#loc1))
#loc273 = loc("r0_numel"(#loc2))
#loc274 = loc("xoffset"(#loc3))
#loc275 = loc("xoffset"(#loc4))
#loc276 = loc("xindex"(#loc5))
#loc277 = loc("xindex"(#loc6))
#loc278 = loc("xindex"(#loc7))
#loc279 = loc("xmask"(#loc8))
#loc280 = loc("r0_index"(#loc9))
#loc281 = loc("r0_index"(#loc10))
#loc282 = loc("r0_offset"(#loc11))
#loc283 = loc("r0_mask"(#loc12))
#loc284 = loc("x3"(#loc13))
#loc285 = loc("x3"(#loc14))
#loc286 = loc("tmp0"(#loc15))
#loc287 = loc("tmp0"(#loc16))
#loc288 = loc("tmp0"(#loc17))
#loc289 = loc("tmp0"(#loc18))
#loc290 = loc("tmp0"(#loc19))
#loc291 = loc("tmp2"(#loc20))
#loc292 = loc("tmp2"(#loc21))
#loc293 = loc("tmp4"(#loc22))
#loc294 = loc("tmp4"(#loc23))
#loc295 = loc("tmp4"(#loc24))
#loc296 = loc("tmp4"(#loc25))
#loc297 = loc("tmp4"(#loc26))
#loc298 = loc("tmp10"(#loc27))
#loc299 = loc("tmp10"(#loc28))
#loc300 = loc("tmp10"(#loc29))
#loc301 = loc("tmp10"(#loc30))
#loc302 = loc("tmp10"(#loc31))
#loc303 = loc("tmp12"(#loc32))
#loc304 = loc("tmp12"(#loc33))
#loc305 = loc("tmp14"(#loc34))
#loc306 = loc("tmp14"(#loc35))
#loc307 = loc("tmp14"(#loc36))
#loc308 = loc("tmp14"(#loc37))
#loc309 = loc("tmp14"(#loc38))
#loc310 = loc("tmp3"(#loc39))
#loc311 = loc("tmp6"(#loc40))
#loc312 = loc("tmp9"(#loc41))
#loc313 = loc("tmp9"(#loc42))
#loc314 = loc("tmp13"(#loc43))
#loc315 = loc("tmp16"(#loc44))
#loc316 = loc("tmp19"(#loc45))
#loc317 = loc("tmp19"(#loc46))
#loc318 = loc("tmp21"(#loc47))
#loc319 = loc("tmp22"(#loc48))
#loc320 = loc("tmp23"(#loc49))
#loc321 = loc("tmp23"(#loc50))
#loc322 = loc("tmp23"(#loc51))
#loc323 = loc("tmp23"(#loc52))
#loc324 = loc("tmp23"(#loc53))
#loc325 = loc("tmp25"(#loc54))
#loc326 = loc("tmp25"(#loc55))
#loc327 = loc("tmp25"(#loc56))
#loc328 = loc("tmp25"(#loc57))
#loc329 = loc("tmp25"(#loc58))
#loc330 = loc("tmp27"(#loc59))
#loc331 = loc("tmp27"(#loc60))
#loc332 = loc("tmp27"(#loc61))
#loc333 = loc("tmp28"(#loc62))
#loc334 = loc("tmp29"(#loc63))
#loc335 = loc("tmp30"(#loc64))
#loc336 = loc("tmp31"(#loc65))
#loc337 = loc("tmp32"(#loc66))
#loc338 = loc("tmp33"(#loc67))
#loc339 = loc("tmp35"(#loc68))
#loc340 = loc("tmp35"(#loc69))
#loc341 = loc("tmp35"(#loc70))
#loc342 = loc("tmp35"(#loc71))
#loc343 = loc("tmp35"(#loc72))
#loc344 = loc("tmp35"(#loc73))
#loc345 = loc("tmp36"(#loc74))
#loc346 = loc("tmp37"(#loc75))
#loc347 = loc("tmp37"(#loc76))
#loc348 = loc("tmp37"(#loc77))
#loc349 = loc("tmp37"(#loc78))
#loc350 = loc("tmp37"(#loc79))
#loc351 = loc("tmp37"(#loc80))
#loc352 = loc("tmp39"(#loc81))
#loc353 = loc("tmp39"(#loc82))
#loc354 = loc("tmp39"(#loc83))
#loc355 = loc("tmp39"(#loc84))
#loc356 = loc("tmp39"(#loc85))
#loc357 = loc("tmp39"(#loc86))
#loc358 = loc("tmp41"(#loc87))
#loc359 = loc("tmp42"(#loc88))
#loc360 = loc("tmp43"(#loc89))
#loc361 = loc("tmp44"(#loc90))
#loc362 = loc("tmp45"(#loc91))
#loc363 = loc("tmp47"(#loc92))
#loc364 = loc("tmp47"(#loc93))
#loc365 = loc("tmp47"(#loc94))
#loc366 = loc("tmp47"(#loc95))
#loc367 = loc("tmp47"(#loc96))
#loc368 = loc("tmp47"(#loc97))
#loc369 = loc("tmp48"(#loc98))
#loc370 = loc("tmp49"(#loc99))
#loc371 = loc("tmp50"(#loc100))
#loc372 = loc("tmp51"(#loc101))
#loc373 = loc("tmp52"(#loc102))
#loc374 = loc("tmp53"(#loc103))
#loc375 = loc("tmp54"(#loc104))
#loc376 = loc("tmp55"(#loc105))
#loc377 = loc("tmp55"(#loc106))
#loc378 = loc("tmp55"(#loc107))
#loc379 = loc("tmp55"(#loc108))
#loc380 = loc("tmp55"(#loc109))
#loc381 = loc("tmp55"(#loc110))
#loc382 = loc("tmp57"(#loc111))
#loc383 = loc("tmp57"(#loc112))
#loc384 = loc("tmp57"(#loc113))
#loc385 = loc("tmp57"(#loc114))
#loc386 = loc("tmp57"(#loc115))
#loc387 = loc("tmp57"(#loc116))
#loc388 = loc("tmp59"(#loc117))
#loc389 = loc("tmp59"(#loc118))
#loc390 = loc("tmp59"(#loc119))
#loc391 = loc("tmp60"(#loc120))
#loc392 = loc("tmp61"(#loc121))
#loc393 = loc("tmp62"(#loc122))
#loc394 = loc("tmp63"(#loc123))
#loc395 = loc("tmp64"(#loc124))
#loc396 = loc("tmp65"(#loc125))
#loc397 = loc("tmp67"(#loc126))
#loc398 = loc("tmp67"(#loc127))
#loc399 = loc("tmp67"(#loc128))
#loc400 = loc("tmp67"(#loc129))
#loc401 = loc("tmp67"(#loc130))
#loc402 = loc("tmp68"(#loc131))
#loc403 = loc("tmp69"(#loc132))
#loc404 = loc("tmp70"(#loc133))
#loc405 = loc("tmp70"(#loc134))
#loc406 = loc("tmp70"(#loc135))
#loc407 = loc("tmp70"(#loc136))
#loc408 = loc("tmp70"(#loc137))
#loc409 = loc("tmp72"(#loc138))
#loc410 = loc("tmp72"(#loc139))
#loc411 = loc("tmp72"(#loc140))
#loc412 = loc("tmp72"(#loc141))
#loc413 = loc("tmp72"(#loc142))
#loc414 = loc("tmp74"(#loc143))
#loc415 = loc("tmp75"(#loc144))
#loc416 = loc("tmp76"(#loc145))
#loc417 = loc("tmp77"(#loc146))
#loc418 = loc("tmp78"(#loc147))
#loc419 = loc("tmp80"(#loc148))
#loc420 = loc("tmp80"(#loc149))
#loc421 = loc("tmp80"(#loc150))
#loc422 = loc("tmp80"(#loc151))
#loc423 = loc("tmp80"(#loc152))
#loc424 = loc("tmp81"(#loc153))
#loc425 = loc("tmp82"(#loc154))
#loc426 = loc("tmp83"(#loc155))
#loc427 = loc("tmp84"(#loc156))
#loc428 = loc("tmp85"(#loc157))
#loc429 = loc("tmp86"(#loc158))
#loc430 = loc("tmp87"(#loc159))
#loc431 = loc("tmp87"(#loc160))
#loc432 = loc("tmp87"(#loc161))
#loc433 = loc("tmp87"(#loc162))
#loc434 = loc("tmp87"(#loc163))
#loc435 = loc("tmp89"(#loc164))
#loc436 = loc("tmp89"(#loc165))
#loc437 = loc("tmp89"(#loc166))
#loc438 = loc("tmp89"(#loc167))
#loc439 = loc("tmp89"(#loc168))
#loc440 = loc("tmp91"(#loc169))
#loc441 = loc("tmp91"(#loc170))
#loc442 = loc("tmp91"(#loc171))
#loc443 = loc("tmp92"(#loc172))
#loc444 = loc("tmp93"(#loc173))
#loc445 = loc("tmp94"(#loc174))
#loc446 = loc("tmp95"(#loc175))
#loc447 = loc("tmp96"(#loc176))
#loc448 = loc("tmp98"(#loc177))
#loc449 = loc("tmp99"(#loc178))
#loc450 = loc("tmp99"(#loc179))
#loc451 = loc("tmp99"(#loc180))
#loc452 = loc("tmp99"(#loc181))
#loc453 = loc("tmp99"(#loc182))
#loc454 = loc("tmp99"(#loc183))
#loc455 = loc("tmp101"(#loc184))
#loc456 = loc("tmp101"(#loc185))
#loc457 = loc("tmp101"(#loc186))
#loc458 = loc("tmp101"(#loc187))
#loc459 = loc("tmp101"(#loc188))
#loc460 = loc("tmp101"(#loc189))
#loc461 = loc("tmp103"(#loc190))
#loc462 = loc("tmp104"(#loc191))
#loc463 = loc("tmp105"(#loc192))
#loc464 = loc("tmp106"(#loc193))
#loc465 = loc("tmp107"(#loc194))
#loc466 = loc("tmp109"(#loc195))
#loc467 = loc("tmp110"(#loc196))
#loc468 = loc("tmp111"(#loc197))
#loc469 = loc("tmp112"(#loc198))
#loc470 = loc("tmp113"(#loc199))
#loc471 = loc("tmp114"(#loc200))
#loc472 = loc("tmp114"(#loc201))
#loc473 = loc("tmp114"(#loc202))
#loc474 = loc("tmp114"(#loc203))
#loc475 = loc("tmp114"(#loc204))
#loc476 = loc("tmp114"(#loc205))
#loc477 = loc("tmp116"(#loc206))
#loc478 = loc("tmp116"(#loc207))
#loc479 = loc("tmp116"(#loc208))
#loc480 = loc("tmp116"(#loc209))
#loc481 = loc("tmp116"(#loc210))
#loc482 = loc("tmp116"(#loc211))
#loc483 = loc("tmp118"(#loc212))
#loc484 = loc("tmp118"(#loc213))
#loc485 = loc("tmp118"(#loc214))
#loc486 = loc("tmp119"(#loc215))
#loc487 = loc("tmp120"(#loc216))
#loc488 = loc("tmp121"(#loc217))
#loc489 = loc("tmp122"(#loc218))
#loc490 = loc("tmp123"(#loc219))
#loc491 = loc("tmp125"(#loc220))
#loc492 = loc("tmp126"(#loc221))
#loc493 = loc("tmp126"(#loc222))
#loc494 = loc("tmp126"(#loc223))
#loc495 = loc("tmp126"(#loc224))
#loc496 = loc("tmp126"(#loc225))
#loc497 = loc("tmp128"(#loc226))
#loc498 = loc("tmp128"(#loc227))
#loc499 = loc("tmp128"(#loc228))
#loc500 = loc("tmp128"(#loc229))
#loc501 = loc("tmp128"(#loc230))
#loc502 = loc("tmp130"(#loc231))
#loc503 = loc("tmp131"(#loc232))
#loc504 = loc("tmp132"(#loc233))
#loc505 = loc("tmp133"(#loc234))
#loc506 = loc("tmp134"(#loc235))
#loc507 = loc("tmp136"(#loc236))
#loc508 = loc("tmp137"(#loc237))
#loc509 = loc("tmp138"(#loc238))
#loc510 = loc("tmp139"(#loc239))
#loc511 = loc("tmp140"(#loc240))
#loc512 = loc("tmp141"(#loc241))
