#loc = loc("/mnt/weka/home/junlin.chen/workspace/autoresearch/autoresearch/.torchinductor-cache/pr/cprsukkjzz6pneu7zzx5nwfjv37lmssjmq3gpxapcjjjgvm6dz3y.py":18:0)
#loc17 = loc("in_ptr0"(#loc))
#loc18 = loc("out_ptr0"(#loc))
#loc19 = loc("xnumel"(#loc))
module {
  tt.func public @triton_poi_fused_mm_11(%in_ptr0: !tt.ptr<bf16> {tt.divisibility = 16 : i32} loc("in_ptr0"(#loc)), %out_ptr0: !tt.ptr<bf16> {tt.divisibility = 16 : i32} loc("out_ptr0"(#loc)), %xnumel: i32 {tt.divisibility = 16 : i32} loc("xnumel"(#loc))) attributes {noinline = false} {
    %xnumel_0 = arith.constant 256 : i32 loc(#loc20)
    %xoffset = tt.get_program_id x : i32 loc(#loc21)
    %xoffset_1 = arith.constant 256 : i32 loc(#loc22)
    %xoffset_2 = arith.constant 256 : i32 loc(#loc22)
    %xoffset_3 = arith.muli %xoffset, %xoffset_2 : i32 loc(#loc22)
    %xindex = tt.make_range {end = 256 : i32, start = 0 : i32} : tensor<256xi32> loc(#loc23)
    %xindex_4 = tt.splat %xoffset_3 : i32 -> tensor<256xi32> loc(#loc24)
    %xindex_5 = arith.addi %xindex_4, %xindex : tensor<256xi32> loc(#loc24)
    %xmask = arith.constant dense<256> : tensor<256xi32> loc(#loc25)
    %xmask_6 = arith.cmpi slt, %xindex_5, %xmask : tensor<256xi32> loc(#loc25)
    %x1 = arith.constant 32 : i32 loc(#loc26)
    %x1_7 = arith.constant 32 : i32 loc(#loc26)
    %x1_8 = arith.constant dense<32> : tensor<256xi32> loc(#loc26)
    %x1_9 = arith.divsi %xindex_5, %x1_8 : tensor<256xi32> loc(#loc26)
    %tmp1 = arith.constant 4 : i64 loc(#loc27)
    %tmp1_10 = arith.constant dense<4> : tensor<1xi64> loc(#loc27)
    %tmp2 = arith.extsi %x1_9 : tensor<256xi32> to tensor<256xi64> loc(#loc28)
    %tmp2_11 = arith.constant dense<4> : tensor<256xi64> loc(#loc28)
    %tmp2_12 = arith.cmpi slt, %tmp2, %tmp2_11 : tensor<256xi64> loc(#loc28)
    %tmp3 = tt.splat %in_ptr0 : !tt.ptr<bf16> -> tensor<256x!tt.ptr<bf16>> loc(#loc29)
    %tmp3_13 = tt.addptr %tmp3, %xindex_5 : tensor<256x!tt.ptr<bf16>>, tensor<256xi32> loc(#loc29)
    %tmp3_14 = arith.andi %tmp2_12, %xmask_6 : tensor<256xi1> loc(#loc30)
    %tmp3_15 = arith.constant 0.000000e+00 : f32 loc(#loc31)
    %tmp3_16 = arith.constant dense<0.000000e+00> : tensor<256xf32> loc(#loc31)
    %tmp3_17 = arith.truncf %tmp3_16 : tensor<256xf32> to tensor<256xbf16> loc(#loc31)
    %tmp3_18 = tt.load %tmp3_13, %tmp3_14, %tmp3_17 : tensor<256x!tt.ptr<bf16>> loc(#loc31)
    %tmp3_19 = arith.extf %tmp3_18 : tensor<256xbf16> to tensor<256xf32> loc(#loc32)
    %0 = tt.splat %out_ptr0 : !tt.ptr<bf16> -> tensor<256x!tt.ptr<bf16>> loc(#loc14)
    %1 = tt.addptr %0, %xindex_5 : tensor<256x!tt.ptr<bf16>>, tensor<256xi32> loc(#loc14)
    %2 = arith.truncf %tmp3_19 : tensor<256xf32> to tensor<256xbf16> loc(#loc15)
    tt.store %1, %2, %xmask_6 : tensor<256x!tt.ptr<bf16>> loc(#loc15)
    tt.return loc(#loc16)
  } loc(#loc)
} loc(#loc)
#loc1 = loc("/mnt/weka/home/junlin.chen/workspace/autoresearch/autoresearch/.torchinductor-cache/pr/cprsukkjzz6pneu7zzx5nwfjv37lmssjmq3gpxapcjjjgvm6dz3y.py":19:13)
#loc2 = loc("/mnt/weka/home/junlin.chen/workspace/autoresearch/autoresearch/.torchinductor-cache/pr/cprsukkjzz6pneu7zzx5nwfjv37lmssjmq3gpxapcjjjgvm6dz3y.py":20:28)
#loc3 = loc("/mnt/weka/home/junlin.chen/workspace/autoresearch/autoresearch/.torchinductor-cache/pr/cprsukkjzz6pneu7zzx5nwfjv37lmssjmq3gpxapcjjjgvm6dz3y.py":20:33)
#loc4 = loc("/mnt/weka/home/junlin.chen/workspace/autoresearch/autoresearch/.torchinductor-cache/pr/cprsukkjzz6pneu7zzx5nwfjv37lmssjmq3gpxapcjjjgvm6dz3y.py":21:36)
#loc5 = loc("/mnt/weka/home/junlin.chen/workspace/autoresearch/autoresearch/.torchinductor-cache/pr/cprsukkjzz6pneu7zzx5nwfjv37lmssjmq3gpxapcjjjgvm6dz3y.py":21:23)
#loc6 = loc("/mnt/weka/home/junlin.chen/workspace/autoresearch/autoresearch/.torchinductor-cache/pr/cprsukkjzz6pneu7zzx5nwfjv37lmssjmq3gpxapcjjjgvm6dz3y.py":22:21)
#loc7 = loc("/mnt/weka/home/junlin.chen/workspace/autoresearch/autoresearch/.torchinductor-cache/pr/cprsukkjzz6pneu7zzx5nwfjv37lmssjmq3gpxapcjjjgvm6dz3y.py":23:19)
#loc8 = loc("/mnt/weka/home/junlin.chen/workspace/autoresearch/autoresearch/.torchinductor-cache/pr/cprsukkjzz6pneu7zzx5nwfjv37lmssjmq3gpxapcjjjgvm6dz3y.py":26:27)
#loc9 = loc("/mnt/weka/home/junlin.chen/workspace/autoresearch/autoresearch/.torchinductor-cache/pr/cprsukkjzz6pneu7zzx5nwfjv37lmssjmq3gpxapcjjjgvm6dz3y.py":27:18)
#loc10 = loc("/mnt/weka/home/junlin.chen/workspace/autoresearch/autoresearch/.torchinductor-cache/pr/cprsukkjzz6pneu7zzx5nwfjv37lmssjmq3gpxapcjjjgvm6dz3y.py":28:30)
#loc11 = loc("/mnt/weka/home/junlin.chen/workspace/autoresearch/autoresearch/.torchinductor-cache/pr/cprsukkjzz6pneu7zzx5nwfjv37lmssjmq3gpxapcjjjgvm6dz3y.py":28:42)
#loc12 = loc("/mnt/weka/home/junlin.chen/workspace/autoresearch/autoresearch/.torchinductor-cache/pr/cprsukkjzz6pneu7zzx5nwfjv37lmssjmq3gpxapcjjjgvm6dz3y.py":28:35)
#loc13 = loc("/mnt/weka/home/junlin.chen/workspace/autoresearch/autoresearch/.torchinductor-cache/pr/cprsukkjzz6pneu7zzx5nwfjv37lmssjmq3gpxapcjjjgvm6dz3y.py":28:63)
#loc14 = loc("/mnt/weka/home/junlin.chen/workspace/autoresearch/autoresearch/.torchinductor-cache/pr/cprsukkjzz6pneu7zzx5nwfjv37lmssjmq3gpxapcjjjgvm6dz3y.py":29:25)
#loc15 = loc("/mnt/weka/home/junlin.chen/workspace/autoresearch/autoresearch/.torchinductor-cache/pr/cprsukkjzz6pneu7zzx5nwfjv37lmssjmq3gpxapcjjjgvm6dz3y.py":29:36)
#loc16 = loc("/mnt/weka/home/junlin.chen/workspace/autoresearch/autoresearch/.torchinductor-cache/pr/cprsukkjzz6pneu7zzx5nwfjv37lmssjmq3gpxapcjjjgvm6dz3y.py":29:4)
#loc20 = loc("xnumel"(#loc1))
#loc21 = loc("xoffset"(#loc2))
#loc22 = loc("xoffset"(#loc3))
#loc23 = loc("xindex"(#loc4))
#loc24 = loc("xindex"(#loc5))
#loc25 = loc("xmask"(#loc6))
#loc26 = loc("x1"(#loc7))
#loc27 = loc("tmp1"(#loc8))
#loc28 = loc("tmp2"(#loc9))
#loc29 = loc("tmp3"(#loc10))
#loc30 = loc("tmp3"(#loc11))
#loc31 = loc("tmp3"(#loc12))
#loc32 = loc("tmp3"(#loc13))
