#loc = loc("/mnt/weka/home/junlin.chen/workspace/autoresearch/autoresearch/.torchinductor-cache/bd/cbd4hqt3hzghjnznw5jtkwuecacnzs6vszb522k47fxz6lbwkuyc.py":18:0)
#loc1 = loc(unknown)
#loc57 = loc("/mnt/weka/home/junlin.chen/workspace/autoresearch/autoresearch/.torchinductor-cache/bd/cbd4hqt3hzghjnznw5jtkwuecacnzs6vszb522k47fxz6lbwkuyc.py":66:26)
#loc70 = loc("in_out_ptr0"(#loc))
#loc71 = loc("in_ptr0"(#loc))
#loc72 = loc("in_ptr1"(#loc))
#loc73 = loc("in_ptr2"(#loc))
#loc74 = loc("out_ptr0"(#loc))
#loc75 = loc("out_ptr1"(#loc))
#loc76 = loc("xnumel"(#loc))
#loc77 = loc("r0_numel"(#loc))
#loc132 = loc("tmp32"(#loc57))
#loc141 = loc(callsite(#loc1 at #loc132))
module {
  tt.func public @triton_per_fused__to_copy__unsafe_view_add_cat_mean_mul_neg_pow_rsqrt_slice_view_2(%in_out_ptr0: !tt.ptr<f32> {tt.divisibility = 16 : i32} loc("in_out_ptr0"(#loc)), %in_ptr0: !tt.ptr<bf16> {tt.divisibility = 16 : i32} loc("in_ptr0"(#loc)), %in_ptr1: !tt.ptr<bf16> {tt.divisibility = 16 : i32} loc("in_ptr1"(#loc)), %in_ptr2: !tt.ptr<bf16> {tt.divisibility = 16 : i32} loc("in_ptr2"(#loc)), %out_ptr0: !tt.ptr<bf16> {tt.divisibility = 16 : i32} loc("out_ptr0"(#loc)), %out_ptr1: !tt.ptr<bf16> {tt.divisibility = 16 : i32} loc("out_ptr1"(#loc)), %xnumel: i32 {tt.divisibility = 16 : i32} loc("xnumel"(#loc)), %r0_numel: i32 {tt.divisibility = 16 : i32} loc("r0_numel"(#loc))) attributes {noinline = false} {
    %c64_i32 = arith.constant 64 : i32 loc(#loc1)
    %c128_i32 = arith.constant 128 : i32 loc(#loc1)
    %x1 = arith.constant 2048 : i32 loc(#loc78)
    %x1_0 = arith.constant 5 : i32 loc(#loc79)
    %cst = arith.constant dense<0.000000e+00> : tensor<1x128xbf16> loc(#loc1)
    %tmp36 = arith.constant dense<1.1920929E-7> : tensor<1x1xf32> loc(#loc80)
    %tmp34 = arith.constant dense<1.280000e+02> : tensor<1x1xf32> loc(#loc81)
    %cst_1 = arith.constant dense<-64> : tensor<1x128xi32> loc(#loc1)
    %cst_2 = arith.constant dense<0.000000e+00> : tensor<1x128xf32> loc(#loc1)
    %cst_3 = arith.constant dense<64> : tensor<1x128xi64> loc(#loc1)
    %xoffset = tt.get_program_id x : i32 loc(#loc82)
    %r0_index = tt.make_range {end = 128 : i32, start = 0 : i32} : tensor<128xi32> loc(#loc83)
    %r0_index_4 = tt.expand_dims %r0_index {axis = 0 : i32} : tensor<128xi32> -> tensor<1x128xi32> loc(#loc84)
    %x1_5 = arith.divsi %xoffset, %x1_0 : i32 loc(#loc79)
    %x1_6 = arith.remsi %x1_5, %x1 : i32 loc(#loc78)
    %tmp4 = arith.extsi %r0_index_4 : tensor<1x128xi32> to tensor<1x128xi64> loc(#loc85)
    %tmp4_7 = arith.cmpi slt, %tmp4, %cst_3 : tensor<1x128xi64> loc(#loc85)
    %tmp5 = arith.muli %xoffset, %c128_i32 : i32 loc(#loc86)
    %tmp5_8 = tt.splat %tmp5 : i32 -> tensor<1x128xi32> loc(#loc136)
    %tmp5_9 = arith.addi %tmp5_8, %r0_index_4 : tensor<1x128xi32> loc(#loc87)
    %tmp5_10 = tt.splat %in_ptr0 : !tt.ptr<bf16> -> tensor<1x128x!tt.ptr<bf16>> loc(#loc88)
    %tmp5_11 = tt.addptr %tmp5_10, %tmp5_9 : tensor<1x128x!tt.ptr<bf16>>, tensor<1x128xi32> loc(#loc88)
    %tmp5_12 = tt.load %tmp5_11, %tmp4_7, %cst evictionPolicy = evict_last : tensor<1x128x!tt.ptr<bf16>> loc(#loc89)
    %tmp5_13 = arith.extf %tmp5_12 : tensor<1x128xbf16> to tensor<1x128xf32> loc(#loc90)
    %tmp6 = arith.muli %x1_6, %c64_i32 : i32 loc(#loc91)
    %tmp6_14 = tt.splat %tmp6 : i32 -> tensor<1x128xi32> loc(#loc137)
    %tmp6_15 = arith.addi %tmp6_14, %r0_index_4 : tensor<1x128xi32> loc(#loc92)
    %tmp6_16 = tt.splat %in_ptr1 : !tt.ptr<bf16> -> tensor<1x128x!tt.ptr<bf16>> loc(#loc93)
    %tmp6_17 = tt.addptr %tmp6_16, %tmp6_15 : tensor<1x128x!tt.ptr<bf16>>, tensor<1x128xi32> loc(#loc93)
    %tmp6_18 = tt.load %tmp6_17, %tmp4_7, %cst evictionPolicy = evict_last : tensor<1x128x!tt.ptr<bf16>> loc(#loc94)
    %tmp6_19 = arith.extf %tmp6_18 : tensor<1x128xbf16> to tensor<1x128xf32> loc(#loc95)
    %tmp7 = arith.mulf %tmp5_13, %tmp6_19 : tensor<1x128xf32> loc(#loc96)
    %tmp8 = arith.addi %tmp5, %c64_i32 : i32 loc(#loc97)
    %tmp8_20 = tt.splat %tmp8 : i32 -> tensor<1x128xi32> loc(#loc138)
    %tmp8_21 = arith.addi %tmp8_20, %r0_index_4 : tensor<1x128xi32> loc(#loc98)
    %tmp8_22 = tt.addptr %tmp5_10, %tmp8_21 : tensor<1x128x!tt.ptr<bf16>>, tensor<1x128xi32> loc(#loc99)
    %tmp8_23 = tt.load %tmp8_22, %tmp4_7, %cst evictionPolicy = evict_last : tensor<1x128x!tt.ptr<bf16>> loc(#loc100)
    %tmp8_24 = arith.extf %tmp8_23 : tensor<1x128xbf16> to tensor<1x128xf32> loc(#loc101)
    %tmp9 = tt.splat %in_ptr2 : !tt.ptr<bf16> -> tensor<1x128x!tt.ptr<bf16>> loc(#loc102)
    %tmp9_25 = tt.addptr %tmp9, %tmp6_15 : tensor<1x128x!tt.ptr<bf16>>, tensor<1x128xi32> loc(#loc102)
    %tmp9_26 = tt.load %tmp9_25, %tmp4_7, %cst evictionPolicy = evict_last : tensor<1x128x!tt.ptr<bf16>> loc(#loc103)
    %tmp9_27 = arith.extf %tmp9_26 : tensor<1x128xbf16> to tensor<1x128xf32> loc(#loc104)
    %tmp10 = arith.mulf %tmp8_24, %tmp9_27 : tensor<1x128xf32> loc(#loc105)
    %tmp11 = arith.addf %tmp7, %tmp10 : tensor<1x128xf32> loc(#loc106)
    %tmp14 = arith.cmpi sge, %tmp4, %cst_3 : tensor<1x128xi64> loc(#loc107)
    %tmp17 = arith.addi %r0_index_4, %cst_1 : tensor<1x128xi32> loc(#loc108)
    %tmp17_28 = arith.addi %tmp5_8, %tmp17 : tensor<1x128xi32> loc(#loc109)
    %tmp17_29 = tt.addptr %tmp5_10, %tmp17_28 : tensor<1x128x!tt.ptr<bf16>>, tensor<1x128xi32> loc(#loc110)
    %tmp17_30 = tt.load %tmp17_29, %tmp14, %cst evictionPolicy = evict_last : tensor<1x128x!tt.ptr<bf16>> loc(#loc111)
    %tmp17_31 = arith.extf %tmp17_30 : tensor<1x128xbf16> to tensor<1x128xf32> loc(#loc112)
    %tmp18 = arith.addi %tmp6_14, %tmp17 : tensor<1x128xi32> loc(#loc113)
    %tmp18_32 = tt.addptr %tmp9, %tmp18 : tensor<1x128x!tt.ptr<bf16>>, tensor<1x128xi32> loc(#loc114)
    %tmp18_33 = tt.load %tmp18_32, %tmp14, %cst evictionPolicy = evict_last : tensor<1x128x!tt.ptr<bf16>> loc(#loc115)
    %tmp18_34 = arith.extf %tmp18_33 : tensor<1x128xbf16> to tensor<1x128xf32> loc(#loc116)
    %tmp19 = arith.subf %cst_2, %tmp18_34 : tensor<1x128xf32> loc(#loc117)
    %tmp20 = arith.mulf %tmp17_31, %tmp19 : tensor<1x128xf32> loc(#loc118)
    %tmp21 = arith.addi %tmp8_20, %tmp17 : tensor<1x128xi32> loc(#loc119)
    %tmp21_35 = tt.addptr %tmp5_10, %tmp21 : tensor<1x128x!tt.ptr<bf16>>, tensor<1x128xi32> loc(#loc120)
    %tmp21_36 = tt.load %tmp21_35, %tmp14, %cst evictionPolicy = evict_last : tensor<1x128x!tt.ptr<bf16>> loc(#loc121)
    %tmp21_37 = arith.extf %tmp21_36 : tensor<1x128xbf16> to tensor<1x128xf32> loc(#loc122)
    %tmp22 = tt.addptr %tmp6_16, %tmp18 : tensor<1x128x!tt.ptr<bf16>>, tensor<1x128xi32> loc(#loc123)
    %tmp22_38 = tt.load %tmp22, %tmp14, %cst evictionPolicy = evict_last : tensor<1x128x!tt.ptr<bf16>> loc(#loc124)
    %tmp22_39 = arith.extf %tmp22_38 : tensor<1x128xbf16> to tensor<1x128xf32> loc(#loc125)
    %tmp23 = arith.mulf %tmp21_37, %tmp22_39 : tensor<1x128xf32> loc(#loc126)
    %tmp24 = arith.addf %tmp20, %tmp23 : tensor<1x128xf32> loc(#loc127)
    %tmp26 = arith.select %tmp14, %tmp24, %cst_2 : tensor<1x128xi1>, tensor<1x128xf32> loc(#loc128)
    %tmp27 = arith.select %tmp4_7, %tmp11, %tmp26 : tensor<1x128xi1>, tensor<1x128xf32> loc(#loc139)
    %tmp29 = arith.mulf %tmp27, %tmp27 : tensor<1x128xf32> loc(#loc131)
    %tmp32 = "tt.reduce"(%tmp29) <{axis = 1 : i32}> ({
    ^bb0(%tmp32_44: f32 loc(callsite(#loc1 at #loc132)), %tmp32_45: f32 loc(callsite(#loc1 at #loc132))):
      %tmp32_46 = arith.addf %tmp32_44, %tmp32_45 : f32 loc(#loc142)
      tt.reduce.return %tmp32_46 : f32 loc(#loc140)
    }) : (tensor<1x128xf32>) -> tensor<1xf32> loc(#loc140)
    %tmp32_40 = tt.expand_dims %tmp32 {axis = 1 : i32} : tensor<1xf32> -> tensor<1x1xf32> loc(#loc133)
    %tmp34_41 = arith.divf %tmp32_40, %tmp34 : tensor<1x1xf32> loc(#loc81)
    %tmp36_42 = arith.addf %tmp34_41, %tmp36 : tensor<1x1xf32> loc(#loc80)
    %tmp37 = tt.extern_elementwise %tmp36_42 {libname = "", libpath = "", pure = true, symbol = "__nv_rsqrtf"} : (tensor<1x1xf32>) -> tensor<1x1xf32> loc(#loc134)
    %tmp38 = tt.broadcast %tmp37 : tensor<1x1xf32> -> tensor<1x128xf32> loc(#loc135)
    %tmp38_43 = arith.mulf %tmp27, %tmp38 : tensor<1x128xf32> loc(#loc135)
    %0 = tt.splat %out_ptr0 : !tt.ptr<bf16> -> tensor<1x128x!tt.ptr<bf16>> loc(#loc62)
    %1 = tt.addptr %0, %tmp5_9 : tensor<1x128x!tt.ptr<bf16>>, tensor<1x128xi32> loc(#loc62)
    %2 = arith.truncf %tmp27 : tensor<1x128xf32> to tensor<1x128xbf16> loc(#loc63)
    tt.store %1, %2 : tensor<1x128x!tt.ptr<bf16>> loc(#loc63)
    gpu.barrier loc(#loc64)
    %3 = tt.addptr %in_out_ptr0, %xoffset : !tt.ptr<f32>, i32 loc(#loc65)
    %4 = tt.splat %3 : !tt.ptr<f32> -> tensor<1x1x!tt.ptr<f32>> loc(#loc65)
    tt.store %4, %tmp37 : tensor<1x1x!tt.ptr<f32>> loc(#loc66)
    %5 = tt.splat %out_ptr1 : !tt.ptr<bf16> -> tensor<1x128x!tt.ptr<bf16>> loc(#loc67)
    %6 = tt.addptr %5, %tmp5_9 : tensor<1x128x!tt.ptr<bf16>>, tensor<1x128xi32> loc(#loc67)
    %7 = arith.truncf %tmp38_43 : tensor<1x128xf32> to tensor<1x128xbf16> loc(#loc68)
    tt.store %6, %7 : tensor<1x128x!tt.ptr<bf16>> loc(#loc68)
    tt.return loc(#loc69)
  } loc(#loc)
} loc(#loc)
#loc2 = loc("/mnt/weka/home/junlin.chen/workspace/autoresearch/autoresearch/.torchinductor-cache/bd/cbd4hqt3hzghjnznw5jtkwuecacnzs6vszb522k47fxz6lbwkuyc.py":34:26)
#loc3 = loc("/mnt/weka/home/junlin.chen/workspace/autoresearch/autoresearch/.torchinductor-cache/bd/cbd4hqt3hzghjnznw5jtkwuecacnzs6vszb522k47fxz6lbwkuyc.py":34:21)
#loc4 = loc("/mnt/weka/home/junlin.chen/workspace/autoresearch/autoresearch/.torchinductor-cache/bd/cbd4hqt3hzghjnznw5jtkwuecacnzs6vszb522k47fxz6lbwkuyc.py":70:20)
#loc5 = loc("/mnt/weka/home/junlin.chen/workspace/autoresearch/autoresearch/.torchinductor-cache/bd/cbd4hqt3hzghjnznw5jtkwuecacnzs6vszb522k47fxz6lbwkuyc.py":68:21)
#loc6 = loc("/mnt/weka/home/junlin.chen/workspace/autoresearch/autoresearch/.torchinductor-cache/bd/cbd4hqt3hzghjnznw5jtkwuecacnzs6vszb522k47fxz6lbwkuyc.py":24:28)
#loc7 = loc("/mnt/weka/home/junlin.chen/workspace/autoresearch/autoresearch/.torchinductor-cache/bd/cbd4hqt3hzghjnznw5jtkwuecacnzs6vszb522k47fxz6lbwkuyc.py":27:28)
#loc8 = loc("/mnt/weka/home/junlin.chen/workspace/autoresearch/autoresearch/.torchinductor-cache/bd/cbd4hqt3hzghjnznw5jtkwuecacnzs6vszb522k47fxz6lbwkuyc.py":27:38)
#loc9 = loc("/mnt/weka/home/junlin.chen/workspace/autoresearch/autoresearch/.torchinductor-cache/bd/cbd4hqt3hzghjnznw5jtkwuecacnzs6vszb522k47fxz6lbwkuyc.py":39:18)
#loc10 = loc("/mnt/weka/home/junlin.chen/workspace/autoresearch/autoresearch/.torchinductor-cache/bd/cbd4hqt3hzghjnznw5jtkwuecacnzs6vszb522k47fxz6lbwkuyc.py":40:34)
#loc11 = loc("/mnt/weka/home/junlin.chen/workspace/autoresearch/autoresearch/.torchinductor-cache/bd/cbd4hqt3hzghjnznw5jtkwuecacnzs6vszb522k47fxz6lbwkuyc.py":40:40)
#loc12 = loc("/mnt/weka/home/junlin.chen/workspace/autoresearch/autoresearch/.torchinductor-cache/bd/cbd4hqt3hzghjnznw5jtkwuecacnzs6vszb522k47fxz6lbwkuyc.py":40:30)
#loc13 = loc("/mnt/weka/home/junlin.chen/workspace/autoresearch/autoresearch/.torchinductor-cache/bd/cbd4hqt3hzghjnznw5jtkwuecacnzs6vszb522k47fxz6lbwkuyc.py":40:48)
#loc14 = loc("/mnt/weka/home/junlin.chen/workspace/autoresearch/autoresearch/.torchinductor-cache/bd/cbd4hqt3hzghjnznw5jtkwuecacnzs6vszb522k47fxz6lbwkuyc.py":40:98)
#loc15 = loc("/mnt/weka/home/junlin.chen/workspace/autoresearch/autoresearch/.torchinductor-cache/bd/cbd4hqt3hzghjnznw5jtkwuecacnzs6vszb522k47fxz6lbwkuyc.py":41:33)
#loc16 = loc("/mnt/weka/home/junlin.chen/workspace/autoresearch/autoresearch/.torchinductor-cache/bd/cbd4hqt3hzghjnznw5jtkwuecacnzs6vszb522k47fxz6lbwkuyc.py":41:39)
#loc17 = loc("/mnt/weka/home/junlin.chen/workspace/autoresearch/autoresearch/.torchinductor-cache/bd/cbd4hqt3hzghjnznw5jtkwuecacnzs6vszb522k47fxz6lbwkuyc.py":41:30)
#loc18 = loc("/mnt/weka/home/junlin.chen/workspace/autoresearch/autoresearch/.torchinductor-cache/bd/cbd4hqt3hzghjnznw5jtkwuecacnzs6vszb522k47fxz6lbwkuyc.py":41:47)
#loc19 = loc("/mnt/weka/home/junlin.chen/workspace/autoresearch/autoresearch/.torchinductor-cache/bd/cbd4hqt3hzghjnznw5jtkwuecacnzs6vszb522k47fxz6lbwkuyc.py":41:97)
#loc20 = loc("/mnt/weka/home/junlin.chen/workspace/autoresearch/autoresearch/.torchinductor-cache/bd/cbd4hqt3hzghjnznw5jtkwuecacnzs6vszb522k47fxz6lbwkuyc.py":42:18)
#loc21 = loc("/mnt/weka/home/junlin.chen/workspace/autoresearch/autoresearch/.torchinductor-cache/bd/cbd4hqt3hzghjnznw5jtkwuecacnzs6vszb522k47fxz6lbwkuyc.py":43:35)
#loc22 = loc("/mnt/weka/home/junlin.chen/workspace/autoresearch/autoresearch/.torchinductor-cache/bd/cbd4hqt3hzghjnznw5jtkwuecacnzs6vszb522k47fxz6lbwkuyc.py":43:45)
#loc23 = loc("/mnt/weka/home/junlin.chen/workspace/autoresearch/autoresearch/.torchinductor-cache/bd/cbd4hqt3hzghjnznw5jtkwuecacnzs6vszb522k47fxz6lbwkuyc.py":43:30)
#loc24 = loc("/mnt/weka/home/junlin.chen/workspace/autoresearch/autoresearch/.torchinductor-cache/bd/cbd4hqt3hzghjnznw5jtkwuecacnzs6vszb522k47fxz6lbwkuyc.py":43:53)
#loc25 = loc("/mnt/weka/home/junlin.chen/workspace/autoresearch/autoresearch/.torchinductor-cache/bd/cbd4hqt3hzghjnznw5jtkwuecacnzs6vszb522k47fxz6lbwkuyc.py":43:103)
#loc26 = loc("/mnt/weka/home/junlin.chen/workspace/autoresearch/autoresearch/.torchinductor-cache/bd/cbd4hqt3hzghjnznw5jtkwuecacnzs6vszb522k47fxz6lbwkuyc.py":44:30)
#loc27 = loc("/mnt/weka/home/junlin.chen/workspace/autoresearch/autoresearch/.torchinductor-cache/bd/cbd4hqt3hzghjnznw5jtkwuecacnzs6vszb522k47fxz6lbwkuyc.py":44:47)
#loc28 = loc("/mnt/weka/home/junlin.chen/workspace/autoresearch/autoresearch/.torchinductor-cache/bd/cbd4hqt3hzghjnznw5jtkwuecacnzs6vszb522k47fxz6lbwkuyc.py":44:97)
#loc29 = loc("/mnt/weka/home/junlin.chen/workspace/autoresearch/autoresearch/.torchinductor-cache/bd/cbd4hqt3hzghjnznw5jtkwuecacnzs6vszb522k47fxz6lbwkuyc.py":45:19)
#loc30 = loc("/mnt/weka/home/junlin.chen/workspace/autoresearch/autoresearch/.torchinductor-cache/bd/cbd4hqt3hzghjnznw5jtkwuecacnzs6vszb522k47fxz6lbwkuyc.py":46:19)
#loc31 = loc("/mnt/weka/home/junlin.chen/workspace/autoresearch/autoresearch/.torchinductor-cache/bd/cbd4hqt3hzghjnznw5jtkwuecacnzs6vszb522k47fxz6lbwkuyc.py":49:20)
#loc32 = loc("/mnt/weka/home/junlin.chen/workspace/autoresearch/autoresearch/.torchinductor-cache/bd/cbd4hqt3hzghjnznw5jtkwuecacnzs6vszb522k47fxz6lbwkuyc.py":52:49)
#loc33 = loc("/mnt/weka/home/junlin.chen/workspace/autoresearch/autoresearch/.torchinductor-cache/bd/cbd4hqt3hzghjnznw5jtkwuecacnzs6vszb522k47fxz6lbwkuyc.py":52:41)
#loc34 = loc("/mnt/weka/home/junlin.chen/workspace/autoresearch/autoresearch/.torchinductor-cache/bd/cbd4hqt3hzghjnznw5jtkwuecacnzs6vszb522k47fxz6lbwkuyc.py":52:31)
#loc35 = loc("/mnt/weka/home/junlin.chen/workspace/autoresearch/autoresearch/.torchinductor-cache/bd/cbd4hqt3hzghjnznw5jtkwuecacnzs6vszb522k47fxz6lbwkuyc.py":52:57)
#loc36 = loc("/mnt/weka/home/junlin.chen/workspace/autoresearch/autoresearch/.torchinductor-cache/bd/cbd4hqt3hzghjnznw5jtkwuecacnzs6vszb522k47fxz6lbwkuyc.py":52:108)
#loc37 = loc("/mnt/weka/home/junlin.chen/workspace/autoresearch/autoresearch/.torchinductor-cache/bd/cbd4hqt3hzghjnznw5jtkwuecacnzs6vszb522k47fxz6lbwkuyc.py":53:40)
#loc38 = loc("/mnt/weka/home/junlin.chen/workspace/autoresearch/autoresearch/.torchinductor-cache/bd/cbd4hqt3hzghjnznw5jtkwuecacnzs6vszb522k47fxz6lbwkuyc.py":53:31)
#loc39 = loc("/mnt/weka/home/junlin.chen/workspace/autoresearch/autoresearch/.torchinductor-cache/bd/cbd4hqt3hzghjnznw5jtkwuecacnzs6vszb522k47fxz6lbwkuyc.py":53:56)
#loc40 = loc("/mnt/weka/home/junlin.chen/workspace/autoresearch/autoresearch/.torchinductor-cache/bd/cbd4hqt3hzghjnznw5jtkwuecacnzs6vszb522k47fxz6lbwkuyc.py":53:107)
#loc41 = loc("/mnt/weka/home/junlin.chen/workspace/autoresearch/autoresearch/.torchinductor-cache/bd/cbd4hqt3hzghjnznw5jtkwuecacnzs6vszb522k47fxz6lbwkuyc.py":54:13)
#loc42 = loc("/mnt/weka/home/junlin.chen/workspace/autoresearch/autoresearch/.torchinductor-cache/bd/cbd4hqt3hzghjnznw5jtkwuecacnzs6vszb522k47fxz6lbwkuyc.py":55:20)
#loc43 = loc("/mnt/weka/home/junlin.chen/workspace/autoresearch/autoresearch/.torchinductor-cache/bd/cbd4hqt3hzghjnznw5jtkwuecacnzs6vszb522k47fxz6lbwkuyc.py":56:46)
#loc44 = loc("/mnt/weka/home/junlin.chen/workspace/autoresearch/autoresearch/.torchinductor-cache/bd/cbd4hqt3hzghjnznw5jtkwuecacnzs6vszb522k47fxz6lbwkuyc.py":56:31)
#loc45 = loc("/mnt/weka/home/junlin.chen/workspace/autoresearch/autoresearch/.torchinductor-cache/bd/cbd4hqt3hzghjnznw5jtkwuecacnzs6vszb522k47fxz6lbwkuyc.py":56:62)
#loc46 = loc("/mnt/weka/home/junlin.chen/workspace/autoresearch/autoresearch/.torchinductor-cache/bd/cbd4hqt3hzghjnznw5jtkwuecacnzs6vszb522k47fxz6lbwkuyc.py":56:113)
#loc47 = loc("/mnt/weka/home/junlin.chen/workspace/autoresearch/autoresearch/.torchinductor-cache/bd/cbd4hqt3hzghjnznw5jtkwuecacnzs6vszb522k47fxz6lbwkuyc.py":57:31)
#loc48 = loc("/mnt/weka/home/junlin.chen/workspace/autoresearch/autoresearch/.torchinductor-cache/bd/cbd4hqt3hzghjnznw5jtkwuecacnzs6vszb522k47fxz6lbwkuyc.py":57:56)
#loc49 = loc("/mnt/weka/home/junlin.chen/workspace/autoresearch/autoresearch/.torchinductor-cache/bd/cbd4hqt3hzghjnznw5jtkwuecacnzs6vszb522k47fxz6lbwkuyc.py":57:107)
#loc50 = loc("/mnt/weka/home/junlin.chen/workspace/autoresearch/autoresearch/.torchinductor-cache/bd/cbd4hqt3hzghjnznw5jtkwuecacnzs6vszb522k47fxz6lbwkuyc.py":58:20)
#loc51 = loc("/mnt/weka/home/junlin.chen/workspace/autoresearch/autoresearch/.torchinductor-cache/bd/cbd4hqt3hzghjnznw5jtkwuecacnzs6vszb522k47fxz6lbwkuyc.py":59:20)
#loc52 = loc("/mnt/weka/home/junlin.chen/workspace/autoresearch/autoresearch/.torchinductor-cache/bd/cbd4hqt3hzghjnznw5jtkwuecacnzs6vszb522k47fxz6lbwkuyc.py":61:35)
#loc53 = loc("/mnt/weka/home/junlin.chen/workspace/autoresearch/autoresearch/.torchinductor-cache/bd/cbd4hqt3hzghjnznw5jtkwuecacnzs6vszb522k47fxz6lbwkuyc.py":62:34)
#loc54 = loc("/mnt/weka/home/junlin.chen/workspace/autoresearch/autoresearch/.torchinductor-cache/bd/cbd4hqt3hzghjnznw5jtkwuecacnzs6vszb522k47fxz6lbwkuyc.py":48:34)
#loc55 = loc("/mnt/weka/home/junlin.chen/workspace/autoresearch/autoresearch/.torchinductor-cache/bd/cbd4hqt3hzghjnznw5jtkwuecacnzs6vszb522k47fxz6lbwkuyc.py":64:20)
#loc56 = loc("/mnt/weka/home/junlin.chen/workspace/autoresearch/autoresearch/.venv/lib/python3.13/site-packages/triton/language/standard.py":291:36)
#loc58 = loc("/mnt/weka/home/junlin.chen/workspace/autoresearch/autoresearch/.venv/lib/python3.13/site-packages/triton/language/standard.py":261:15)
#loc59 = loc("/mnt/weka/home/junlin.chen/workspace/autoresearch/autoresearch/.torchinductor-cache/bd/cbd4hqt3hzghjnznw5jtkwuecacnzs6vszb522k47fxz6lbwkuyc.py":66:29)
#loc60 = loc("/mnt/weka/home/junlin.chen/workspace/autoresearch/autoresearch/.torchinductor-cache/bd/cbd4hqt3hzghjnznw5jtkwuecacnzs6vszb522k47fxz6lbwkuyc.py":71:28)
#loc61 = loc("/mnt/weka/home/junlin.chen/workspace/autoresearch/autoresearch/.torchinductor-cache/bd/cbd4hqt3hzghjnznw5jtkwuecacnzs6vszb522k47fxz6lbwkuyc.py":72:20)
#loc62 = loc("/mnt/weka/home/junlin.chen/workspace/autoresearch/autoresearch/.torchinductor-cache/bd/cbd4hqt3hzghjnznw5jtkwuecacnzs6vszb522k47fxz6lbwkuyc.py":74:25)
#loc63 = loc("/mnt/weka/home/junlin.chen/workspace/autoresearch/autoresearch/.torchinductor-cache/bd/cbd4hqt3hzghjnznw5jtkwuecacnzs6vszb522k47fxz6lbwkuyc.py":74:48)
#loc64 = loc("/mnt/weka/home/junlin.chen/workspace/autoresearch/autoresearch/.torchinductor-cache/bd/cbd4hqt3hzghjnznw5jtkwuecacnzs6vszb522k47fxz6lbwkuyc.py":75:4)
#loc65 = loc("/mnt/weka/home/junlin.chen/workspace/autoresearch/autoresearch/.torchinductor-cache/bd/cbd4hqt3hzghjnznw5jtkwuecacnzs6vszb522k47fxz6lbwkuyc.py":76:28)
#loc66 = loc("/mnt/weka/home/junlin.chen/workspace/autoresearch/autoresearch/.torchinductor-cache/bd/cbd4hqt3hzghjnznw5jtkwuecacnzs6vszb522k47fxz6lbwkuyc.py":76:40)
#loc67 = loc("/mnt/weka/home/junlin.chen/workspace/autoresearch/autoresearch/.torchinductor-cache/bd/cbd4hqt3hzghjnznw5jtkwuecacnzs6vszb522k47fxz6lbwkuyc.py":77:25)
#loc68 = loc("/mnt/weka/home/junlin.chen/workspace/autoresearch/autoresearch/.torchinductor-cache/bd/cbd4hqt3hzghjnznw5jtkwuecacnzs6vszb522k47fxz6lbwkuyc.py":77:48)
#loc69 = loc("/mnt/weka/home/junlin.chen/workspace/autoresearch/autoresearch/.torchinductor-cache/bd/cbd4hqt3hzghjnznw5jtkwuecacnzs6vszb522k47fxz6lbwkuyc.py":77:4)
#loc78 = loc("x1"(#loc2))
#loc79 = loc("x1"(#loc3))
#loc80 = loc("tmp36"(#loc4))
#loc81 = loc("tmp34"(#loc5))
#loc82 = loc("xoffset"(#loc6))
#loc83 = loc("r0_index"(#loc7))
#loc84 = loc("r0_index"(#loc8))
#loc85 = loc("tmp4"(#loc9))
#loc86 = loc("tmp5"(#loc10))
#loc87 = loc("tmp5"(#loc11))
#loc88 = loc("tmp5"(#loc12))
#loc89 = loc("tmp5"(#loc13))
#loc90 = loc("tmp5"(#loc14))
#loc91 = loc("tmp6"(#loc15))
#loc92 = loc("tmp6"(#loc16))
#loc93 = loc("tmp6"(#loc17))
#loc94 = loc("tmp6"(#loc18))
#loc95 = loc("tmp6"(#loc19))
#loc96 = loc("tmp7"(#loc20))
#loc97 = loc("tmp8"(#loc21))
#loc98 = loc("tmp8"(#loc22))
#loc99 = loc("tmp8"(#loc23))
#loc100 = loc("tmp8"(#loc24))
#loc101 = loc("tmp8"(#loc25))
#loc102 = loc("tmp9"(#loc26))
#loc103 = loc("tmp9"(#loc27))
#loc104 = loc("tmp9"(#loc28))
#loc105 = loc("tmp10"(#loc29))
#loc106 = loc("tmp11"(#loc30))
#loc107 = loc("tmp14"(#loc31))
#loc108 = loc("tmp17"(#loc32))
#loc109 = loc("tmp17"(#loc33))
#loc110 = loc("tmp17"(#loc34))
#loc111 = loc("tmp17"(#loc35))
#loc112 = loc("tmp17"(#loc36))
#loc113 = loc("tmp18"(#loc37))
#loc114 = loc("tmp18"(#loc38))
#loc115 = loc("tmp18"(#loc39))
#loc116 = loc("tmp18"(#loc40))
#loc117 = loc("tmp19"(#loc41))
#loc118 = loc("tmp20"(#loc42))
#loc119 = loc("tmp21"(#loc43))
#loc120 = loc("tmp21"(#loc44))
#loc121 = loc("tmp21"(#loc45))
#loc122 = loc("tmp21"(#loc46))
#loc123 = loc("tmp22"(#loc47))
#loc124 = loc("tmp22"(#loc48))
#loc125 = loc("tmp22"(#loc49))
#loc126 = loc("tmp23"(#loc50))
#loc127 = loc("tmp24"(#loc51))
#loc128 = loc("tmp26"(#loc52))
#loc129 = loc("tmp27"(#loc53))
#loc130 = loc("tmp13"(#loc54))
#loc131 = loc("tmp29"(#loc55))
#loc133 = loc("tmp32"(#loc59))
#loc134 = loc("tmp37"(#loc60))
#loc135 = loc("tmp38"(#loc61))
#loc136 = loc(fused[#loc87, #loc86])
#loc137 = loc(fused[#loc92, #loc91])
#loc138 = loc(fused[#loc98, #loc97])
#loc139 = loc(fused[#loc129, #loc130])
#loc140 = loc(callsite(#loc56 at #loc132))
#loc142 = loc(callsite(#loc58 at #loc140))
