#loc = loc("/mnt/weka/home/junlin.chen/workspace/autoresearch/autoresearch/.torchinductor-cache/fy/cfykocw5o7i3qq5h44dnxblmqjgu3r6uqiofj66u2qlccrxinqso.py":18:0)
#loc1 = loc(unknown)
#loc18 = loc("/mnt/weka/home/junlin.chen/workspace/autoresearch/autoresearch/.torchinductor-cache/fy/cfykocw5o7i3qq5h44dnxblmqjgu3r6uqiofj66u2qlccrxinqso.py":40:24)
#loc26 = loc("in_ptr0"(#loc))
#loc27 = loc("in_ptr1"(#loc))
#loc28 = loc("out_ptr1"(#loc))
#loc29 = loc("xnumel"(#loc))
#loc30 = loc("r0_numel"(#loc))
#loc46 = loc("tmp7"(#loc18))
#loc52 = loc(callsite(#loc1 at #loc46))
module {
  tt.func public @triton_per_fused__to_copy__unsafe_view_add_mean_mul_pow_rsqrt_3(%in_ptr0: !tt.ptr<bf16> {tt.divisibility = 16 : i32} loc("in_ptr0"(#loc)), %in_ptr1: !tt.ptr<bf16> {tt.divisibility = 16 : i32} loc("in_ptr1"(#loc)), %out_ptr1: !tt.ptr<bf16> {tt.divisibility = 16 : i32} loc("out_ptr1"(#loc)), %xnumel: i32 {tt.divisibility = 16 : i32} loc("xnumel"(#loc)), %r0_numel: i32 {tt.divisibility = 16 : i32} loc("r0_numel"(#loc))) attributes {noinline = false} {
    %c512_i32 = arith.constant 512 : i32 loc(#loc1)
    %tmp11 = arith.constant dense<1.1920929E-7> : tensor<1x1xf32> loc(#loc31)
    %tmp9 = arith.constant dense<5.120000e+02> : tensor<1x1xf32> loc(#loc32)
    %xoffset = tt.get_program_id x : i32 loc(#loc33)
    %r0_index = tt.make_range {end = 512 : i32, start = 0 : i32} : tensor<512xi32> loc(#loc34)
    %r0_index_0 = tt.expand_dims %r0_index {axis = 0 : i32} : tensor<512xi32> -> tensor<1x512xi32> loc(#loc35)
    %tmp0 = arith.muli %xoffset, %c512_i32 : i32 loc(#loc36)
    %tmp0_1 = tt.splat %tmp0 : i32 -> tensor<1x512xi32> loc(#loc50)
    %tmp0_2 = arith.addi %r0_index_0, %tmp0_1 : tensor<1x512xi32> loc(#loc37)
    %tmp0_3 = tt.splat %in_ptr0 : !tt.ptr<bf16> -> tensor<1x512x!tt.ptr<bf16>> loc(#loc38)
    %tmp0_4 = tt.addptr %tmp0_3, %tmp0_2 : tensor<1x512x!tt.ptr<bf16>>, tensor<1x512xi32> loc(#loc38)
    %tmp0_5 = tt.load %tmp0_4 : tensor<1x512x!tt.ptr<bf16>> loc(#loc39)
    %tmp0_6 = arith.extf %tmp0_5 : tensor<1x512xbf16> to tensor<1x512xf32> loc(#loc40)
    %tmp1 = tt.splat %in_ptr1 : !tt.ptr<bf16> -> tensor<1x512x!tt.ptr<bf16>> loc(#loc41)
    %tmp1_7 = tt.addptr %tmp1, %tmp0_2 : tensor<1x512x!tt.ptr<bf16>>, tensor<1x512xi32> loc(#loc41)
    %tmp1_8 = tt.load %tmp1_7 : tensor<1x512x!tt.ptr<bf16>> loc(#loc42)
    %tmp1_9 = arith.extf %tmp1_8 : tensor<1x512xbf16> to tensor<1x512xf32> loc(#loc43)
    %tmp2 = arith.addf %tmp0_6, %tmp1_9 : tensor<1x512xf32> loc(#loc44)
    %tmp4 = arith.mulf %tmp2, %tmp2 : tensor<1x512xf32> loc(#loc45)
    %tmp7 = "tt.reduce"(%tmp4) <{axis = 1 : i32}> ({
    ^bb0(%tmp7_14: f32 loc(callsite(#loc1 at #loc46)), %tmp7_15: f32 loc(callsite(#loc1 at #loc46))):
      %tmp7_16 = arith.addf %tmp7_14, %tmp7_15 : f32 loc(#loc53)
      tt.reduce.return %tmp7_16 : f32 loc(#loc51)
    }) : (tensor<1x512xf32>) -> tensor<1xf32> loc(#loc51)
    %tmp7_10 = tt.expand_dims %tmp7 {axis = 1 : i32} : tensor<1xf32> -> tensor<1x1xf32> loc(#loc47)
    %tmp9_11 = arith.divf %tmp7_10, %tmp9 : tensor<1x1xf32> loc(#loc32)
    %tmp11_12 = arith.addf %tmp9_11, %tmp11 : tensor<1x1xf32> loc(#loc31)
    %tmp12 = tt.extern_elementwise %tmp11_12 {libname = "", libpath = "", pure = true, symbol = "__nv_rsqrtf"} : (tensor<1x1xf32>) -> tensor<1x1xf32> loc(#loc48)
    %tmp13 = tt.broadcast %tmp12 : tensor<1x1xf32> -> tensor<1x512xf32> loc(#loc49)
    %tmp13_13 = arith.mulf %tmp2, %tmp13 : tensor<1x512xf32> loc(#loc49)
    %0 = tt.splat %out_ptr1 : !tt.ptr<bf16> -> tensor<1x512x!tt.ptr<bf16>> loc(#loc23)
    %1 = tt.addptr %0, %tmp0_2 : tensor<1x512x!tt.ptr<bf16>>, tensor<1x512xi32> loc(#loc23)
    %2 = arith.truncf %tmp13_13 : tensor<1x512xf32> to tensor<1x512xbf16> loc(#loc24)
    tt.store %1, %2 : tensor<1x512x!tt.ptr<bf16>> loc(#loc24)
    tt.return loc(#loc25)
  } loc(#loc)
} loc(#loc)
#loc2 = loc("/mnt/weka/home/junlin.chen/workspace/autoresearch/autoresearch/.torchinductor-cache/fy/cfykocw5o7i3qq5h44dnxblmqjgu3r6uqiofj66u2qlccrxinqso.py":44:19)
#loc3 = loc("/mnt/weka/home/junlin.chen/workspace/autoresearch/autoresearch/.torchinductor-cache/fy/cfykocw5o7i3qq5h44dnxblmqjgu3r6uqiofj66u2qlccrxinqso.py":42:19)
#loc4 = loc("/mnt/weka/home/junlin.chen/workspace/autoresearch/autoresearch/.torchinductor-cache/fy/cfykocw5o7i3qq5h44dnxblmqjgu3r6uqiofj66u2qlccrxinqso.py":24:28)
#loc5 = loc("/mnt/weka/home/junlin.chen/workspace/autoresearch/autoresearch/.torchinductor-cache/fy/cfykocw5o7i3qq5h44dnxblmqjgu3r6uqiofj66u2qlccrxinqso.py":27:28)
#loc6 = loc("/mnt/weka/home/junlin.chen/workspace/autoresearch/autoresearch/.torchinductor-cache/fy/cfykocw5o7i3qq5h44dnxblmqjgu3r6uqiofj66u2qlccrxinqso.py":27:38)
#loc7 = loc("/mnt/weka/home/junlin.chen/workspace/autoresearch/autoresearch/.torchinductor-cache/fy/cfykocw5o7i3qq5h44dnxblmqjgu3r6uqiofj66u2qlccrxinqso.py":34:41)
#loc8 = loc("/mnt/weka/home/junlin.chen/workspace/autoresearch/autoresearch/.torchinductor-cache/fy/cfykocw5o7i3qq5h44dnxblmqjgu3r6uqiofj66u2qlccrxinqso.py":34:37)
#loc9 = loc("/mnt/weka/home/junlin.chen/workspace/autoresearch/autoresearch/.torchinductor-cache/fy/cfykocw5o7i3qq5h44dnxblmqjgu3r6uqiofj66u2qlccrxinqso.py":34:30)
#loc10 = loc("/mnt/weka/home/junlin.chen/workspace/autoresearch/autoresearch/.torchinductor-cache/fy/cfykocw5o7i3qq5h44dnxblmqjgu3r6uqiofj66u2qlccrxinqso.py":34:46)
#loc11 = loc("/mnt/weka/home/junlin.chen/workspace/autoresearch/autoresearch/.torchinductor-cache/fy/cfykocw5o7i3qq5h44dnxblmqjgu3r6uqiofj66u2qlccrxinqso.py":34:55)
#loc12 = loc("/mnt/weka/home/junlin.chen/workspace/autoresearch/autoresearch/.torchinductor-cache/fy/cfykocw5o7i3qq5h44dnxblmqjgu3r6uqiofj66u2qlccrxinqso.py":35:30)
#loc13 = loc("/mnt/weka/home/junlin.chen/workspace/autoresearch/autoresearch/.torchinductor-cache/fy/cfykocw5o7i3qq5h44dnxblmqjgu3r6uqiofj66u2qlccrxinqso.py":35:46)
#loc14 = loc("/mnt/weka/home/junlin.chen/workspace/autoresearch/autoresearch/.torchinductor-cache/fy/cfykocw5o7i3qq5h44dnxblmqjgu3r6uqiofj66u2qlccrxinqso.py":35:55)
#loc15 = loc("/mnt/weka/home/junlin.chen/workspace/autoresearch/autoresearch/.torchinductor-cache/fy/cfykocw5o7i3qq5h44dnxblmqjgu3r6uqiofj66u2qlccrxinqso.py":36:18)
#loc16 = loc("/mnt/weka/home/junlin.chen/workspace/autoresearch/autoresearch/.torchinductor-cache/fy/cfykocw5o7i3qq5h44dnxblmqjgu3r6uqiofj66u2qlccrxinqso.py":38:18)
#loc17 = loc("/mnt/weka/home/junlin.chen/workspace/autoresearch/autoresearch/.venv/lib/python3.13/site-packages/triton/language/standard.py":291:36)
#loc19 = loc("/mnt/weka/home/junlin.chen/workspace/autoresearch/autoresearch/.venv/lib/python3.13/site-packages/triton/language/standard.py":261:15)
#loc20 = loc("/mnt/weka/home/junlin.chen/workspace/autoresearch/autoresearch/.torchinductor-cache/fy/cfykocw5o7i3qq5h44dnxblmqjgu3r6uqiofj66u2qlccrxinqso.py":40:27)
#loc21 = loc("/mnt/weka/home/junlin.chen/workspace/autoresearch/autoresearch/.torchinductor-cache/fy/cfykocw5o7i3qq5h44dnxblmqjgu3r6uqiofj66u2qlccrxinqso.py":45:28)
#loc22 = loc("/mnt/weka/home/junlin.chen/workspace/autoresearch/autoresearch/.torchinductor-cache/fy/cfykocw5o7i3qq5h44dnxblmqjgu3r6uqiofj66u2qlccrxinqso.py":46:19)
#loc23 = loc("/mnt/weka/home/junlin.chen/workspace/autoresearch/autoresearch/.torchinductor-cache/fy/cfykocw5o7i3qq5h44dnxblmqjgu3r6uqiofj66u2qlccrxinqso.py":48:25)
#loc24 = loc("/mnt/weka/home/junlin.chen/workspace/autoresearch/autoresearch/.torchinductor-cache/fy/cfykocw5o7i3qq5h44dnxblmqjgu3r6uqiofj66u2qlccrxinqso.py":48:48)
#loc25 = loc("/mnt/weka/home/junlin.chen/workspace/autoresearch/autoresearch/.torchinductor-cache/fy/cfykocw5o7i3qq5h44dnxblmqjgu3r6uqiofj66u2qlccrxinqso.py":48:4)
#loc31 = loc("tmp11"(#loc2))
#loc32 = loc("tmp9"(#loc3))
#loc33 = loc("xoffset"(#loc4))
#loc34 = loc("r0_index"(#loc5))
#loc35 = loc("r0_index"(#loc6))
#loc36 = loc("tmp0"(#loc7))
#loc37 = loc("tmp0"(#loc8))
#loc38 = loc("tmp0"(#loc9))
#loc39 = loc("tmp0"(#loc10))
#loc40 = loc("tmp0"(#loc11))
#loc41 = loc("tmp1"(#loc12))
#loc42 = loc("tmp1"(#loc13))
#loc43 = loc("tmp1"(#loc14))
#loc44 = loc("tmp2"(#loc15))
#loc45 = loc("tmp4"(#loc16))
#loc47 = loc("tmp7"(#loc20))
#loc48 = loc("tmp12"(#loc21))
#loc49 = loc("tmp13"(#loc22))
#loc50 = loc(fused[#loc37, #loc36])
#loc51 = loc(callsite(#loc17 at #loc46))
#loc53 = loc(callsite(#loc19 at #loc51))
