#loc = loc("/mnt/weka/home/junlin.chen/workspace/autoresearch/autoresearch/.torchinductor-cache/jh/cjhrelllpbynmmpooor7zsp7ryv6fintnhzryjiplm4khvxhgzvb.py":18:0)
#loc1 = loc(unknown)
#loc19 = loc("/mnt/weka/home/junlin.chen/workspace/autoresearch/autoresearch/.torchinductor-cache/jh/cjhrelllpbynmmpooor7zsp7ryv6fintnhzryjiplm4khvxhgzvb.py":42:24)
#loc27 = loc("in_out_ptr0"(#loc))
#loc28 = loc("in_ptr0"(#loc))
#loc29 = loc("in_ptr1"(#loc))
#loc30 = loc("xnumel"(#loc))
#loc31 = loc("r0_numel"(#loc))
#loc48 = loc("tmp9"(#loc19))
#loc55 = loc(callsite(#loc1 at #loc48))
module {
  tt.func public @triton_per_fused__fused_rms_norm_backward__to_copy_mul_view_2(%in_out_ptr0: !tt.ptr<bf16> {tt.divisibility = 16 : i32} loc("in_out_ptr0"(#loc)), %in_ptr0: !tt.ptr<bf16> {tt.divisibility = 16 : i32} loc("in_ptr0"(#loc)), %in_ptr1: !tt.ptr<f32> {tt.divisibility = 16 : i32} loc("in_ptr1"(#loc)), %xnumel: i32 {tt.divisibility = 16 : i32} loc("xnumel"(#loc)), %r0_numel: i32 {tt.divisibility = 16 : i32} loc("r0_numel"(#loc))) attributes {noinline = false} {
    %c512_i32 = arith.constant 512 : i32 loc(#loc1)
    %tmp11 = arith.constant dense<0.001953125> : tensor<1x512xf32> loc(#loc32)
    %xoffset = tt.get_program_id x : i32 loc(#loc33)
    %r0_index = tt.make_range {end = 512 : i32, start = 0 : i32} : tensor<512xi32> loc(#loc34)
    %r0_index_0 = tt.expand_dims %r0_index {axis = 0 : i32} : tensor<512xi32> -> tensor<1x512xi32> loc(#loc35)
    %tmp0 = arith.muli %xoffset, %c512_i32 : i32 loc(#loc36)
    %tmp0_1 = tt.splat %tmp0 : i32 -> tensor<1x512xi32> loc(#loc53)
    %tmp0_2 = arith.addi %r0_index_0, %tmp0_1 : tensor<1x512xi32> loc(#loc37)
    %tmp0_3 = tt.splat %in_ptr0 : !tt.ptr<bf16> -> tensor<1x512x!tt.ptr<bf16>> loc(#loc38)
    %tmp0_4 = tt.addptr %tmp0_3, %tmp0_2 : tensor<1x512x!tt.ptr<bf16>>, tensor<1x512xi32> loc(#loc38)
    %tmp0_5 = tt.load %tmp0_4 : tensor<1x512x!tt.ptr<bf16>> loc(#loc39)
    %tmp0_6 = arith.extf %tmp0_5 : tensor<1x512xbf16> to tensor<1x512xf32> loc(#loc40)
    %tmp2 = tt.addptr %in_ptr1, %xoffset : !tt.ptr<f32>, i32 loc(#loc41)
    %tmp2_7 = tt.splat %tmp2 : !tt.ptr<f32> -> tensor<1x1x!tt.ptr<f32>> loc(#loc41)
    %tmp2_8 = tt.load %tmp2_7 evictionPolicy = evict_last : tensor<1x1x!tt.ptr<f32>> loc(#loc42)
    %tmp4 = tt.splat %in_out_ptr0 : !tt.ptr<bf16> -> tensor<1x512x!tt.ptr<bf16>> loc(#loc43)
    %tmp4_9 = tt.addptr %tmp4, %tmp0_2 : tensor<1x512x!tt.ptr<bf16>>, tensor<1x512xi32> loc(#loc43)
    %tmp4_10 = tt.load %tmp4_9 : tensor<1x512x!tt.ptr<bf16>> loc(#loc44)
    %tmp4_11 = arith.extf %tmp4_10 : tensor<1x512xbf16> to tensor<1x512xf32> loc(#loc45)
    %tmp3 = tt.broadcast %tmp2_8 : tensor<1x1xf32> -> tensor<1x512xf32> loc(#loc46)
    %tmp3_12 = arith.mulf %tmp0_6, %tmp3 : tensor<1x512xf32> loc(#loc46)
    %tmp6 = arith.mulf %tmp3_12, %tmp4_11 : tensor<1x512xf32> loc(#loc47)
    %tmp9 = "tt.reduce"(%tmp6) <{axis = 1 : i32}> ({
    ^bb0(%tmp9_16: f32 loc(callsite(#loc1 at #loc48)), %tmp9_17: f32 loc(callsite(#loc1 at #loc48))):
      %tmp9_18 = arith.addf %tmp9_16, %tmp9_17 : f32 loc(#loc56)
      tt.reduce.return %tmp9_18 : f32 loc(#loc54)
    }) : (tensor<1x512xf32>) -> tensor<1xf32> loc(#loc54)
    %tmp9_13 = tt.expand_dims %tmp9 {axis = 1 : i32} : tensor<1xf32> -> tensor<1x1xf32> loc(#loc49)
    %tmp11_14 = arith.mulf %tmp3_12, %tmp11 : tensor<1x512xf32> loc(#loc32)
    %tmp12 = tt.broadcast %tmp9_13 : tensor<1x1xf32> -> tensor<1x512xf32> loc(#loc50)
    %tmp12_15 = arith.mulf %tmp11_14, %tmp12 : tensor<1x512xf32> loc(#loc50)
    %tmp13 = arith.subf %tmp4_11, %tmp12_15 : tensor<1x512xf32> loc(#loc51)
    %tmp14 = arith.mulf %tmp13, %tmp3 : tensor<1x512xf32> loc(#loc52)
    %0 = arith.truncf %tmp14 : tensor<1x512xf32> to tensor<1x512xbf16> loc(#loc25)
    tt.store %tmp4_9, %0 : tensor<1x512x!tt.ptr<bf16>> loc(#loc25)
    tt.return loc(#loc26)
  } loc(#loc)
} loc(#loc)
#loc2 = loc("/mnt/weka/home/junlin.chen/workspace/autoresearch/autoresearch/.torchinductor-cache/jh/cjhrelllpbynmmpooor7zsp7ryv6fintnhzryjiplm4khvxhgzvb.py":44:19)
#loc3 = loc("/mnt/weka/home/junlin.chen/workspace/autoresearch/autoresearch/.torchinductor-cache/jh/cjhrelllpbynmmpooor7zsp7ryv6fintnhzryjiplm4khvxhgzvb.py":24:28)
#loc4 = loc("/mnt/weka/home/junlin.chen/workspace/autoresearch/autoresearch/.torchinductor-cache/jh/cjhrelllpbynmmpooor7zsp7ryv6fintnhzryjiplm4khvxhgzvb.py":27:28)
#loc5 = loc("/mnt/weka/home/junlin.chen/workspace/autoresearch/autoresearch/.torchinductor-cache/jh/cjhrelllpbynmmpooor7zsp7ryv6fintnhzryjiplm4khvxhgzvb.py":27:38)
#loc6 = loc("/mnt/weka/home/junlin.chen/workspace/autoresearch/autoresearch/.torchinductor-cache/jh/cjhrelllpbynmmpooor7zsp7ryv6fintnhzryjiplm4khvxhgzvb.py":34:41)
#loc7 = loc("/mnt/weka/home/junlin.chen/workspace/autoresearch/autoresearch/.torchinductor-cache/jh/cjhrelllpbynmmpooor7zsp7ryv6fintnhzryjiplm4khvxhgzvb.py":34:37)
#loc8 = loc("/mnt/weka/home/junlin.chen/workspace/autoresearch/autoresearch/.torchinductor-cache/jh/cjhrelllpbynmmpooor7zsp7ryv6fintnhzryjiplm4khvxhgzvb.py":34:30)
#loc9 = loc("/mnt/weka/home/junlin.chen/workspace/autoresearch/autoresearch/.torchinductor-cache/jh/cjhrelllpbynmmpooor7zsp7ryv6fintnhzryjiplm4khvxhgzvb.py":34:46)
#loc10 = loc("/mnt/weka/home/junlin.chen/workspace/autoresearch/autoresearch/.torchinductor-cache/jh/cjhrelllpbynmmpooor7zsp7ryv6fintnhzryjiplm4khvxhgzvb.py":34:55)
#loc11 = loc("/mnt/weka/home/junlin.chen/workspace/autoresearch/autoresearch/.torchinductor-cache/jh/cjhrelllpbynmmpooor7zsp7ryv6fintnhzryjiplm4khvxhgzvb.py":35:30)
#loc12 = loc("/mnt/weka/home/junlin.chen/workspace/autoresearch/autoresearch/.torchinductor-cache/jh/cjhrelllpbynmmpooor7zsp7ryv6fintnhzryjiplm4khvxhgzvb.py":35:35)
#loc13 = loc("/mnt/weka/home/junlin.chen/workspace/autoresearch/autoresearch/.torchinductor-cache/jh/cjhrelllpbynmmpooor7zsp7ryv6fintnhzryjiplm4khvxhgzvb.py":36:34)
#loc14 = loc("/mnt/weka/home/junlin.chen/workspace/autoresearch/autoresearch/.torchinductor-cache/jh/cjhrelllpbynmmpooor7zsp7ryv6fintnhzryjiplm4khvxhgzvb.py":36:50)
#loc15 = loc("/mnt/weka/home/junlin.chen/workspace/autoresearch/autoresearch/.torchinductor-cache/jh/cjhrelllpbynmmpooor7zsp7ryv6fintnhzryjiplm4khvxhgzvb.py":36:59)
#loc16 = loc("/mnt/weka/home/junlin.chen/workspace/autoresearch/autoresearch/.torchinductor-cache/jh/cjhrelllpbynmmpooor7zsp7ryv6fintnhzryjiplm4khvxhgzvb.py":38:18)
#loc17 = loc("/mnt/weka/home/junlin.chen/workspace/autoresearch/autoresearch/.torchinductor-cache/jh/cjhrelllpbynmmpooor7zsp7ryv6fintnhzryjiplm4khvxhgzvb.py":40:18)
#loc18 = loc("/mnt/weka/home/junlin.chen/workspace/autoresearch/autoresearch/.venv/lib/python3.13/site-packages/triton/language/standard.py":291:36)
#loc20 = loc("/mnt/weka/home/junlin.chen/workspace/autoresearch/autoresearch/.venv/lib/python3.13/site-packages/triton/language/standard.py":261:15)
#loc21 = loc("/mnt/weka/home/junlin.chen/workspace/autoresearch/autoresearch/.torchinductor-cache/jh/cjhrelllpbynmmpooor7zsp7ryv6fintnhzryjiplm4khvxhgzvb.py":42:27)
#loc22 = loc("/mnt/weka/home/junlin.chen/workspace/autoresearch/autoresearch/.torchinductor-cache/jh/cjhrelllpbynmmpooor7zsp7ryv6fintnhzryjiplm4khvxhgzvb.py":45:20)
#loc23 = loc("/mnt/weka/home/junlin.chen/workspace/autoresearch/autoresearch/.torchinductor-cache/jh/cjhrelllpbynmmpooor7zsp7ryv6fintnhzryjiplm4khvxhgzvb.py":46:19)
#loc24 = loc("/mnt/weka/home/junlin.chen/workspace/autoresearch/autoresearch/.torchinductor-cache/jh/cjhrelllpbynmmpooor7zsp7ryv6fintnhzryjiplm4khvxhgzvb.py":47:20)
#loc25 = loc("/mnt/weka/home/junlin.chen/workspace/autoresearch/autoresearch/.torchinductor-cache/jh/cjhrelllpbynmmpooor7zsp7ryv6fintnhzryjiplm4khvxhgzvb.py":49:51)
#loc26 = loc("/mnt/weka/home/junlin.chen/workspace/autoresearch/autoresearch/.torchinductor-cache/jh/cjhrelllpbynmmpooor7zsp7ryv6fintnhzryjiplm4khvxhgzvb.py":49:4)
#loc32 = loc("tmp11"(#loc2))
#loc33 = loc("xoffset"(#loc3))
#loc34 = loc("r0_index"(#loc4))
#loc35 = loc("r0_index"(#loc5))
#loc36 = loc("tmp0"(#loc6))
#loc37 = loc("tmp0"(#loc7))
#loc38 = loc("tmp0"(#loc8))
#loc39 = loc("tmp0"(#loc9))
#loc40 = loc("tmp0"(#loc10))
#loc41 = loc("tmp2"(#loc11))
#loc42 = loc("tmp2"(#loc12))
#loc43 = loc("tmp4"(#loc13))
#loc44 = loc("tmp4"(#loc14))
#loc45 = loc("tmp4"(#loc15))
#loc46 = loc("tmp3"(#loc16))
#loc47 = loc("tmp6"(#loc17))
#loc49 = loc("tmp9"(#loc21))
#loc50 = loc("tmp12"(#loc22))
#loc51 = loc("tmp13"(#loc23))
#loc52 = loc("tmp14"(#loc24))
#loc53 = loc(fused[#loc37, #loc36])
#loc54 = loc(callsite(#loc18 at #loc48))
#loc56 = loc(callsite(#loc20 at #loc54))
