#loc = loc("/mnt/weka/home/junlin.chen/workspace/autoresearch/autoresearch/.torchinductor-cache/oq/coqtbl4gs6wnr3dj6o6qd7vociumnknfuuepuzxjrmwdvasx4vye.py":18:0)
#loc16 = loc("in_ptr0"(#loc))
#loc17 = loc("out_ptr0"(#loc))
#loc18 = loc("xnumel"(#loc))
module {
  tt.func public @triton_poi_fused__to_copy__unsafe_view_pow_relu_5(%in_ptr0: !tt.ptr<bf16> {tt.divisibility = 16 : i32} loc("in_ptr0"(#loc)), %out_ptr0: !tt.ptr<bf16> {tt.divisibility = 16 : i32} loc("out_ptr0"(#loc)), %xnumel: i32 {tt.divisibility = 16 : i32} loc("xnumel"(#loc))) attributes {noinline = false} {
    %cst = arith.constant dense<0.000000e+00> : tensor<1024xf32> loc(#loc1)
    %c1024_i32 = arith.constant 1024 : i32 loc(#loc1)
    %xoffset = tt.get_program_id x : i32 loc(#loc19)
    %xoffset_0 = arith.muli %xoffset, %c1024_i32 : i32 loc(#loc20)
    %xindex = tt.make_range {end = 1024 : i32, start = 0 : i32} : tensor<1024xi32> loc(#loc21)
    %xindex_1 = tt.splat %xoffset_0 : i32 -> tensor<1024xi32> loc(#loc22)
    %xindex_2 = arith.addi %xindex_1, %xindex : tensor<1024xi32> loc(#loc22)
    %tmp0 = tt.splat %in_ptr0 : !tt.ptr<bf16> -> tensor<1024x!tt.ptr<bf16>> loc(#loc23)
    %tmp0_3 = tt.addptr %tmp0, %xindex_2 : tensor<1024x!tt.ptr<bf16>>, tensor<1024xi32> loc(#loc23)
    %tmp0_4 = tt.load %tmp0_3 : tensor<1024x!tt.ptr<bf16>> loc(#loc24)
    %tmp0_5 = arith.extf %tmp0_4 : tensor<1024xbf16> to tensor<1024xf32> loc(#loc25)
    %mask = arith.cmpf ogt, %cst, %tmp0_5 : tensor<1024xf32> loc(#loc31)
    %tmp2 = arith.select %mask, %cst, %tmp0_5 : tensor<1024xi1>, tensor<1024xf32> loc(#loc30)
    %tmp4 = arith.mulf %tmp2, %tmp2 : tensor<1024xf32> loc(#loc28)
    %0 = tt.splat %out_ptr0 : !tt.ptr<bf16> -> tensor<1024x!tt.ptr<bf16>> loc(#loc13)
    %1 = tt.addptr %0, %xindex_2 : tensor<1024x!tt.ptr<bf16>>, tensor<1024xi32> loc(#loc13)
    %2 = arith.truncf %tmp4 : tensor<1024xf32> to tensor<1024xbf16> loc(#loc14)
    tt.store %1, %2 : tensor<1024x!tt.ptr<bf16>> loc(#loc14)
    tt.return loc(#loc15)
  } loc(#loc)
} loc(#loc)
#loc1 = loc(unknown)
#loc2 = loc("/mnt/weka/home/junlin.chen/workspace/autoresearch/autoresearch/.torchinductor-cache/oq/coqtbl4gs6wnr3dj6o6qd7vociumnknfuuepuzxjrmwdvasx4vye.py":20:28)
#loc3 = loc("/mnt/weka/home/junlin.chen/workspace/autoresearch/autoresearch/.torchinductor-cache/oq/coqtbl4gs6wnr3dj6o6qd7vociumnknfuuepuzxjrmwdvasx4vye.py":20:33)
#loc4 = loc("/mnt/weka/home/junlin.chen/workspace/autoresearch/autoresearch/.torchinductor-cache/oq/coqtbl4gs6wnr3dj6o6qd7vociumnknfuuepuzxjrmwdvasx4vye.py":21:36)
#loc5 = loc("/mnt/weka/home/junlin.chen/workspace/autoresearch/autoresearch/.torchinductor-cache/oq/coqtbl4gs6wnr3dj6o6qd7vociumnknfuuepuzxjrmwdvasx4vye.py":21:23)
#loc6 = loc("/mnt/weka/home/junlin.chen/workspace/autoresearch/autoresearch/.torchinductor-cache/oq/coqtbl4gs6wnr3dj6o6qd7vociumnknfuuepuzxjrmwdvasx4vye.py":24:30)
#loc7 = loc("/mnt/weka/home/junlin.chen/workspace/autoresearch/autoresearch/.torchinductor-cache/oq/coqtbl4gs6wnr3dj6o6qd7vociumnknfuuepuzxjrmwdvasx4vye.py":24:35)
#loc8 = loc("/mnt/weka/home/junlin.chen/workspace/autoresearch/autoresearch/.torchinductor-cache/oq/coqtbl4gs6wnr3dj6o6qd7vociumnknfuuepuzxjrmwdvasx4vye.py":24:44)
#loc9 = loc("/mnt/weka/home/junlin.chen/workspace/autoresearch/autoresearch/.venv/lib/python3.13/site-packages/torch/_inductor/runtime/triton_helpers.py":110:15)
#loc10 = loc("/mnt/weka/home/junlin.chen/workspace/autoresearch/autoresearch/.torchinductor-cache/oq/coqtbl4gs6wnr3dj6o6qd7vociumnknfuuepuzxjrmwdvasx4vye.py":26:40)
#loc11 = loc("/mnt/weka/home/junlin.chen/workspace/autoresearch/autoresearch/.venv/lib/python3.13/site-packages/torch/_inductor/runtime/triton_helpers.py":113:29)
#loc12 = loc("/mnt/weka/home/junlin.chen/workspace/autoresearch/autoresearch/.torchinductor-cache/oq/coqtbl4gs6wnr3dj6o6qd7vociumnknfuuepuzxjrmwdvasx4vye.py":28:18)
#loc13 = loc("/mnt/weka/home/junlin.chen/workspace/autoresearch/autoresearch/.torchinductor-cache/oq/coqtbl4gs6wnr3dj6o6qd7vociumnknfuuepuzxjrmwdvasx4vye.py":30:25)
#loc14 = loc("/mnt/weka/home/junlin.chen/workspace/autoresearch/autoresearch/.torchinductor-cache/oq/coqtbl4gs6wnr3dj6o6qd7vociumnknfuuepuzxjrmwdvasx4vye.py":30:36)
#loc15 = loc("/mnt/weka/home/junlin.chen/workspace/autoresearch/autoresearch/.torchinductor-cache/oq/coqtbl4gs6wnr3dj6o6qd7vociumnknfuuepuzxjrmwdvasx4vye.py":30:4)
#loc19 = loc("xoffset"(#loc2))
#loc20 = loc("xoffset"(#loc3))
#loc21 = loc("xindex"(#loc4))
#loc22 = loc("xindex"(#loc5))
#loc23 = loc("tmp0"(#loc6))
#loc24 = loc("tmp0"(#loc7))
#loc25 = loc("tmp0"(#loc8))
#loc26 = loc("mask"(#loc9))
#loc27 = loc("tmp2"(#loc10))
#loc28 = loc("tmp4"(#loc12))
#loc29 = loc("mask"(#loc26))
#loc30 = loc(callsite(#loc11 at #loc27))
#loc31 = loc(callsite(#loc29 at #loc27))
