#loc = loc("/mnt/weka/home/junlin.chen/workspace/autoresearch/autoresearch/.torchinductor-cache/2c/c2ceea7y625qmbs5lfn65butv6qhgwastuijior6dchgamwnonjb.py":18:0)
#loc23 = loc("in_ptr0"(#loc))
#loc24 = loc("in_ptr1"(#loc))
#loc25 = loc("in_ptr2"(#loc))
#loc26 = loc("out_ptr0"(#loc))
#loc27 = loc("xnumel"(#loc))
module {
  tt.func public @triton_poi_fused_add_mul_4(%in_ptr0: !tt.ptr<bf16> {tt.divisibility = 16 : i32} loc("in_ptr0"(#loc)), %in_ptr1: !tt.ptr<bf16> {tt.divisibility = 16 : i32} loc("in_ptr1"(#loc)), %in_ptr2: !tt.ptr<bf16> {tt.divisibility = 16 : i32} loc("in_ptr2"(#loc)), %out_ptr0: !tt.ptr<bf16> {tt.divisibility = 16 : i32} loc("out_ptr0"(#loc)), %xnumel: i32 {tt.divisibility = 16 : i32} loc("xnumel"(#loc))) attributes {noinline = false} {
    %tmp6 = arith.constant dense<4.042930e+00> : tensor<128xf32> loc(#loc28)
    %tmp2 = arith.constant dense<8.15655422> : tensor<128xf32> loc(#loc29)
    %xmask = arith.constant dense<800> : tensor<128xi32> loc(#loc30)
    %c128_i32 = arith.constant 128 : i32 loc(#loc4)
    %xoffset = tt.get_program_id x : i32 loc(#loc31)
    %xoffset_0 = arith.muli %xoffset, %c128_i32 : i32 loc(#loc32)
    %xindex = tt.make_range {end = 128 : i32, start = 0 : i32} : tensor<128xi32> loc(#loc33)
    %xindex_1 = tt.splat %xoffset_0 : i32 -> tensor<128xi32> loc(#loc34)
    %xindex_2 = arith.addi %xindex_1, %xindex : tensor<128xi32> loc(#loc34)
    %xmask_3 = arith.cmpi slt, %xindex_2, %xmask : tensor<128xi32> loc(#loc30)
    %tmp0 = tt.splat %in_ptr0 : !tt.ptr<bf16> -> tensor<128x!tt.ptr<bf16>> loc(#loc35)
    %tmp0_4 = tt.addptr %tmp0, %xindex_2 : tensor<128x!tt.ptr<bf16>>, tensor<128xi32> loc(#loc35)
    %tmp0_5 = tt.load %tmp0_4, %xmask_3 : tensor<128x!tt.ptr<bf16>> loc(#loc36)
    %tmp0_6 = arith.extf %tmp0_5 : tensor<128xbf16> to tensor<128xf32> loc(#loc37)
    %tmp3 = tt.splat %in_ptr1 : !tt.ptr<bf16> -> tensor<128x!tt.ptr<bf16>> loc(#loc38)
    %tmp3_7 = tt.addptr %tmp3, %xindex_2 : tensor<128x!tt.ptr<bf16>>, tensor<128xi32> loc(#loc38)
    %tmp3_8 = tt.load %tmp3_7, %xmask_3 : tensor<128x!tt.ptr<bf16>> loc(#loc39)
    %tmp3_9 = arith.extf %tmp3_8 : tensor<128xbf16> to tensor<128xf32> loc(#loc40)
    %tmp7 = tt.splat %in_ptr2 : !tt.ptr<bf16> -> tensor<128x!tt.ptr<bf16>> loc(#loc41)
    %tmp7_10 = tt.addptr %tmp7, %xindex_2 : tensor<128x!tt.ptr<bf16>>, tensor<128xi32> loc(#loc41)
    %tmp7_11 = tt.load %tmp7_10, %xmask_3 : tensor<128x!tt.ptr<bf16>> loc(#loc42)
    %tmp7_12 = arith.extf %tmp7_11 : tensor<128xbf16> to tensor<128xf32> loc(#loc43)
    %tmp2_13 = arith.mulf %tmp0_6, %tmp2 : tensor<128xf32> loc(#loc29)
    %tmp4 = arith.addf %tmp2_13, %tmp3_9 : tensor<128xf32> loc(#loc44)
    %tmp6_14 = arith.mulf %tmp4, %tmp6 : tensor<128xf32> loc(#loc28)
    %tmp8 = arith.addf %tmp6_14, %tmp7_12 : tensor<128xf32> loc(#loc45)
    %0 = tt.splat %out_ptr0 : !tt.ptr<bf16> -> tensor<128x!tt.ptr<bf16>> loc(#loc20)
    %1 = tt.addptr %0, %xindex_2 : tensor<128x!tt.ptr<bf16>>, tensor<128xi32> loc(#loc20)
    %2 = arith.truncf %tmp8 : tensor<128xf32> to tensor<128xbf16> loc(#loc21)
    tt.store %1, %2, %xmask_3 : tensor<128x!tt.ptr<bf16>> loc(#loc21)
    tt.return loc(#loc22)
  } loc(#loc)
} loc(#loc)
#loc1 = loc("/mnt/weka/home/junlin.chen/workspace/autoresearch/autoresearch/.torchinductor-cache/2c/c2ceea7y625qmbs5lfn65butv6qhgwastuijior6dchgamwnonjb.py":31:18)
#loc2 = loc("/mnt/weka/home/junlin.chen/workspace/autoresearch/autoresearch/.torchinductor-cache/2c/c2ceea7y625qmbs5lfn65butv6qhgwastuijior6dchgamwnonjb.py":28:18)
#loc3 = loc("/mnt/weka/home/junlin.chen/workspace/autoresearch/autoresearch/.torchinductor-cache/2c/c2ceea7y625qmbs5lfn65butv6qhgwastuijior6dchgamwnonjb.py":22:21)
#loc4 = loc(unknown)
#loc5 = loc("/mnt/weka/home/junlin.chen/workspace/autoresearch/autoresearch/.torchinductor-cache/2c/c2ceea7y625qmbs5lfn65butv6qhgwastuijior6dchgamwnonjb.py":20:28)
#loc6 = loc("/mnt/weka/home/junlin.chen/workspace/autoresearch/autoresearch/.torchinductor-cache/2c/c2ceea7y625qmbs5lfn65butv6qhgwastuijior6dchgamwnonjb.py":20:33)
#loc7 = loc("/mnt/weka/home/junlin.chen/workspace/autoresearch/autoresearch/.torchinductor-cache/2c/c2ceea7y625qmbs5lfn65butv6qhgwastuijior6dchgamwnonjb.py":21:36)
#loc8 = loc("/mnt/weka/home/junlin.chen/workspace/autoresearch/autoresearch/.torchinductor-cache/2c/c2ceea7y625qmbs5lfn65butv6qhgwastuijior6dchgamwnonjb.py":21:23)
#loc9 = loc("/mnt/weka/home/junlin.chen/workspace/autoresearch/autoresearch/.torchinductor-cache/2c/c2ceea7y625qmbs5lfn65butv6qhgwastuijior6dchgamwnonjb.py":24:30)
#loc10 = loc("/mnt/weka/home/junlin.chen/workspace/autoresearch/autoresearch/.torchinductor-cache/2c/c2ceea7y625qmbs5lfn65butv6qhgwastuijior6dchgamwnonjb.py":24:35)
#loc11 = loc("/mnt/weka/home/junlin.chen/workspace/autoresearch/autoresearch/.torchinductor-cache/2c/c2ceea7y625qmbs5lfn65butv6qhgwastuijior6dchgamwnonjb.py":24:45)
#loc12 = loc("/mnt/weka/home/junlin.chen/workspace/autoresearch/autoresearch/.torchinductor-cache/2c/c2ceea7y625qmbs5lfn65butv6qhgwastuijior6dchgamwnonjb.py":25:30)
#loc13 = loc("/mnt/weka/home/junlin.chen/workspace/autoresearch/autoresearch/.torchinductor-cache/2c/c2ceea7y625qmbs5lfn65butv6qhgwastuijior6dchgamwnonjb.py":25:35)
#loc14 = loc("/mnt/weka/home/junlin.chen/workspace/autoresearch/autoresearch/.torchinductor-cache/2c/c2ceea7y625qmbs5lfn65butv6qhgwastuijior6dchgamwnonjb.py":25:45)
#loc15 = loc("/mnt/weka/home/junlin.chen/workspace/autoresearch/autoresearch/.torchinductor-cache/2c/c2ceea7y625qmbs5lfn65butv6qhgwastuijior6dchgamwnonjb.py":26:30)
#loc16 = loc("/mnt/weka/home/junlin.chen/workspace/autoresearch/autoresearch/.torchinductor-cache/2c/c2ceea7y625qmbs5lfn65butv6qhgwastuijior6dchgamwnonjb.py":26:35)
#loc17 = loc("/mnt/weka/home/junlin.chen/workspace/autoresearch/autoresearch/.torchinductor-cache/2c/c2ceea7y625qmbs5lfn65butv6qhgwastuijior6dchgamwnonjb.py":26:45)
#loc18 = loc("/mnt/weka/home/junlin.chen/workspace/autoresearch/autoresearch/.torchinductor-cache/2c/c2ceea7y625qmbs5lfn65butv6qhgwastuijior6dchgamwnonjb.py":29:18)
#loc19 = loc("/mnt/weka/home/junlin.chen/workspace/autoresearch/autoresearch/.torchinductor-cache/2c/c2ceea7y625qmbs5lfn65butv6qhgwastuijior6dchgamwnonjb.py":32:18)
#loc20 = loc("/mnt/weka/home/junlin.chen/workspace/autoresearch/autoresearch/.torchinductor-cache/2c/c2ceea7y625qmbs5lfn65butv6qhgwastuijior6dchgamwnonjb.py":33:25)
#loc21 = loc("/mnt/weka/home/junlin.chen/workspace/autoresearch/autoresearch/.torchinductor-cache/2c/c2ceea7y625qmbs5lfn65butv6qhgwastuijior6dchgamwnonjb.py":33:36)
#loc22 = loc("/mnt/weka/home/junlin.chen/workspace/autoresearch/autoresearch/.torchinductor-cache/2c/c2ceea7y625qmbs5lfn65butv6qhgwastuijior6dchgamwnonjb.py":33:4)
#loc28 = loc("tmp6"(#loc1))
#loc29 = loc("tmp2"(#loc2))
#loc30 = loc("xmask"(#loc3))
#loc31 = loc("xoffset"(#loc5))
#loc32 = loc("xoffset"(#loc6))
#loc33 = loc("xindex"(#loc7))
#loc34 = loc("xindex"(#loc8))
#loc35 = loc("tmp0"(#loc9))
#loc36 = loc("tmp0"(#loc10))
#loc37 = loc("tmp0"(#loc11))
#loc38 = loc("tmp3"(#loc12))
#loc39 = loc("tmp3"(#loc13))
#loc40 = loc("tmp3"(#loc14))
#loc41 = loc("tmp7"(#loc15))
#loc42 = loc("tmp7"(#loc16))
#loc43 = loc("tmp7"(#loc17))
#loc44 = loc("tmp4"(#loc18))
#loc45 = loc("tmp8"(#loc19))
