#loc = loc("/mnt/weka/home/junlin.chen/workspace/autoresearch/autoresearch/.torchinductor-cache/3f/c3fgbqafb53oewwevmc4nrb3hwt423oabm247cc2ifes6w3ljc4b.py":18:0)
#loc25 = loc("in_ptr0"(#loc))
#loc26 = loc("in_ptr1"(#loc))
#loc27 = loc("in_ptr2"(#loc))
#loc28 = loc("out_ptr0"(#loc))
#loc29 = loc("xnumel"(#loc))
module {
  tt.func public @triton_poi_fused_add_mul_6(%in_ptr0: !tt.ptr<bf16> {tt.divisibility = 16 : i32} loc("in_ptr0"(#loc)), %in_ptr1: !tt.ptr<bf16> {tt.divisibility = 16 : i32} loc("in_ptr1"(#loc)), %in_ptr2: !tt.ptr<bf16> {tt.divisibility = 16 : i32} loc("in_ptr2"(#loc)), %out_ptr0: !tt.ptr<bf16> {tt.divisibility = 16 : i32} loc("out_ptr0"(#loc)), %xnumel: i32 {tt.divisibility = 16 : i32} loc("xnumel"(#loc))) attributes {noinline = false} {
    %xnumel_0 = arith.constant 8388608 : i32 loc(#loc30)
    %xoffset = tt.get_program_id x : i32 loc(#loc31)
    %xoffset_1 = arith.constant 512 : i32 loc(#loc32)
    %xoffset_2 = arith.constant 512 : i32 loc(#loc32)
    %xoffset_3 = arith.muli %xoffset, %xoffset_2 : i32 loc(#loc32)
    %xindex = tt.make_range {end = 512 : i32, start = 0 : i32} : tensor<512xi32> loc(#loc33)
    %xindex_4 = tt.splat %xoffset_3 : i32 -> tensor<512xi32> loc(#loc34)
    %xindex_5 = arith.addi %xindex_4, %xindex : tensor<512xi32> loc(#loc34)
    %xmask = arith.constant true loc(#loc35)
    %xmask_6 = arith.constant dense<true> : tensor<512xi1> loc(#loc35)
    %tmp0 = tt.splat %in_ptr0 : !tt.ptr<bf16> -> tensor<512x!tt.ptr<bf16>> loc(#loc36)
    %tmp0_7 = tt.addptr %tmp0, %xindex_5 : tensor<512x!tt.ptr<bf16>>, tensor<512xi32> loc(#loc36)
    %tmp0_8 = tt.load %tmp0_7 : tensor<512x!tt.ptr<bf16>> loc(#loc37)
    %tmp0_9 = arith.extf %tmp0_8 : tensor<512xbf16> to tensor<512xf32> loc(#loc38)
    %tmp3 = tt.splat %in_ptr1 : !tt.ptr<bf16> -> tensor<512x!tt.ptr<bf16>> loc(#loc39)
    %tmp3_10 = tt.addptr %tmp3, %xindex_5 : tensor<512x!tt.ptr<bf16>>, tensor<512xi32> loc(#loc39)
    %tmp3_11 = tt.load %tmp3_10 : tensor<512x!tt.ptr<bf16>> loc(#loc40)
    %tmp3_12 = arith.extf %tmp3_11 : tensor<512xbf16> to tensor<512xf32> loc(#loc41)
    %tmp7 = tt.splat %in_ptr2 : !tt.ptr<bf16> -> tensor<512x!tt.ptr<bf16>> loc(#loc42)
    %tmp7_13 = tt.addptr %tmp7, %xindex_5 : tensor<512x!tt.ptr<bf16>>, tensor<512xi32> loc(#loc42)
    %tmp7_14 = tt.load %tmp7_13 : tensor<512x!tt.ptr<bf16>> loc(#loc43)
    %tmp7_15 = arith.extf %tmp7_14 : tensor<512xbf16> to tensor<512xf32> loc(#loc44)
    %tmp1 = arith.constant 8.15655422 : f32 loc(#loc45)
    %tmp2 = arith.constant dense<8.15655422> : tensor<512xf32> loc(#loc46)
    %tmp2_16 = arith.mulf %tmp0_9, %tmp2 : tensor<512xf32> loc(#loc46)
    %tmp4 = arith.addf %tmp2_16, %tmp3_12 : tensor<512xf32> loc(#loc47)
    %tmp5 = arith.constant 4.042930e+00 : f32 loc(#loc48)
    %tmp6 = arith.constant dense<4.042930e+00> : tensor<512xf32> loc(#loc49)
    %tmp6_17 = arith.mulf %tmp4, %tmp6 : tensor<512xf32> loc(#loc49)
    %tmp8 = arith.addf %tmp6_17, %tmp7_15 : tensor<512xf32> loc(#loc50)
    %0 = tt.splat %out_ptr0 : !tt.ptr<bf16> -> tensor<512x!tt.ptr<bf16>> loc(#loc22)
    %1 = tt.addptr %0, %xindex_5 : tensor<512x!tt.ptr<bf16>>, tensor<512xi32> loc(#loc22)
    %2 = arith.truncf %tmp8 : tensor<512xf32> to tensor<512xbf16> loc(#loc23)
    tt.store %1, %2 : tensor<512x!tt.ptr<bf16>> loc(#loc23)
    tt.return loc(#loc24)
  } loc(#loc)
} loc(#loc)
#loc1 = loc("/mnt/weka/home/junlin.chen/workspace/autoresearch/autoresearch/.torchinductor-cache/3f/c3fgbqafb53oewwevmc4nrb3hwt423oabm247cc2ifes6w3ljc4b.py":19:13)
#loc2 = loc("/mnt/weka/home/junlin.chen/workspace/autoresearch/autoresearch/.torchinductor-cache/3f/c3fgbqafb53oewwevmc4nrb3hwt423oabm247cc2ifes6w3ljc4b.py":20:28)
#loc3 = loc("/mnt/weka/home/junlin.chen/workspace/autoresearch/autoresearch/.torchinductor-cache/3f/c3fgbqafb53oewwevmc4nrb3hwt423oabm247cc2ifes6w3ljc4b.py":20:33)
#loc4 = loc("/mnt/weka/home/junlin.chen/workspace/autoresearch/autoresearch/.torchinductor-cache/3f/c3fgbqafb53oewwevmc4nrb3hwt423oabm247cc2ifes6w3ljc4b.py":21:36)
#loc5 = loc("/mnt/weka/home/junlin.chen/workspace/autoresearch/autoresearch/.torchinductor-cache/3f/c3fgbqafb53oewwevmc4nrb3hwt423oabm247cc2ifes6w3ljc4b.py":21:23)
#loc6 = loc("/mnt/weka/home/junlin.chen/workspace/autoresearch/autoresearch/.torchinductor-cache/3f/c3fgbqafb53oewwevmc4nrb3hwt423oabm247cc2ifes6w3ljc4b.py":22:36)
#loc7 = loc("/mnt/weka/home/junlin.chen/workspace/autoresearch/autoresearch/.torchinductor-cache/3f/c3fgbqafb53oewwevmc4nrb3hwt423oabm247cc2ifes6w3ljc4b.py":24:30)
#loc8 = loc("/mnt/weka/home/junlin.chen/workspace/autoresearch/autoresearch/.torchinductor-cache/3f/c3fgbqafb53oewwevmc4nrb3hwt423oabm247cc2ifes6w3ljc4b.py":24:35)
#loc9 = loc("/mnt/weka/home/junlin.chen/workspace/autoresearch/autoresearch/.torchinductor-cache/3f/c3fgbqafb53oewwevmc4nrb3hwt423oabm247cc2ifes6w3ljc4b.py":24:44)
#loc10 = loc("/mnt/weka/home/junlin.chen/workspace/autoresearch/autoresearch/.torchinductor-cache/3f/c3fgbqafb53oewwevmc4nrb3hwt423oabm247cc2ifes6w3ljc4b.py":25:30)
#loc11 = loc("/mnt/weka/home/junlin.chen/workspace/autoresearch/autoresearch/.torchinductor-cache/3f/c3fgbqafb53oewwevmc4nrb3hwt423oabm247cc2ifes6w3ljc4b.py":25:35)
#loc12 = loc("/mnt/weka/home/junlin.chen/workspace/autoresearch/autoresearch/.torchinductor-cache/3f/c3fgbqafb53oewwevmc4nrb3hwt423oabm247cc2ifes6w3ljc4b.py":25:44)
#loc13 = loc("/mnt/weka/home/junlin.chen/workspace/autoresearch/autoresearch/.torchinductor-cache/3f/c3fgbqafb53oewwevmc4nrb3hwt423oabm247cc2ifes6w3ljc4b.py":26:30)
#loc14 = loc("/mnt/weka/home/junlin.chen/workspace/autoresearch/autoresearch/.torchinductor-cache/3f/c3fgbqafb53oewwevmc4nrb3hwt423oabm247cc2ifes6w3ljc4b.py":26:35)
#loc15 = loc("/mnt/weka/home/junlin.chen/workspace/autoresearch/autoresearch/.torchinductor-cache/3f/c3fgbqafb53oewwevmc4nrb3hwt423oabm247cc2ifes6w3ljc4b.py":26:44)
#loc16 = loc("/mnt/weka/home/junlin.chen/workspace/autoresearch/autoresearch/.torchinductor-cache/3f/c3fgbqafb53oewwevmc4nrb3hwt423oabm247cc2ifes6w3ljc4b.py":27:11)
#loc17 = loc("/mnt/weka/home/junlin.chen/workspace/autoresearch/autoresearch/.torchinductor-cache/3f/c3fgbqafb53oewwevmc4nrb3hwt423oabm247cc2ifes6w3ljc4b.py":28:18)
#loc18 = loc("/mnt/weka/home/junlin.chen/workspace/autoresearch/autoresearch/.torchinductor-cache/3f/c3fgbqafb53oewwevmc4nrb3hwt423oabm247cc2ifes6w3ljc4b.py":29:18)
#loc19 = loc("/mnt/weka/home/junlin.chen/workspace/autoresearch/autoresearch/.torchinductor-cache/3f/c3fgbqafb53oewwevmc4nrb3hwt423oabm247cc2ifes6w3ljc4b.py":30:11)
#loc20 = loc("/mnt/weka/home/junlin.chen/workspace/autoresearch/autoresearch/.torchinductor-cache/3f/c3fgbqafb53oewwevmc4nrb3hwt423oabm247cc2ifes6w3ljc4b.py":31:18)
#loc21 = loc("/mnt/weka/home/junlin.chen/workspace/autoresearch/autoresearch/.torchinductor-cache/3f/c3fgbqafb53oewwevmc4nrb3hwt423oabm247cc2ifes6w3ljc4b.py":32:18)
#loc22 = loc("/mnt/weka/home/junlin.chen/workspace/autoresearch/autoresearch/.torchinductor-cache/3f/c3fgbqafb53oewwevmc4nrb3hwt423oabm247cc2ifes6w3ljc4b.py":33:25)
#loc23 = loc("/mnt/weka/home/junlin.chen/workspace/autoresearch/autoresearch/.torchinductor-cache/3f/c3fgbqafb53oewwevmc4nrb3hwt423oabm247cc2ifes6w3ljc4b.py":33:36)
#loc24 = loc("/mnt/weka/home/junlin.chen/workspace/autoresearch/autoresearch/.torchinductor-cache/3f/c3fgbqafb53oewwevmc4nrb3hwt423oabm247cc2ifes6w3ljc4b.py":33:4)
#loc30 = loc("xnumel"(#loc1))
#loc31 = loc("xoffset"(#loc2))
#loc32 = loc("xoffset"(#loc3))
#loc33 = loc("xindex"(#loc4))
#loc34 = loc("xindex"(#loc5))
#loc35 = loc("xmask"(#loc6))
#loc36 = loc("tmp0"(#loc7))
#loc37 = loc("tmp0"(#loc8))
#loc38 = loc("tmp0"(#loc9))
#loc39 = loc("tmp3"(#loc10))
#loc40 = loc("tmp3"(#loc11))
#loc41 = loc("tmp3"(#loc12))
#loc42 = loc("tmp7"(#loc13))
#loc43 = loc("tmp7"(#loc14))
#loc44 = loc("tmp7"(#loc15))
#loc45 = loc("tmp1"(#loc16))
#loc46 = loc("tmp2"(#loc17))
#loc47 = loc("tmp4"(#loc18))
#loc48 = loc("tmp5"(#loc19))
#loc49 = loc("tmp6"(#loc20))
#loc50 = loc("tmp8"(#loc21))
