#loc = loc("/mnt/weka/home/junlin.chen/workspace/autoresearch/autoresearch/.torchinductor-cache/ah/cah7h6bs44ca6adoc6bglu7mu6ch4zj6upeeh6guw5d27sq5toib.py":18:0)
#loc1 = loc(unknown)
#loc16 = loc("/mnt/weka/home/junlin.chen/workspace/autoresearch/autoresearch/.torchinductor-cache/ah/cah7h6bs44ca6adoc6bglu7mu6ch4zj6upeeh6guw5d27sq5toib.py":37:24)
#loc22 = loc("in_ptr0"(#loc))
#loc23 = loc("out_ptr0"(#loc))
#loc24 = loc("xnumel"(#loc))
#loc25 = loc("r0_numel"(#loc))
#loc39 = loc("tmp4"(#loc16))
#loc42 = loc(callsite(#loc1 at #loc39))
module {
  tt.func public @triton_per_fused__to_copy_lerp_linalg_vector_norm_rsub_1(%in_ptr0: !tt.ptr<f32> {tt.divisibility = 16 : i32} loc("in_ptr0"(#loc)), %out_ptr0: !tt.ptr<f32> {tt.divisibility = 16 : i32} loc("out_ptr0"(#loc)), %xnumel: i32 {tt.divisibility = 16 : i32} loc("xnumel"(#loc)), %r0_numel: i32 {tt.divisibility = 16 : i32} loc("r0_numel"(#loc))) attributes {noinline = false} {
    %cst = arith.constant dense<0.000000e+00> : tensor<8x32xf32> loc(#loc1)
    %cst_0 = arith.constant dense<32> : tensor<8x1xi32> loc(#loc1)
    %c8_i32 = arith.constant 8 : i32 loc(#loc1)
    %xoffset = tt.get_program_id x : i32 loc(#loc26)
    %xoffset_1 = arith.muli %xoffset, %c8_i32 : i32 loc(#loc27)
    %xindex = tt.make_range {end = 8 : i32, start = 0 : i32} : tensor<8xi32> loc(#loc28)
    %xindex_2 = tt.expand_dims %xindex {axis = 1 : i32} : tensor<8xi32> -> tensor<8x1xi32> loc(#loc29)
    %xindex_3 = tt.splat %xoffset_1 : i32 -> tensor<8x1xi32> loc(#loc30)
    %xindex_4 = arith.addi %xindex_3, %xindex_2 : tensor<8x1xi32> loc(#loc30)
    %xmask = arith.cmpi slt, %xindex_4, %cst_0 : tensor<8x1xi32> loc(#loc31)
    %r0_index = tt.make_range {end = 32 : i32, start = 0 : i32} : tensor<32xi32> loc(#loc32)
    %r0_index_5 = tt.expand_dims %r0_index {axis = 0 : i32} : tensor<32xi32> -> tensor<1x32xi32> loc(#loc33)
    %tmp0 = arith.muli %xindex_4, %cst_0 : tensor<8x1xi32> loc(#loc34)
    %tmp0_6 = tt.broadcast %r0_index_5 : tensor<1x32xi32> -> tensor<8x32xi32> loc(#loc35)
    %tmp0_7 = tt.broadcast %tmp0 : tensor<8x1xi32> -> tensor<8x32xi32> loc(#loc35)
    %tmp0_8 = arith.addi %tmp0_6, %tmp0_7 : tensor<8x32xi32> loc(#loc35)
    %tmp0_9 = tt.splat %in_ptr0 : !tt.ptr<f32> -> tensor<8x32x!tt.ptr<f32>> loc(#loc36)
    %tmp0_10 = tt.addptr %tmp0_9, %tmp0_8 : tensor<8x32x!tt.ptr<f32>>, tensor<8x32xi32> loc(#loc36)
    %tmp0_11 = tt.broadcast %xmask : tensor<8x1xi1> -> tensor<8x32xi1> loc(#loc37)
    %tmp0_12 = tt.load %tmp0_10, %tmp0_11, %cst : tensor<8x32x!tt.ptr<f32>> loc(#loc37)
    %tmp3 = arith.select %tmp0_11, %tmp0_12, %cst : tensor<8x32xi1>, tensor<8x32xf32> loc(#loc38)
    %tmp4 = "tt.reduce"(%tmp3) <{axis = 1 : i32}> ({
    ^bb0(%tmp4_14: f32 loc(callsite(#loc1 at #loc39)), %tmp4_15: f32 loc(callsite(#loc1 at #loc39))):
      %tmp4_16 = arith.addf %tmp4_14, %tmp4_15 : f32 loc(#loc43)
      tt.reduce.return %tmp4_16 : f32 loc(#loc41)
    }) : (tensor<8x32xf32>) -> tensor<8xf32> loc(#loc41)
    %tmp4_13 = tt.expand_dims %tmp4 {axis = 1 : i32} : tensor<8xf32> -> tensor<8x1xf32> loc(#loc40)
    %0 = tt.splat %out_ptr0 : !tt.ptr<f32> -> tensor<8x1x!tt.ptr<f32>> loc(#loc19)
    %1 = tt.addptr %0, %xindex_4 : tensor<8x1x!tt.ptr<f32>>, tensor<8x1xi32> loc(#loc19)
    tt.store %1, %tmp4_13, %xmask : tensor<8x1x!tt.ptr<f32>> loc(#loc20)
    tt.return loc(#loc21)
  } loc(#loc)
} loc(#loc)
#loc2 = loc("/mnt/weka/home/junlin.chen/workspace/autoresearch/autoresearch/.torchinductor-cache/ah/cah7h6bs44ca6adoc6bglu7mu6ch4zj6upeeh6guw5d27sq5toib.py":24:28)
#loc3 = loc("/mnt/weka/home/junlin.chen/workspace/autoresearch/autoresearch/.torchinductor-cache/ah/cah7h6bs44ca6adoc6bglu7mu6ch4zj6upeeh6guw5d27sq5toib.py":24:33)
#loc4 = loc("/mnt/weka/home/junlin.chen/workspace/autoresearch/autoresearch/.torchinductor-cache/ah/cah7h6bs44ca6adoc6bglu7mu6ch4zj6upeeh6guw5d27sq5toib.py":25:36)
#loc5 = loc("/mnt/weka/home/junlin.chen/workspace/autoresearch/autoresearch/.torchinductor-cache/ah/cah7h6bs44ca6adoc6bglu7mu6ch4zj6upeeh6guw5d27sq5toib.py":25:44)
#loc6 = loc("/mnt/weka/home/junlin.chen/workspace/autoresearch/autoresearch/.torchinductor-cache/ah/cah7h6bs44ca6adoc6bglu7mu6ch4zj6upeeh6guw5d27sq5toib.py":25:23)
#loc7 = loc("/mnt/weka/home/junlin.chen/workspace/autoresearch/autoresearch/.torchinductor-cache/ah/cah7h6bs44ca6adoc6bglu7mu6ch4zj6upeeh6guw5d27sq5toib.py":26:21)
#loc8 = loc("/mnt/weka/home/junlin.chen/workspace/autoresearch/autoresearch/.torchinductor-cache/ah/cah7h6bs44ca6adoc6bglu7mu6ch4zj6upeeh6guw5d27sq5toib.py":27:28)
#loc9 = loc("/mnt/weka/home/junlin.chen/workspace/autoresearch/autoresearch/.torchinductor-cache/ah/cah7h6bs44ca6adoc6bglu7mu6ch4zj6upeeh6guw5d27sq5toib.py":27:38)
#loc10 = loc("/mnt/weka/home/junlin.chen/workspace/autoresearch/autoresearch/.torchinductor-cache/ah/cah7h6bs44ca6adoc6bglu7mu6ch4zj6upeeh6guw5d27sq5toib.py":34:40)
#loc11 = loc("/mnt/weka/home/junlin.chen/workspace/autoresearch/autoresearch/.torchinductor-cache/ah/cah7h6bs44ca6adoc6bglu7mu6ch4zj6upeeh6guw5d27sq5toib.py":34:37)
#loc12 = loc("/mnt/weka/home/junlin.chen/workspace/autoresearch/autoresearch/.torchinductor-cache/ah/cah7h6bs44ca6adoc6bglu7mu6ch4zj6upeeh6guw5d27sq5toib.py":34:30)
#loc13 = loc("/mnt/weka/home/junlin.chen/workspace/autoresearch/autoresearch/.torchinductor-cache/ah/cah7h6bs44ca6adoc6bglu7mu6ch4zj6upeeh6guw5d27sq5toib.py":34:45)
#loc14 = loc("/mnt/weka/home/junlin.chen/workspace/autoresearch/autoresearch/.torchinductor-cache/ah/cah7h6bs44ca6adoc6bglu7mu6ch4zj6upeeh6guw5d27sq5toib.py":36:33)
#loc15 = loc("/mnt/weka/home/junlin.chen/workspace/autoresearch/autoresearch/.venv/lib/python3.13/site-packages/triton/language/standard.py":291:36)
#loc17 = loc("/mnt/weka/home/junlin.chen/workspace/autoresearch/autoresearch/.venv/lib/python3.13/site-packages/triton/language/standard.py":261:15)
#loc18 = loc("/mnt/weka/home/junlin.chen/workspace/autoresearch/autoresearch/.torchinductor-cache/ah/cah7h6bs44ca6adoc6bglu7mu6ch4zj6upeeh6guw5d27sq5toib.py":37:27)
#loc19 = loc("/mnt/weka/home/junlin.chen/workspace/autoresearch/autoresearch/.torchinductor-cache/ah/cah7h6bs44ca6adoc6bglu7mu6ch4zj6upeeh6guw5d27sq5toib.py":38:25)
#loc20 = loc("/mnt/weka/home/junlin.chen/workspace/autoresearch/autoresearch/.torchinductor-cache/ah/cah7h6bs44ca6adoc6bglu7mu6ch4zj6upeeh6guw5d27sq5toib.py":38:36)
#loc21 = loc("/mnt/weka/home/junlin.chen/workspace/autoresearch/autoresearch/.torchinductor-cache/ah/cah7h6bs44ca6adoc6bglu7mu6ch4zj6upeeh6guw5d27sq5toib.py":38:4)
#loc26 = loc("xoffset"(#loc2))
#loc27 = loc("xoffset"(#loc3))
#loc28 = loc("xindex"(#loc4))
#loc29 = loc("xindex"(#loc5))
#loc30 = loc("xindex"(#loc6))
#loc31 = loc("xmask"(#loc7))
#loc32 = loc("r0_index"(#loc8))
#loc33 = loc("r0_index"(#loc9))
#loc34 = loc("tmp0"(#loc10))
#loc35 = loc("tmp0"(#loc11))
#loc36 = loc("tmp0"(#loc12))
#loc37 = loc("tmp0"(#loc13))
#loc38 = loc("tmp3"(#loc14))
#loc40 = loc("tmp4"(#loc18))
#loc41 = loc(callsite(#loc15 at #loc39))
#loc43 = loc(callsite(#loc17 at #loc41))
