#loc = loc("/mnt/weka/home/junlin.chen/workspace/autoresearch/autoresearch/.torchinductor-cache/sm/csmmix5zqsqvh5zc2lys3rngvlwhc4xq74ktvx2ug5rg6dxj5f2v.py":18:0)
#loc18 = loc("in_ptr0"(#loc))
#loc19 = loc("out_ptr0"(#loc))
#loc20 = loc("out_ptr1"(#loc))
#loc21 = loc("xnumel"(#loc))
module {
  tt.func public @triton_poi_fused__to_copy__unsafe_view_mm_mul_sigmoid_sigmoid_backward_squeeze_t_view_10(%in_ptr0: !tt.ptr<bf16> {tt.divisibility = 16 : i32} loc("in_ptr0"(#loc)), %out_ptr0: !tt.ptr<bf16> {tt.divisibility = 16 : i32} loc("out_ptr0"(#loc)), %out_ptr1: !tt.ptr<bf16> {tt.divisibility = 16 : i32} loc("out_ptr1"(#loc)), %xnumel: i32 {tt.divisibility = 16 : i32} loc("xnumel"(#loc))) attributes {noinline = false} {
    %tmp3 = arith.constant dense<0.000000e+00> : tensor<512xbf16> loc(#loc22)
    %tmp3_0 = arith.constant dense<4> : tensor<512xi32> loc(#loc23)
    %tmp2 = arith.constant dense<4> : tensor<512xi64> loc(#loc24)
    %cst = arith.constant dense<8> : tensor<512xi32> loc(#loc4)
    %c512_i32 = arith.constant 512 : i32 loc(#loc4)
    %xoffset = tt.get_program_id x : i32 loc(#loc25)
    %xoffset_1 = arith.muli %xoffset, %c512_i32 : i32 loc(#loc26)
    %xindex = tt.make_range {end = 512 : i32, start = 0 : i32} : tensor<512xi32> loc(#loc27)
    %xindex_2 = tt.splat %xoffset_1 : i32 -> tensor<512xi32> loc(#loc28)
    %xindex_3 = arith.addi %xindex_2, %xindex : tensor<512xi32> loc(#loc28)
    %x0 = arith.remsi %xindex_3, %cst : tensor<512xi32> loc(#loc29)
    %x1 = arith.divsi %xindex_3, %cst : tensor<512xi32> loc(#loc30)
    %tmp2_4 = arith.extsi %x0 : tensor<512xi32> to tensor<512xi64> loc(#loc24)
    %tmp2_5 = arith.cmpi slt, %tmp2_4, %tmp2 : tensor<512xi64> loc(#loc24)
    %tmp3_6 = arith.muli %x1, %tmp3_0 : tensor<512xi32> loc(#loc23)
    %tmp3_7 = arith.addi %x0, %tmp3_6 : tensor<512xi32> loc(#loc31)
    %tmp3_8 = tt.splat %in_ptr0 : !tt.ptr<bf16> -> tensor<512x!tt.ptr<bf16>> loc(#loc32)
    %tmp3_9 = tt.addptr %tmp3_8, %tmp3_7 : tensor<512x!tt.ptr<bf16>>, tensor<512xi32> loc(#loc32)
    %tmp3_10 = tt.load %tmp3_9, %tmp2_5, %tmp3 : tensor<512x!tt.ptr<bf16>> loc(#loc22)
    %0 = tt.splat %out_ptr0 : !tt.ptr<bf16> -> tensor<512x!tt.ptr<bf16>> loc(#loc13)
    %1 = tt.addptr %0, %xindex_3 : tensor<512x!tt.ptr<bf16>>, tensor<512xi32> loc(#loc13)
    tt.store %1, %tmp3_10 : tensor<512x!tt.ptr<bf16>> loc(#loc14)
    %2 = tt.splat %out_ptr1 : !tt.ptr<bf16> -> tensor<512x!tt.ptr<bf16>> loc(#loc15)
    %3 = tt.addptr %2, %xindex_3 : tensor<512x!tt.ptr<bf16>>, tensor<512xi32> loc(#loc15)
    tt.store %3, %tmp3_10 : tensor<512x!tt.ptr<bf16>> loc(#loc16)
    tt.return loc(#loc17)
  } loc(#loc)
} loc(#loc)
#loc1 = loc("/mnt/weka/home/junlin.chen/workspace/autoresearch/autoresearch/.torchinductor-cache/sm/csmmix5zqsqvh5zc2lys3rngvlwhc4xq74ktvx2ug5rg6dxj5f2v.py":29:42)
#loc2 = loc("/mnt/weka/home/junlin.chen/workspace/autoresearch/autoresearch/.torchinductor-cache/sm/csmmix5zqsqvh5zc2lys3rngvlwhc4xq74ktvx2ug5rg6dxj5f2v.py":29:37)
#loc3 = loc("/mnt/weka/home/junlin.chen/workspace/autoresearch/autoresearch/.torchinductor-cache/sm/csmmix5zqsqvh5zc2lys3rngvlwhc4xq74ktvx2ug5rg6dxj5f2v.py":28:18)
#loc4 = loc(unknown)
#loc5 = loc("/mnt/weka/home/junlin.chen/workspace/autoresearch/autoresearch/.torchinductor-cache/sm/csmmix5zqsqvh5zc2lys3rngvlwhc4xq74ktvx2ug5rg6dxj5f2v.py":20:28)
#loc6 = loc("/mnt/weka/home/junlin.chen/workspace/autoresearch/autoresearch/.torchinductor-cache/sm/csmmix5zqsqvh5zc2lys3rngvlwhc4xq74ktvx2ug5rg6dxj5f2v.py":20:33)
#loc7 = loc("/mnt/weka/home/junlin.chen/workspace/autoresearch/autoresearch/.torchinductor-cache/sm/csmmix5zqsqvh5zc2lys3rngvlwhc4xq74ktvx2ug5rg6dxj5f2v.py":21:36)
#loc8 = loc("/mnt/weka/home/junlin.chen/workspace/autoresearch/autoresearch/.torchinductor-cache/sm/csmmix5zqsqvh5zc2lys3rngvlwhc4xq74ktvx2ug5rg6dxj5f2v.py":21:23)
#loc9 = loc("/mnt/weka/home/junlin.chen/workspace/autoresearch/autoresearch/.torchinductor-cache/sm/csmmix5zqsqvh5zc2lys3rngvlwhc4xq74ktvx2ug5rg6dxj5f2v.py":23:19)
#loc10 = loc("/mnt/weka/home/junlin.chen/workspace/autoresearch/autoresearch/.torchinductor-cache/sm/csmmix5zqsqvh5zc2lys3rngvlwhc4xq74ktvx2ug5rg6dxj5f2v.py":24:19)
#loc11 = loc("/mnt/weka/home/junlin.chen/workspace/autoresearch/autoresearch/.torchinductor-cache/sm/csmmix5zqsqvh5zc2lys3rngvlwhc4xq74ktvx2ug5rg6dxj5f2v.py":29:35)
#loc12 = loc("/mnt/weka/home/junlin.chen/workspace/autoresearch/autoresearch/.torchinductor-cache/sm/csmmix5zqsqvh5zc2lys3rngvlwhc4xq74ktvx2ug5rg6dxj5f2v.py":29:30)
#loc13 = loc("/mnt/weka/home/junlin.chen/workspace/autoresearch/autoresearch/.torchinductor-cache/sm/csmmix5zqsqvh5zc2lys3rngvlwhc4xq74ktvx2ug5rg6dxj5f2v.py":30:25)
#loc14 = loc("/mnt/weka/home/junlin.chen/workspace/autoresearch/autoresearch/.torchinductor-cache/sm/csmmix5zqsqvh5zc2lys3rngvlwhc4xq74ktvx2ug5rg6dxj5f2v.py":30:36)
#loc15 = loc("/mnt/weka/home/junlin.chen/workspace/autoresearch/autoresearch/.torchinductor-cache/sm/csmmix5zqsqvh5zc2lys3rngvlwhc4xq74ktvx2ug5rg6dxj5f2v.py":31:25)
#loc16 = loc("/mnt/weka/home/junlin.chen/workspace/autoresearch/autoresearch/.torchinductor-cache/sm/csmmix5zqsqvh5zc2lys3rngvlwhc4xq74ktvx2ug5rg6dxj5f2v.py":31:36)
#loc17 = loc("/mnt/weka/home/junlin.chen/workspace/autoresearch/autoresearch/.torchinductor-cache/sm/csmmix5zqsqvh5zc2lys3rngvlwhc4xq74ktvx2ug5rg6dxj5f2v.py":31:4)
#loc22 = loc("tmp3"(#loc1))
#loc23 = loc("tmp3"(#loc2))
#loc24 = loc("tmp2"(#loc3))
#loc25 = loc("xoffset"(#loc5))
#loc26 = loc("xoffset"(#loc6))
#loc27 = loc("xindex"(#loc7))
#loc28 = loc("xindex"(#loc8))
#loc29 = loc("x0"(#loc9))
#loc30 = loc("x1"(#loc10))
#loc31 = loc("tmp3"(#loc11))
#loc32 = loc("tmp3"(#loc12))
