#loc = loc("/mnt/weka/home/junlin.chen/workspace/autoresearch/autoresearch/.torchinductor-cache/un/cun6tsg5h3fvdjiqtkp2rib6izqmfhc5vs6xon4l7v5oii5prara.py":18:0)
#loc17 = loc("in_out_ptr0"(#loc))
#loc18 = loc("in_ptr0"(#loc))
#loc19 = loc("xnumel"(#loc))
module {
  tt.func public @triton_poi_fused_add_mul_5(%in_out_ptr0: !tt.ptr<bf16> {tt.divisibility = 16 : i32} loc("in_out_ptr0"(#loc)), %in_ptr0: !tt.ptr<bf16> {tt.divisibility = 16 : i32} loc("in_ptr0"(#loc)), %xnumel: i32 {tt.divisibility = 16 : i32} loc("xnumel"(#loc))) attributes {noinline = false} {
    %tmp5 = arith.constant dense<0.500017822> : tensor<512xf32> loc(#loc20)
    %tmp2 = arith.constant dense<-2.80891752> : tensor<512xf32> loc(#loc21)
    %c512_i32 = arith.constant 512 : i32 loc(#loc3)
    %xoffset = tt.get_program_id x : i32 loc(#loc22)
    %xoffset_0 = arith.muli %xoffset, %c512_i32 : i32 loc(#loc23)
    %xindex = tt.make_range {end = 512 : i32, start = 0 : i32} : tensor<512xi32> loc(#loc24)
    %xindex_1 = tt.splat %xoffset_0 : i32 -> tensor<512xi32> loc(#loc25)
    %xindex_2 = arith.addi %xindex_1, %xindex : tensor<512xi32> loc(#loc25)
    %tmp0 = tt.splat %in_out_ptr0 : !tt.ptr<bf16> -> tensor<512x!tt.ptr<bf16>> loc(#loc26)
    %tmp0_3 = tt.addptr %tmp0, %xindex_2 : tensor<512x!tt.ptr<bf16>>, tensor<512xi32> loc(#loc26)
    %tmp0_4 = tt.load %tmp0_3 : tensor<512x!tt.ptr<bf16>> loc(#loc27)
    %tmp0_5 = arith.extf %tmp0_4 : tensor<512xbf16> to tensor<512xf32> loc(#loc28)
    %tmp3 = tt.splat %in_ptr0 : !tt.ptr<bf16> -> tensor<512x!tt.ptr<bf16>> loc(#loc29)
    %tmp3_6 = tt.addptr %tmp3, %xindex_2 : tensor<512x!tt.ptr<bf16>>, tensor<512xi32> loc(#loc29)
    %tmp3_7 = tt.load %tmp3_6 : tensor<512x!tt.ptr<bf16>> loc(#loc30)
    %tmp3_8 = arith.extf %tmp3_7 : tensor<512xbf16> to tensor<512xf32> loc(#loc31)
    %tmp2_9 = arith.mulf %tmp0_5, %tmp2 : tensor<512xf32> loc(#loc21)
    %tmp5_10 = arith.mulf %tmp3_8, %tmp5 : tensor<512xf32> loc(#loc20)
    %tmp6 = arith.addf %tmp2_9, %tmp5_10 : tensor<512xf32> loc(#loc32)
    %0 = arith.truncf %tmp6 : tensor<512xf32> to tensor<512xbf16> loc(#loc15)
    tt.store %tmp0_3, %0 : tensor<512x!tt.ptr<bf16>> loc(#loc15)
    tt.return loc(#loc16)
  } loc(#loc)
} loc(#loc)
#loc1 = loc("/mnt/weka/home/junlin.chen/workspace/autoresearch/autoresearch/.torchinductor-cache/un/cun6tsg5h3fvdjiqtkp2rib6izqmfhc5vs6xon4l7v5oii5prara.py":29:18)
#loc2 = loc("/mnt/weka/home/junlin.chen/workspace/autoresearch/autoresearch/.torchinductor-cache/un/cun6tsg5h3fvdjiqtkp2rib6izqmfhc5vs6xon4l7v5oii5prara.py":27:18)
#loc3 = loc(unknown)
#loc4 = loc("/mnt/weka/home/junlin.chen/workspace/autoresearch/autoresearch/.torchinductor-cache/un/cun6tsg5h3fvdjiqtkp2rib6izqmfhc5vs6xon4l7v5oii5prara.py":20:28)
#loc5 = loc("/mnt/weka/home/junlin.chen/workspace/autoresearch/autoresearch/.torchinductor-cache/un/cun6tsg5h3fvdjiqtkp2rib6izqmfhc5vs6xon4l7v5oii5prara.py":20:33)
#loc6 = loc("/mnt/weka/home/junlin.chen/workspace/autoresearch/autoresearch/.torchinductor-cache/un/cun6tsg5h3fvdjiqtkp2rib6izqmfhc5vs6xon4l7v5oii5prara.py":21:36)
#loc7 = loc("/mnt/weka/home/junlin.chen/workspace/autoresearch/autoresearch/.torchinductor-cache/un/cun6tsg5h3fvdjiqtkp2rib6izqmfhc5vs6xon4l7v5oii5prara.py":21:23)
#loc8 = loc("/mnt/weka/home/junlin.chen/workspace/autoresearch/autoresearch/.torchinductor-cache/un/cun6tsg5h3fvdjiqtkp2rib6izqmfhc5vs6xon4l7v5oii5prara.py":24:34)
#loc9 = loc("/mnt/weka/home/junlin.chen/workspace/autoresearch/autoresearch/.torchinductor-cache/un/cun6tsg5h3fvdjiqtkp2rib6izqmfhc5vs6xon4l7v5oii5prara.py":24:39)
#loc10 = loc("/mnt/weka/home/junlin.chen/workspace/autoresearch/autoresearch/.torchinductor-cache/un/cun6tsg5h3fvdjiqtkp2rib6izqmfhc5vs6xon4l7v5oii5prara.py":24:48)
#loc11 = loc("/mnt/weka/home/junlin.chen/workspace/autoresearch/autoresearch/.torchinductor-cache/un/cun6tsg5h3fvdjiqtkp2rib6izqmfhc5vs6xon4l7v5oii5prara.py":25:30)
#loc12 = loc("/mnt/weka/home/junlin.chen/workspace/autoresearch/autoresearch/.torchinductor-cache/un/cun6tsg5h3fvdjiqtkp2rib6izqmfhc5vs6xon4l7v5oii5prara.py":25:35)
#loc13 = loc("/mnt/weka/home/junlin.chen/workspace/autoresearch/autoresearch/.torchinductor-cache/un/cun6tsg5h3fvdjiqtkp2rib6izqmfhc5vs6xon4l7v5oii5prara.py":25:44)
#loc14 = loc("/mnt/weka/home/junlin.chen/workspace/autoresearch/autoresearch/.torchinductor-cache/un/cun6tsg5h3fvdjiqtkp2rib6izqmfhc5vs6xon4l7v5oii5prara.py":30:18)
#loc15 = loc("/mnt/weka/home/junlin.chen/workspace/autoresearch/autoresearch/.torchinductor-cache/un/cun6tsg5h3fvdjiqtkp2rib6izqmfhc5vs6xon4l7v5oii5prara.py":31:39)
#loc16 = loc("/mnt/weka/home/junlin.chen/workspace/autoresearch/autoresearch/.torchinductor-cache/un/cun6tsg5h3fvdjiqtkp2rib6izqmfhc5vs6xon4l7v5oii5prara.py":31:4)
#loc20 = loc("tmp5"(#loc1))
#loc21 = loc("tmp2"(#loc2))
#loc22 = loc("xoffset"(#loc4))
#loc23 = loc("xoffset"(#loc5))
#loc24 = loc("xindex"(#loc6))
#loc25 = loc("xindex"(#loc7))
#loc26 = loc("tmp0"(#loc8))
#loc27 = loc("tmp0"(#loc9))
#loc28 = loc("tmp0"(#loc10))
#loc29 = loc("tmp3"(#loc11))
#loc30 = loc("tmp3"(#loc12))
#loc31 = loc("tmp3"(#loc13))
#loc32 = loc("tmp6"(#loc14))
