#loc = loc("/mnt/weka/home/junlin.chen/workspace/autoresearch/autoresearch/.torchinductor-cache/pr/cprsukkjzz6pneu7zzx5nwfjv37lmssjmq3gpxapcjjjgvm6dz3y.py":18:0)
#loc15 = loc("in_ptr0"(#loc))
#loc16 = loc("out_ptr0"(#loc))
#loc17 = loc("xnumel"(#loc))
module {
  tt.func public @triton_poi_fused_mm_11(%in_ptr0: !tt.ptr<bf16> {tt.divisibility = 16 : i32} loc("in_ptr0"(#loc)), %out_ptr0: !tt.ptr<bf16> {tt.divisibility = 16 : i32} loc("out_ptr0"(#loc)), %xnumel: i32 {tt.divisibility = 16 : i32} loc("xnumel"(#loc))) attributes {noinline = false} {
    %tmp3 = arith.constant dense<0.000000e+00> : tensor<128xbf16> loc(#loc18)
    %tmp2 = arith.constant dense<4> : tensor<128xi64> loc(#loc19)
    %x1 = arith.constant dense<32> : tensor<128xi32> loc(#loc20)
    %xmask = arith.constant dense<256> : tensor<128xi32> loc(#loc21)
    %c128_i32 = arith.constant 128 : i32 loc(#loc5)
    %xoffset = tt.get_program_id x : i32 loc(#loc22)
    %xoffset_0 = arith.muli %xoffset, %c128_i32 : i32 loc(#loc23)
    %xindex = tt.make_range {end = 128 : i32, start = 0 : i32} : tensor<128xi32> loc(#loc24)
    %xindex_1 = tt.splat %xoffset_0 : i32 -> tensor<128xi32> loc(#loc25)
    %xindex_2 = arith.addi %xindex_1, %xindex : tensor<128xi32> loc(#loc25)
    %xmask_3 = arith.cmpi slt, %xindex_2, %xmask : tensor<128xi32> loc(#loc21)
    %x1_4 = arith.divsi %xindex_2, %x1 : tensor<128xi32> loc(#loc20)
    %tmp2_5 = arith.extsi %x1_4 : tensor<128xi32> to tensor<128xi64> loc(#loc19)
    %tmp2_6 = arith.cmpi slt, %tmp2_5, %tmp2 : tensor<128xi64> loc(#loc19)
    %tmp3_7 = tt.splat %in_ptr0 : !tt.ptr<bf16> -> tensor<128x!tt.ptr<bf16>> loc(#loc26)
    %tmp3_8 = tt.addptr %tmp3_7, %xindex_2 : tensor<128x!tt.ptr<bf16>>, tensor<128xi32> loc(#loc26)
    %tmp3_9 = arith.andi %tmp2_6, %xmask_3 : tensor<128xi1> loc(#loc27)
    %tmp3_10 = tt.load %tmp3_8, %tmp3_9, %tmp3 : tensor<128x!tt.ptr<bf16>> loc(#loc18)
    %0 = tt.splat %out_ptr0 : !tt.ptr<bf16> -> tensor<128x!tt.ptr<bf16>> loc(#loc12)
    %1 = tt.addptr %0, %xindex_2 : tensor<128x!tt.ptr<bf16>>, tensor<128xi32> loc(#loc12)
    tt.store %1, %tmp3_10, %xmask_3 : tensor<128x!tt.ptr<bf16>> loc(#loc13)
    tt.return loc(#loc14)
  } loc(#loc)
} loc(#loc)
#loc1 = loc("/mnt/weka/home/junlin.chen/workspace/autoresearch/autoresearch/.torchinductor-cache/pr/cprsukkjzz6pneu7zzx5nwfjv37lmssjmq3gpxapcjjjgvm6dz3y.py":28:35)
#loc2 = loc("/mnt/weka/home/junlin.chen/workspace/autoresearch/autoresearch/.torchinductor-cache/pr/cprsukkjzz6pneu7zzx5nwfjv37lmssjmq3gpxapcjjjgvm6dz3y.py":27:18)
#loc3 = loc("/mnt/weka/home/junlin.chen/workspace/autoresearch/autoresearch/.torchinductor-cache/pr/cprsukkjzz6pneu7zzx5nwfjv37lmssjmq3gpxapcjjjgvm6dz3y.py":23:19)
#loc4 = loc("/mnt/weka/home/junlin.chen/workspace/autoresearch/autoresearch/.torchinductor-cache/pr/cprsukkjzz6pneu7zzx5nwfjv37lmssjmq3gpxapcjjjgvm6dz3y.py":22:21)
#loc5 = loc(unknown)
#loc6 = loc("/mnt/weka/home/junlin.chen/workspace/autoresearch/autoresearch/.torchinductor-cache/pr/cprsukkjzz6pneu7zzx5nwfjv37lmssjmq3gpxapcjjjgvm6dz3y.py":20:28)
#loc7 = loc("/mnt/weka/home/junlin.chen/workspace/autoresearch/autoresearch/.torchinductor-cache/pr/cprsukkjzz6pneu7zzx5nwfjv37lmssjmq3gpxapcjjjgvm6dz3y.py":20:33)
#loc8 = loc("/mnt/weka/home/junlin.chen/workspace/autoresearch/autoresearch/.torchinductor-cache/pr/cprsukkjzz6pneu7zzx5nwfjv37lmssjmq3gpxapcjjjgvm6dz3y.py":21:36)
#loc9 = loc("/mnt/weka/home/junlin.chen/workspace/autoresearch/autoresearch/.torchinductor-cache/pr/cprsukkjzz6pneu7zzx5nwfjv37lmssjmq3gpxapcjjjgvm6dz3y.py":21:23)
#loc10 = loc("/mnt/weka/home/junlin.chen/workspace/autoresearch/autoresearch/.torchinductor-cache/pr/cprsukkjzz6pneu7zzx5nwfjv37lmssjmq3gpxapcjjjgvm6dz3y.py":28:30)
#loc11 = loc("/mnt/weka/home/junlin.chen/workspace/autoresearch/autoresearch/.torchinductor-cache/pr/cprsukkjzz6pneu7zzx5nwfjv37lmssjmq3gpxapcjjjgvm6dz3y.py":28:42)
#loc12 = loc("/mnt/weka/home/junlin.chen/workspace/autoresearch/autoresearch/.torchinductor-cache/pr/cprsukkjzz6pneu7zzx5nwfjv37lmssjmq3gpxapcjjjgvm6dz3y.py":29:25)
#loc13 = loc("/mnt/weka/home/junlin.chen/workspace/autoresearch/autoresearch/.torchinductor-cache/pr/cprsukkjzz6pneu7zzx5nwfjv37lmssjmq3gpxapcjjjgvm6dz3y.py":29:36)
#loc14 = loc("/mnt/weka/home/junlin.chen/workspace/autoresearch/autoresearch/.torchinductor-cache/pr/cprsukkjzz6pneu7zzx5nwfjv37lmssjmq3gpxapcjjjgvm6dz3y.py":29:4)
#loc18 = loc("tmp3"(#loc1))
#loc19 = loc("tmp2"(#loc2))
#loc20 = loc("x1"(#loc3))
#loc21 = loc("xmask"(#loc4))
#loc22 = loc("xoffset"(#loc6))
#loc23 = loc("xoffset"(#loc7))
#loc24 = loc("xindex"(#loc8))
#loc25 = loc("xindex"(#loc9))
#loc26 = loc("tmp3"(#loc10))
#loc27 = loc("tmp3"(#loc11))
