#loc = loc("/mnt/weka/home/junlin.chen/workspace/autoresearch/autoresearch/.torchinductor-cache/zn/czn3coalfjnjpabctzutab5ie2h44m5ho23ur7nhighsnbcqw2jp.py":18:0)
#loc19 = loc("in_ptr0"(#loc))
#loc20 = loc("in_ptr1"(#loc))
#loc21 = loc("out_ptr0"(#loc))
#loc22 = loc("xnumel"(#loc))
module {
  tt.func public @triton_poi_fused_add_mul_2(%in_ptr0: !tt.ptr<bf16> {tt.divisibility = 16 : i32} loc("in_ptr0"(#loc)), %in_ptr1: !tt.ptr<bf16> {tt.divisibility = 16 : i32} loc("in_ptr1"(#loc)), %out_ptr0: !tt.ptr<bf16> {tt.divisibility = 16 : i32} loc("out_ptr0"(#loc)), %xnumel: i32 {tt.divisibility = 16 : i32} loc("xnumel"(#loc))) attributes {noinline = false} {
    %xnumel_0 = arith.constant 512 : i32 loc(#loc23)
    %xoffset = tt.get_program_id x : i32 loc(#loc24)
    %xoffset_1 = arith.constant 128 : i32 loc(#loc25)
    %xoffset_2 = arith.constant 128 : i32 loc(#loc25)
    %xoffset_3 = arith.muli %xoffset, %xoffset_2 : i32 loc(#loc25)
    %xindex = tt.make_range {end = 128 : i32, start = 0 : i32} : tensor<128xi32> loc(#loc26)
    %xindex_4 = tt.splat %xoffset_3 : i32 -> tensor<128xi32> loc(#loc27)
    %xindex_5 = arith.addi %xindex_4, %xindex : tensor<128xi32> loc(#loc27)
    %xmask = arith.constant dense<512> : tensor<128xi32> loc(#loc28)
    %xmask_6 = arith.cmpi slt, %xindex_5, %xmask : tensor<128xi32> loc(#loc28)
    %tmp0 = tt.splat %in_ptr0 : !tt.ptr<bf16> -> tensor<128x!tt.ptr<bf16>> loc(#loc29)
    %tmp0_7 = tt.addptr %tmp0, %xindex_5 : tensor<128x!tt.ptr<bf16>>, tensor<128xi32> loc(#loc29)
    %tmp0_8 = tt.load %tmp0_7, %xmask_6 : tensor<128x!tt.ptr<bf16>> loc(#loc30)
    %tmp0_9 = arith.extf %tmp0_8 : tensor<128xbf16> to tensor<128xf32> loc(#loc31)
    %tmp3 = tt.splat %in_ptr1 : !tt.ptr<bf16> -> tensor<128x!tt.ptr<bf16>> loc(#loc32)
    %tmp3_10 = tt.addptr %tmp3, %xindex_5 : tensor<128x!tt.ptr<bf16>>, tensor<128xi32> loc(#loc32)
    %tmp3_11 = tt.load %tmp3_10, %xmask_6 : tensor<128x!tt.ptr<bf16>> loc(#loc33)
    %tmp3_12 = arith.extf %tmp3_11 : tensor<128xbf16> to tensor<128xf32> loc(#loc34)
    %tmp1 = arith.constant 8.15655422 : f32 loc(#loc35)
    %tmp2 = arith.constant dense<8.15655422> : tensor<128xf32> loc(#loc36)
    %tmp2_13 = arith.mulf %tmp0_9, %tmp2 : tensor<128xf32> loc(#loc36)
    %tmp4 = arith.addf %tmp2_13, %tmp3_12 : tensor<128xf32> loc(#loc37)
    %0 = tt.splat %out_ptr0 : !tt.ptr<bf16> -> tensor<128x!tt.ptr<bf16>> loc(#loc16)
    %1 = tt.addptr %0, %xindex_5 : tensor<128x!tt.ptr<bf16>>, tensor<128xi32> loc(#loc16)
    %2 = arith.truncf %tmp4 : tensor<128xf32> to tensor<128xbf16> loc(#loc17)
    tt.store %1, %2, %xmask_6 : tensor<128x!tt.ptr<bf16>> loc(#loc17)
    tt.return loc(#loc18)
  } loc(#loc)
} loc(#loc)
#loc1 = loc("/mnt/weka/home/junlin.chen/workspace/autoresearch/autoresearch/.torchinductor-cache/zn/czn3coalfjnjpabctzutab5ie2h44m5ho23ur7nhighsnbcqw2jp.py":19:13)
#loc2 = loc("/mnt/weka/home/junlin.chen/workspace/autoresearch/autoresearch/.torchinductor-cache/zn/czn3coalfjnjpabctzutab5ie2h44m5ho23ur7nhighsnbcqw2jp.py":20:28)
#loc3 = loc("/mnt/weka/home/junlin.chen/workspace/autoresearch/autoresearch/.torchinductor-cache/zn/czn3coalfjnjpabctzutab5ie2h44m5ho23ur7nhighsnbcqw2jp.py":20:33)
#loc4 = loc("/mnt/weka/home/junlin.chen/workspace/autoresearch/autoresearch/.torchinductor-cache/zn/czn3coalfjnjpabctzutab5ie2h44m5ho23ur7nhighsnbcqw2jp.py":21:36)
#loc5 = loc("/mnt/weka/home/junlin.chen/workspace/autoresearch/autoresearch/.torchinductor-cache/zn/czn3coalfjnjpabctzutab5ie2h44m5ho23ur7nhighsnbcqw2jp.py":21:23)
#loc6 = loc("/mnt/weka/home/junlin.chen/workspace/autoresearch/autoresearch/.torchinductor-cache/zn/czn3coalfjnjpabctzutab5ie2h44m5ho23ur7nhighsnbcqw2jp.py":22:21)
#loc7 = loc("/mnt/weka/home/junlin.chen/workspace/autoresearch/autoresearch/.torchinductor-cache/zn/czn3coalfjnjpabctzutab5ie2h44m5ho23ur7nhighsnbcqw2jp.py":24:30)
#loc8 = loc("/mnt/weka/home/junlin.chen/workspace/autoresearch/autoresearch/.torchinductor-cache/zn/czn3coalfjnjpabctzutab5ie2h44m5ho23ur7nhighsnbcqw2jp.py":24:35)
#loc9 = loc("/mnt/weka/home/junlin.chen/workspace/autoresearch/autoresearch/.torchinductor-cache/zn/czn3coalfjnjpabctzutab5ie2h44m5ho23ur7nhighsnbcqw2jp.py":24:45)
#loc10 = loc("/mnt/weka/home/junlin.chen/workspace/autoresearch/autoresearch/.torchinductor-cache/zn/czn3coalfjnjpabctzutab5ie2h44m5ho23ur7nhighsnbcqw2jp.py":25:30)
#loc11 = loc("/mnt/weka/home/junlin.chen/workspace/autoresearch/autoresearch/.torchinductor-cache/zn/czn3coalfjnjpabctzutab5ie2h44m5ho23ur7nhighsnbcqw2jp.py":25:35)
#loc12 = loc("/mnt/weka/home/junlin.chen/workspace/autoresearch/autoresearch/.torchinductor-cache/zn/czn3coalfjnjpabctzutab5ie2h44m5ho23ur7nhighsnbcqw2jp.py":25:45)
#loc13 = loc("/mnt/weka/home/junlin.chen/workspace/autoresearch/autoresearch/.torchinductor-cache/zn/czn3coalfjnjpabctzutab5ie2h44m5ho23ur7nhighsnbcqw2jp.py":26:11)
#loc14 = loc("/mnt/weka/home/junlin.chen/workspace/autoresearch/autoresearch/.torchinductor-cache/zn/czn3coalfjnjpabctzutab5ie2h44m5ho23ur7nhighsnbcqw2jp.py":27:18)
#loc15 = loc("/mnt/weka/home/junlin.chen/workspace/autoresearch/autoresearch/.torchinductor-cache/zn/czn3coalfjnjpabctzutab5ie2h44m5ho23ur7nhighsnbcqw2jp.py":28:18)
#loc16 = loc("/mnt/weka/home/junlin.chen/workspace/autoresearch/autoresearch/.torchinductor-cache/zn/czn3coalfjnjpabctzutab5ie2h44m5ho23ur7nhighsnbcqw2jp.py":29:25)
#loc17 = loc("/mnt/weka/home/junlin.chen/workspace/autoresearch/autoresearch/.torchinductor-cache/zn/czn3coalfjnjpabctzutab5ie2h44m5ho23ur7nhighsnbcqw2jp.py":29:36)
#loc18 = loc("/mnt/weka/home/junlin.chen/workspace/autoresearch/autoresearch/.torchinductor-cache/zn/czn3coalfjnjpabctzutab5ie2h44m5ho23ur7nhighsnbcqw2jp.py":29:4)
#loc23 = loc("xnumel"(#loc1))
#loc24 = loc("xoffset"(#loc2))
#loc25 = loc("xoffset"(#loc3))
#loc26 = loc("xindex"(#loc4))
#loc27 = loc("xindex"(#loc5))
#loc28 = loc("xmask"(#loc6))
#loc29 = loc("tmp0"(#loc7))
#loc30 = loc("tmp0"(#loc8))
#loc31 = loc("tmp0"(#loc9))
#loc32 = loc("tmp3"(#loc10))
#loc33 = loc("tmp3"(#loc11))
#loc34 = loc("tmp3"(#loc12))
#loc35 = loc("tmp1"(#loc13))
#loc36 = loc("tmp2"(#loc14))
#loc37 = loc("tmp4"(#loc15))
