#loc = loc("/mnt/weka/home/junlin.chen/workspace/autoresearch/autoresearch/.torchinductor-cache/hx/chx62crty6a75brvthhgmnkpdfk7xfb6fman5ov6vzujxs2bgqzx.py":18:0)
#loc17 = loc("in_ptr0"(#loc))
#loc18 = loc("in_ptr1"(#loc))
#loc19 = loc("out_ptr0"(#loc))
#loc20 = loc("xnumel"(#loc))
module {
  tt.func public @triton_poi_fused_add_mul_4(%in_ptr0: !tt.ptr<bf16> {tt.divisibility = 16 : i32} loc("in_ptr0"(#loc)), %in_ptr1: !tt.ptr<bf16> {tt.divisibility = 16 : i32} loc("in_ptr1"(#loc)), %out_ptr0: !tt.ptr<bf16> {tt.divisibility = 16 : i32} loc("out_ptr0"(#loc)), %xnumel: i32 {tt.divisibility = 16 : i32} loc("xnumel"(#loc))) attributes {noinline = false} {
    %tmp2 = arith.constant dense<8.15655422> : tensor<1024xf32> loc(#loc21)
    %c1024_i32 = arith.constant 1024 : i32 loc(#loc2)
    %xoffset = tt.get_program_id x : i32 loc(#loc22)
    %xoffset_0 = arith.muli %xoffset, %c1024_i32 : i32 loc(#loc23)
    %xindex = tt.make_range {end = 1024 : i32, start = 0 : i32} : tensor<1024xi32> loc(#loc24)
    %xindex_1 = tt.splat %xoffset_0 : i32 -> tensor<1024xi32> loc(#loc25)
    %xindex_2 = arith.addi %xindex_1, %xindex : tensor<1024xi32> loc(#loc25)
    %tmp0 = tt.splat %in_ptr0 : !tt.ptr<bf16> -> tensor<1024x!tt.ptr<bf16>> loc(#loc26)
    %tmp0_3 = tt.addptr %tmp0, %xindex_2 : tensor<1024x!tt.ptr<bf16>>, tensor<1024xi32> loc(#loc26)
    %tmp0_4 = tt.load %tmp0_3 : tensor<1024x!tt.ptr<bf16>> loc(#loc27)
    %tmp0_5 = arith.extf %tmp0_4 : tensor<1024xbf16> to tensor<1024xf32> loc(#loc28)
    %tmp3 = tt.splat %in_ptr1 : !tt.ptr<bf16> -> tensor<1024x!tt.ptr<bf16>> loc(#loc29)
    %tmp3_6 = tt.addptr %tmp3, %xindex_2 : tensor<1024x!tt.ptr<bf16>>, tensor<1024xi32> loc(#loc29)
    %tmp3_7 = tt.load %tmp3_6 : tensor<1024x!tt.ptr<bf16>> loc(#loc30)
    %tmp3_8 = arith.extf %tmp3_7 : tensor<1024xbf16> to tensor<1024xf32> loc(#loc31)
    %tmp2_9 = arith.mulf %tmp0_5, %tmp2 : tensor<1024xf32> loc(#loc21)
    %tmp4 = arith.addf %tmp2_9, %tmp3_8 : tensor<1024xf32> loc(#loc32)
    %0 = tt.splat %out_ptr0 : !tt.ptr<bf16> -> tensor<1024x!tt.ptr<bf16>> loc(#loc14)
    %1 = tt.addptr %0, %xindex_2 : tensor<1024x!tt.ptr<bf16>>, tensor<1024xi32> loc(#loc14)
    %2 = arith.truncf %tmp4 : tensor<1024xf32> to tensor<1024xbf16> loc(#loc15)
    tt.store %1, %2 : tensor<1024x!tt.ptr<bf16>> loc(#loc15)
    tt.return loc(#loc16)
  } loc(#loc)
} loc(#loc)
#loc1 = loc("/mnt/weka/home/junlin.chen/workspace/autoresearch/autoresearch/.torchinductor-cache/hx/chx62crty6a75brvthhgmnkpdfk7xfb6fman5ov6vzujxs2bgqzx.py":27:18)
#loc2 = loc(unknown)
#loc3 = loc("/mnt/weka/home/junlin.chen/workspace/autoresearch/autoresearch/.torchinductor-cache/hx/chx62crty6a75brvthhgmnkpdfk7xfb6fman5ov6vzujxs2bgqzx.py":20:28)
#loc4 = loc("/mnt/weka/home/junlin.chen/workspace/autoresearch/autoresearch/.torchinductor-cache/hx/chx62crty6a75brvthhgmnkpdfk7xfb6fman5ov6vzujxs2bgqzx.py":20:33)
#loc5 = loc("/mnt/weka/home/junlin.chen/workspace/autoresearch/autoresearch/.torchinductor-cache/hx/chx62crty6a75brvthhgmnkpdfk7xfb6fman5ov6vzujxs2bgqzx.py":21:36)
#loc6 = loc("/mnt/weka/home/junlin.chen/workspace/autoresearch/autoresearch/.torchinductor-cache/hx/chx62crty6a75brvthhgmnkpdfk7xfb6fman5ov6vzujxs2bgqzx.py":21:23)
#loc7 = loc("/mnt/weka/home/junlin.chen/workspace/autoresearch/autoresearch/.torchinductor-cache/hx/chx62crty6a75brvthhgmnkpdfk7xfb6fman5ov6vzujxs2bgqzx.py":24:30)
#loc8 = loc("/mnt/weka/home/junlin.chen/workspace/autoresearch/autoresearch/.torchinductor-cache/hx/chx62crty6a75brvthhgmnkpdfk7xfb6fman5ov6vzujxs2bgqzx.py":24:35)
#loc9 = loc("/mnt/weka/home/junlin.chen/workspace/autoresearch/autoresearch/.torchinductor-cache/hx/chx62crty6a75brvthhgmnkpdfk7xfb6fman5ov6vzujxs2bgqzx.py":24:44)
#loc10 = loc("/mnt/weka/home/junlin.chen/workspace/autoresearch/autoresearch/.torchinductor-cache/hx/chx62crty6a75brvthhgmnkpdfk7xfb6fman5ov6vzujxs2bgqzx.py":25:30)
#loc11 = loc("/mnt/weka/home/junlin.chen/workspace/autoresearch/autoresearch/.torchinductor-cache/hx/chx62crty6a75brvthhgmnkpdfk7xfb6fman5ov6vzujxs2bgqzx.py":25:35)
#loc12 = loc("/mnt/weka/home/junlin.chen/workspace/autoresearch/autoresearch/.torchinductor-cache/hx/chx62crty6a75brvthhgmnkpdfk7xfb6fman5ov6vzujxs2bgqzx.py":25:44)
#loc13 = loc("/mnt/weka/home/junlin.chen/workspace/autoresearch/autoresearch/.torchinductor-cache/hx/chx62crty6a75brvthhgmnkpdfk7xfb6fman5ov6vzujxs2bgqzx.py":28:18)
#loc14 = loc("/mnt/weka/home/junlin.chen/workspace/autoresearch/autoresearch/.torchinductor-cache/hx/chx62crty6a75brvthhgmnkpdfk7xfb6fman5ov6vzujxs2bgqzx.py":29:25)
#loc15 = loc("/mnt/weka/home/junlin.chen/workspace/autoresearch/autoresearch/.torchinductor-cache/hx/chx62crty6a75brvthhgmnkpdfk7xfb6fman5ov6vzujxs2bgqzx.py":29:36)
#loc16 = loc("/mnt/weka/home/junlin.chen/workspace/autoresearch/autoresearch/.torchinductor-cache/hx/chx62crty6a75brvthhgmnkpdfk7xfb6fman5ov6vzujxs2bgqzx.py":29:4)
#loc21 = loc("tmp2"(#loc1))
#loc22 = loc("xoffset"(#loc3))
#loc23 = loc("xoffset"(#loc4))
#loc24 = loc("xindex"(#loc5))
#loc25 = loc("xindex"(#loc6))
#loc26 = loc("tmp0"(#loc7))
#loc27 = loc("tmp0"(#loc8))
#loc28 = loc("tmp0"(#loc9))
#loc29 = loc("tmp3"(#loc10))
#loc30 = loc("tmp3"(#loc11))
#loc31 = loc("tmp3"(#loc12))
#loc32 = loc("tmp4"(#loc13))
