#loc = loc("/mnt/weka/home/junlin.chen/workspace/autoresearch/autoresearch/.torchinductor-cache/ls/clsz2jqj2q4f5ivgg5lrfs5gonnivpcudffzwekjmmayvbpnahgn.py":18:0)
#loc22 = loc("in_ptr0"(#loc))
#loc23 = loc("in_ptr1"(#loc))
#loc24 = loc("in_ptr2"(#loc))
#loc25 = loc("out_ptr0"(#loc))
#loc26 = loc("xnumel"(#loc))
module {
  tt.func public @triton_poi_fused_add_mul_6(%in_ptr0: !tt.ptr<bf16> {tt.divisibility = 16 : i32} loc("in_ptr0"(#loc)), %in_ptr1: !tt.ptr<bf16> {tt.divisibility = 16 : i32} loc("in_ptr1"(#loc)), %in_ptr2: !tt.ptr<bf16> {tt.divisibility = 16 : i32} loc("in_ptr2"(#loc)), %out_ptr0: !tt.ptr<bf16> {tt.divisibility = 16 : i32} loc("out_ptr0"(#loc)), %xnumel: i32 {tt.divisibility = 16 : i32} loc("xnumel"(#loc))) attributes {noinline = false} {
    %tmp6 = arith.constant dense<4.042930e+00> : tensor<512xf32> loc(#loc27)
    %tmp2 = arith.constant dense<8.15655422> : tensor<512xf32> loc(#loc28)
    %c512_i32 = arith.constant 512 : i32 loc(#loc3)
    %xoffset = tt.get_program_id x : i32 loc(#loc29)
    %xoffset_0 = arith.muli %xoffset, %c512_i32 : i32 loc(#loc30)
    %xindex = tt.make_range {end = 512 : i32, start = 0 : i32} : tensor<512xi32> loc(#loc31)
    %xindex_1 = tt.splat %xoffset_0 : i32 -> tensor<512xi32> loc(#loc32)
    %xindex_2 = arith.addi %xindex_1, %xindex : tensor<512xi32> loc(#loc32)
    %tmp0 = tt.splat %in_ptr0 : !tt.ptr<bf16> -> tensor<512x!tt.ptr<bf16>> loc(#loc33)
    %tmp0_3 = tt.addptr %tmp0, %xindex_2 : tensor<512x!tt.ptr<bf16>>, tensor<512xi32> loc(#loc33)
    %tmp0_4 = tt.load %tmp0_3 : tensor<512x!tt.ptr<bf16>> loc(#loc34)
    %tmp0_5 = arith.extf %tmp0_4 : tensor<512xbf16> to tensor<512xf32> loc(#loc35)
    %tmp3 = tt.splat %in_ptr1 : !tt.ptr<bf16> -> tensor<512x!tt.ptr<bf16>> loc(#loc36)
    %tmp3_6 = tt.addptr %tmp3, %xindex_2 : tensor<512x!tt.ptr<bf16>>, tensor<512xi32> loc(#loc36)
    %tmp3_7 = tt.load %tmp3_6 : tensor<512x!tt.ptr<bf16>> loc(#loc37)
    %tmp3_8 = arith.extf %tmp3_7 : tensor<512xbf16> to tensor<512xf32> loc(#loc38)
    %tmp7 = tt.splat %in_ptr2 : !tt.ptr<bf16> -> tensor<512x!tt.ptr<bf16>> loc(#loc39)
    %tmp7_9 = tt.addptr %tmp7, %xindex_2 : tensor<512x!tt.ptr<bf16>>, tensor<512xi32> loc(#loc39)
    %tmp7_10 = tt.load %tmp7_9 : tensor<512x!tt.ptr<bf16>> loc(#loc40)
    %tmp7_11 = arith.extf %tmp7_10 : tensor<512xbf16> to tensor<512xf32> loc(#loc41)
    %tmp2_12 = arith.mulf %tmp0_5, %tmp2 : tensor<512xf32> loc(#loc28)
    %tmp4 = arith.addf %tmp2_12, %tmp3_8 : tensor<512xf32> loc(#loc42)
    %tmp6_13 = arith.mulf %tmp4, %tmp6 : tensor<512xf32> loc(#loc27)
    %tmp8 = arith.addf %tmp6_13, %tmp7_11 : tensor<512xf32> loc(#loc43)
    %0 = tt.splat %out_ptr0 : !tt.ptr<bf16> -> tensor<512x!tt.ptr<bf16>> loc(#loc19)
    %1 = tt.addptr %0, %xindex_2 : tensor<512x!tt.ptr<bf16>>, tensor<512xi32> loc(#loc19)
    %2 = arith.truncf %tmp8 : tensor<512xf32> to tensor<512xbf16> loc(#loc20)
    tt.store %1, %2 : tensor<512x!tt.ptr<bf16>> loc(#loc20)
    tt.return loc(#loc21)
  } loc(#loc)
} loc(#loc)
#loc1 = loc("/mnt/weka/home/junlin.chen/workspace/autoresearch/autoresearch/.torchinductor-cache/ls/clsz2jqj2q4f5ivgg5lrfs5gonnivpcudffzwekjmmayvbpnahgn.py":31:18)
#loc2 = loc("/mnt/weka/home/junlin.chen/workspace/autoresearch/autoresearch/.torchinductor-cache/ls/clsz2jqj2q4f5ivgg5lrfs5gonnivpcudffzwekjmmayvbpnahgn.py":28:18)
#loc3 = loc(unknown)
#loc4 = loc("/mnt/weka/home/junlin.chen/workspace/autoresearch/autoresearch/.torchinductor-cache/ls/clsz2jqj2q4f5ivgg5lrfs5gonnivpcudffzwekjmmayvbpnahgn.py":20:28)
#loc5 = loc("/mnt/weka/home/junlin.chen/workspace/autoresearch/autoresearch/.torchinductor-cache/ls/clsz2jqj2q4f5ivgg5lrfs5gonnivpcudffzwekjmmayvbpnahgn.py":20:33)
#loc6 = loc("/mnt/weka/home/junlin.chen/workspace/autoresearch/autoresearch/.torchinductor-cache/ls/clsz2jqj2q4f5ivgg5lrfs5gonnivpcudffzwekjmmayvbpnahgn.py":21:36)
#loc7 = loc("/mnt/weka/home/junlin.chen/workspace/autoresearch/autoresearch/.torchinductor-cache/ls/clsz2jqj2q4f5ivgg5lrfs5gonnivpcudffzwekjmmayvbpnahgn.py":21:23)
#loc8 = loc("/mnt/weka/home/junlin.chen/workspace/autoresearch/autoresearch/.torchinductor-cache/ls/clsz2jqj2q4f5ivgg5lrfs5gonnivpcudffzwekjmmayvbpnahgn.py":24:30)
#loc9 = loc("/mnt/weka/home/junlin.chen/workspace/autoresearch/autoresearch/.torchinductor-cache/ls/clsz2jqj2q4f5ivgg5lrfs5gonnivpcudffzwekjmmayvbpnahgn.py":24:35)
#loc10 = loc("/mnt/weka/home/junlin.chen/workspace/autoresearch/autoresearch/.torchinductor-cache/ls/clsz2jqj2q4f5ivgg5lrfs5gonnivpcudffzwekjmmayvbpnahgn.py":24:44)
#loc11 = loc("/mnt/weka/home/junlin.chen/workspace/autoresearch/autoresearch/.torchinductor-cache/ls/clsz2jqj2q4f5ivgg5lrfs5gonnivpcudffzwekjmmayvbpnahgn.py":25:30)
#loc12 = loc("/mnt/weka/home/junlin.chen/workspace/autoresearch/autoresearch/.torchinductor-cache/ls/clsz2jqj2q4f5ivgg5lrfs5gonnivpcudffzwekjmmayvbpnahgn.py":25:35)
#loc13 = loc("/mnt/weka/home/junlin.chen/workspace/autoresearch/autoresearch/.torchinductor-cache/ls/clsz2jqj2q4f5ivgg5lrfs5gonnivpcudffzwekjmmayvbpnahgn.py":25:44)
#loc14 = loc("/mnt/weka/home/junlin.chen/workspace/autoresearch/autoresearch/.torchinductor-cache/ls/clsz2jqj2q4f5ivgg5lrfs5gonnivpcudffzwekjmmayvbpnahgn.py":26:30)
#loc15 = loc("/mnt/weka/home/junlin.chen/workspace/autoresearch/autoresearch/.torchinductor-cache/ls/clsz2jqj2q4f5ivgg5lrfs5gonnivpcudffzwekjmmayvbpnahgn.py":26:35)
#loc16 = loc("/mnt/weka/home/junlin.chen/workspace/autoresearch/autoresearch/.torchinductor-cache/ls/clsz2jqj2q4f5ivgg5lrfs5gonnivpcudffzwekjmmayvbpnahgn.py":26:44)
#loc17 = loc("/mnt/weka/home/junlin.chen/workspace/autoresearch/autoresearch/.torchinductor-cache/ls/clsz2jqj2q4f5ivgg5lrfs5gonnivpcudffzwekjmmayvbpnahgn.py":29:18)
#loc18 = loc("/mnt/weka/home/junlin.chen/workspace/autoresearch/autoresearch/.torchinductor-cache/ls/clsz2jqj2q4f5ivgg5lrfs5gonnivpcudffzwekjmmayvbpnahgn.py":32:18)
#loc19 = loc("/mnt/weka/home/junlin.chen/workspace/autoresearch/autoresearch/.torchinductor-cache/ls/clsz2jqj2q4f5ivgg5lrfs5gonnivpcudffzwekjmmayvbpnahgn.py":33:25)
#loc20 = loc("/mnt/weka/home/junlin.chen/workspace/autoresearch/autoresearch/.torchinductor-cache/ls/clsz2jqj2q4f5ivgg5lrfs5gonnivpcudffzwekjmmayvbpnahgn.py":33:36)
#loc21 = loc("/mnt/weka/home/junlin.chen/workspace/autoresearch/autoresearch/.torchinductor-cache/ls/clsz2jqj2q4f5ivgg5lrfs5gonnivpcudffzwekjmmayvbpnahgn.py":33:4)
#loc27 = loc("tmp6"(#loc1))
#loc28 = loc("tmp2"(#loc2))
#loc29 = loc("xoffset"(#loc4))
#loc30 = loc("xoffset"(#loc5))
#loc31 = loc("xindex"(#loc6))
#loc32 = loc("xindex"(#loc7))
#loc33 = loc("tmp0"(#loc8))
#loc34 = loc("tmp0"(#loc9))
#loc35 = loc("tmp0"(#loc10))
#loc36 = loc("tmp3"(#loc11))
#loc37 = loc("tmp3"(#loc12))
#loc38 = loc("tmp3"(#loc13))
#loc39 = loc("tmp7"(#loc14))
#loc40 = loc("tmp7"(#loc15))
#loc41 = loc("tmp7"(#loc16))
#loc42 = loc("tmp4"(#loc17))
#loc43 = loc("tmp8"(#loc18))
